weights/quantized_lenet5_mnist_20250703_1003.pth (torch, 70797 bytes, 5 tensors)

c1.bias f4 [6]
00000000: 3cab 42be 1b16 ecbd 7607 693d 0051 9abe
00000010: 3c55 acbe eb76 9dbd
-0.19010633 -0.11527654 0.05689188 -0.30139923 -0.3365878 -0.076886974

c2.bias f4 [16]
00000000: f684 83bd 8624 a2bd 52e9 8b3d f6e4 61bd
00000010: 165f 2cbd eb29 ac3c 831d 803d 4f03 a63c
00000020: 233c c53b 1e7a 61bd 3bee 15be 7a1a 1fbd
00000030: 6e52 193d a86c b0bd 9741 3a3d 5f1a ba3d
-0.06421845 -0.079171225 0.06831612 -0.055149995 -0.04208287 0.021016082 0.06255629 0.02026525
0.0060191317 -0.0550481 -0.14641659 -0.03884361 0.037432127 -0.086144745 0.045472708 0.09087061

c3.bias f4 [120]
00000000: 7de2 a43d 8d7c 10bd 235b 043d cfeb 8cbc
00000010: 17ed b3bd 0373 963d 19e2 80bd a9a7 ab3c
00000020: 4f09 96bd 9bd2 aabd 1cbe 93bd 52ec 9b3c
00000030: 0fc6 253b 94cb 7c3c 92a6 1abc cdcf 0abe
00000040: d3c8 9b3d 12ff 8ebb b781 143c d041 60bc
00000050: 32d3 26be cf90 3bbd 873f 663d b44c 59bc
00000060: 958c 70bd 4efa eebc f672 abbc ae38 853b
00000070: 51c3 68bd 2853 14bd 9f49 27bb 8116 a439
00000080: f93c 9cbd ce45 52bb 4f1b 1fbe 7f7a 93bc
00000090: 95c1 55bd 5d95 73bd f6f0 79bd 86a7 e93d
000000a0: d603 02bc fa2d 153d f448 1d3c ca02 bf3b
000000b0: 78a7 0f3d f5aa 903d 6e92 8ebd a8f7 04bd
000000c0: 1adc adbd b09b 913c ee76 2fbc 128d 16bd
000000d0: 0bf5 ef3c b005 e3bd d0a4 d5bd a211 2ebd
000000e0: 18a3 6cbd 67b6 efbc f184 10bd 8930 143e
000000f0: ae5b ddbc 85fc e5bc d1c6 95bd 866c afbd
00000100: 9874 96bc 2ec2 47bc 859a b93d 07ef d5bc
00000110: abfc f43b b74e b0bd 4580 9ebc 5523 d13c
00000120: 4d4e 46bd 7915 9dbd 45a6 2fbd e551 10bd
00000130: e797 e53d e65a e3bd 8b55 d8bb 57cc 94bd
00000140: c970 5e3d b857 e3bc 2530 20bd 3da9 78bd
00000150: f65d a2bc 1061 f33b bca5 a5bc 4a7a fbbc
00000160: 8440 80bc 5dca 56bd 1c7b 08bd 2ac8 b83c
00000170: a933 3c3d 4f75 2eba 14ff d2bd 7e2a 4bbd
00000180: e494 c6bb 3990 8d3d afd7 d13c 48d6 26bd
00000190: f5cd 1ebd f8e2 b2bd 370d 59bd 4f9a 503d
000001a0: cf08 c13d 5ea4 bd3d 7d2f 4ebb f076 643c
000001b0: 48d9 8abd dd75 80bc c6e0 32bd e182 063e
000001c0: 3f6f 3dbd ecf9 64bd c6a0 fabd af94 86bd
000001d0: b487 c03c 5084 90bc 009e 093d 6cd8 75bd
0.08051012 -0.03527503 0.032313477 -0.017202286 -0.08785456 0.073461555 -0.06293125 0.02095397
-0.07325994 -0.08340951 -0.07213995 0.019033585 0.0025295054 0.015429396 -0.0094391275 -0.13555832
0.076066636 -0.004363903 0.00906413 -0.013687566 -0.16291502 -0.045792397 0.05621293 -0.013262916
-0.05872782 -0.029172089 -0.020928841 0.0040655946 -0.056826893 -0.036212116 -0.002552606 0.00031297284
-0.07628817 -0.0032085064 -0.15537761 -0.018002747 -0.052186567 -0.059468616 -0.061020814 0.11408906
-0.007935485 0.0364208 0.009599913 0.00582919 0.03507182 0.070638575 -0.06961523 -0.032462746
-0.08489247 0.017774433 -0.010709507 -0.03675563 0.02929165 -0.11085069 -0.10431826 -0.042497285
-0.057772726 -0.02926178 -0.035283033 0.1447164 -0.027021255 -0.028074512 -0.07313312 -0.08565621
-0.018366143 -0.012192292 0.090626754 -0.026114954 0.0074764094 -0.08608764 -0.019348273 0.025529543
-0.048414517 -0.07670111 -0.042883176 -0.03523435 0.11210614 -0.11101322 -0.0066019944 -0.07265537
0.05430678 -0.027751788 -0.039108414 -0.060708273 -0.019820195 0.0074273422 -0.02022063 -0.03069796
-0.015655763 -0.052439082 -0.03332053 0.022556383 0.045947704 -0.00066550536 -0.103025585 -0.04960107
-0.0060602296 0.06912274 0.025615541 -0.0407317 -0.038770635 -0.08734697 -0.05299112 0.05092841
0.09425508 0.09259866 -0.003146141 0.013944373 -0.06779724 -0.015681202 -0.043671392 0.13135864
-0.04624867 -0.055902407 -0.12237696 -0.06571328 0.023502208 -0.017641217 0.033597946 -0.06002085

cpu f4 [84]
00000000: 767f 63bd d79e e5bd 1916 193e 2d2d b2bc
00000010: 55eb a2bd 827e dbbc e372 25bc 0b4f 1bbd
00000020: 6df8 3a3d 17ad fe3d 4a86 743c 05a0 60bd
00000030: 3812 2c3d 12a1 13be 0208 a7bd fd4f 5f3e
00000040: d0d2 d6bd ba56 6b3d e49d 65b8 e5e5 5cbc
00000050: 5e64 c9bd 9d2b 043e d2be a4bc c948 48bd
00000060: c6d2 0dbe 11c9 c13d 790a 843e 52e0 0cbd
00000070: e47a 983d f9aa af3c 64b8 253e baff 563d
00000080: bb4b 023e 993a 123d bc23 ea3d afb7 12bc
00000090: d4c8 50bd 8498 bdbc 2c67 323e ed63 90bd
000000a0: 835a 92bd 6587 cfbd 3963 e7bd 76b2 8fbd
000000b0: 5c43 c7bc 17b3 3d3e f1ac 04be eb80 a33d
000000c0: e4ad 413e 0db0 99bc 14f2 f63d 1c08 113e
000000d0: 029c 8bbd 2ae5 723d 758e f43c e78a e53b
000000e0: d92c a9bd 0696 443d 7e2d e8bd 9953 cabc
000000f0: f8ae cfbd 3d43 5c3e eeba 9f3e db1b 22be
00000100: e599 aebd 464a abbc e425 473d 9896 833d
00000110: d397 30be c7a2 f83c 49b5 cabd 6faf 3f3e
00000120: 6e8a 713c 60de 5ebe 756c 89bd 152a 203d
00000130: 5b3c 5dbe 0211 403d ac6a dfbd 3935 83bd
00000140: 6ab6 3f3e ed38 273e 0500 e6bd 2e18 2a3d
-0.055541478 -0.11211937 0.14949836 -0.021750057 -0.07955042 -0.026793722 -0.010098192 -0.037917178
0.045647074 0.12435358 0.014924595 -0.054840107 0.042009562 -0.14416912 -0.08155824 0.21807857
-0.10489428 0.057455756 -5.47449e-05 -0.0134825455 -0.09833597 0.12907262 -0.020110521 -0.04889754
-0.13849935 0.094621785 0.2578924 -0.034393616 0.074453145 0.02144383 0.1618362 0.052489974
0.12724201 0.035700414 0.11432597 -0.008954926 -0.050972775 -0.023144014 0.1742217 -0.07050309
-0.0714617 -0.10133246 -0.11298222 -0.070164606 -0.024324112 0.18525349 -0.12956597 0.079835735
0.1891399 -0.018760705 0.120578915 0.1416325 -0.068168655 0.05930058 0.029853085 0.007005084
-0.08260507 0.047994636 -0.11336802 -0.024698066 -0.101407945 0.21510024 0.31197304 -0.15830939
-0.08525447 -0.02090944 0.04862012 0.06425208 -0.17245416 0.030351056 -0.09897859 0.18719266
0.014742477 -0.21764517 -0.0671014 0.039102633 -0.21605055 0.04689122 -0.10909018 -0.06406636
0.18721929 0.16330309 -0.112304725 0.041526966

cpu f4 [10]
00000000: c16e 5a3c 3c12 85bd 413f 04be 5953 4a3c
00000010: f70b 3fbd f9cd 4c3c fea1 41bc 2476 18bd
00000020: a62b 2b3e 61c8 db3c
0.01333207 -0.064976186 -0.12914754 0.012348973 -0.04664227 0.01250028 -0.011818407 -0.037222043
0.1671587 0.026828947
