models/lenet5_mnist.pth (torch, 250837 bytes, 10 tensors)

c1.weight f4 [6, 1, 5, 5]
-0.089393795 -0.131722 -0.11484097 -0.20517467 -0.1242541 0.095415875 0.11442382 -0.14512135
-0.28789166 0.09289622 0.032687865 0.12825193 -0.021902224 -0.013790891 -0.14404154 0.19703099
0.1289393 0.1532231 -0.09732321 0.13800265 0.20821184 0.03662444 0.06868177 -0.10899249
-0.044107627 -0.25251776 0.07584536 -0.16383827 0.07293846 -0.058474556 -0.11715578 0.06629659
0.094802 -0.12917942 0.047943104 -0.10700171 0.22126512 -0.045170043 0.2601782 -0.04598146
0.15445325 0.27603513 -0.003730538 0.3317456 0.17885669 0.0027573134 -0.09655741 -0.104362115
0.013281591 0.122800365 -0.118666515 0.04224304 -0.039115056 -0.18252705 -0.028281871 -0.07185612
-0.243666 -0.1777308 0.09901162 0.111080185 -0.14568333 -0.24093866 0.111204825 -0.08493108
0.00888823 -0.10568436 0.21211779 0.13330452 0.056158226 0.004046901 0.19200397 0.16372482
-0.15386945 0.040667687 0.24590056 0.030011429 0.020372497 0.048798777 0.16478482 0.17926759
0.121960595 0.1268047 0.08226391 0.08355652 -0.06077573 -0.13171263 0.0836888 0.04360223
0.17207241 0.07215939 0.14808676 -0.051840287 -0.028495908 -0.09192188 -0.16953859 -0.14699464
-0.017158533 -0.22501402 -0.14506146 0.0017677805 0.07050096 -0.089039534 0.18765017 0.13618462
-0.13657564 0.104969755 -0.1375126 0.17510791 -0.07732549 0.06449435 0.028217468 -0.12211272
-0.06316087 0.1726984 0.014875248 0.19894989 -0.10959197 -0.15158801 0.16446769 -0.16658849
0.08066984 0.10043803 -0.06668348 0.13764541 -0.14034508 0.04193242 -0.069887 -0.014931765
-0.06561689 0.131412 0.10164704 0.22641253 0.2480216 0.04006978 0.13411331 0.2569178
0.20054676 0.035838034 0.2529377 -0.046264414 0.15204076 0.20626494 -0.020145187 0.17217234
0.12590252 0.093674436 0.019300723 -0.21364208 -0.23310705 -0.1777783
00000000: 1814 b7bd 22e2 06be be31 ebbd 4f19 52be
00000010: ef78 febd 6669 c33d 0957 ea3d b19a 14be
00000020: 8966 93be 6040 be3d b6e3 053d 7954 033e
00000030: 4b6c b3bc 30f3 61bc a07f 13be 7ec2 493e
00000040: aa08 043e 84e6 1c3e 6451 c7bd 9150 0d3e
00000050: 7c35 553e 8203 163d 07a9 8c3d 7437 dfbd
00000060: 33aa 34bd 024a 81be d054 9b3d 38c5 27be
00000070: c260 953d 0483 6fbd 5fef efbd 82c6 873d
00000080: 8d27 c23d 9c47 04be fd5f 443d b623 dbbd
00000090: 5393 623e 3904 39bd 1436 853e 0e57 3cbd
000000a0: fe28 1e3e 7a54 8d3e 0b7c 74bb 8fda a93e
000000b0: 3526 373e 0bb4 343b e4bf c5bd cebb d5bd
000000c0: 089b 593c c27e fb3d 6e07 f3bd 0a07 2d3d
000000d0: 1c37 20bd 5fe8 3abe 62af e7bc 4d29 93bd
000000e0: 9483 79be 10ff 35be 9bc6 ca3d 027e e33d
000000f0: 032e 15be a0b8 76be 5bbf e33d 59f0 adbd
00000100: f09f 113c 0b71 d8bd 6835 593e fb80 083e
00000110: 2b06 663d de9b 843b b09c 443e 7ba7 273e
00000120: f48f 1dbe 2993 263d 5bcd 7b3e 87da f53c
00000130: 39e4 a63c 3ae1 473d 5abd 283e ec91 373e
00000140: 7ac6 f93d 17d9 013e fb79 a83d ae1f ab3d
00000150: f9ef 78bd addf 06be 0965 ab3d 4098 323d
00000160: c033 303e 4dc8 933d 0ea4 173e 7b56 54bd
00000170: 4070 e9bc 8a41 bcbd 869b 2dbe c385 16be
00000180: 0d90 8cbc 136a 66be fe8a 14be dfb4 e73a
00000190: cf62 903d 5c5a b6bd 5e27 403e fb73 0b3e
000001a0: 7cda 0bbe 62fa d63d 1ad0 0cbe 7d4f 333e
000001b0: d45c 9ebd 9d15 843d 5228 e73c 3c16 fabd
000001c0: 7c5a 81bd d9d7 303e 50b7 733c 85b9 4b3e
000001d0: c171 e0bd e339 1bbe 386a 283e 2c96 2abe
000001e0: 3b36 a53d 74b2 cd3d 5991 88bd ebf2 0c3e
000001f0: 9fb6 0fbe 54c1 2b3d ea20 8fbd 5da4 74bc
00000200: 2662 86bd de90 063e 532c d03d b0d8 673e
00000210: 60f9 7d3e 3620 243d 0055 093e bb8a 833e
00000220: 215c 4d3e e7ca 123d 0d81 813e c17f 3dbd
00000230: 93b0 1b3e 1e37 533e 8507 a5bc f24d 303e
00000240: 97ec 003e 62d8 bf3d 8d1c 9e3c fdc4 5abe
00000250: 9db3 6ebe 840b 36be

c1.bias f4 [6]
-0.16302726 -0.057099253 0.043533053 -0.22998883 0.102561615 -0.1967154
00000000: 9ef0 26be e8e0 69bd b74f 323d 3182 6bbe
00000010: d30b d23d c36f 49be

c2.weight f4 [16, 6, 5, 5]
-0.13436769 -0.005866505 0.03192028 -0.06294734 0.120697506 -0.05629049 0.029913144 0.053587113
-0.024612606 0.08227085 -0.07490452 -0.024201805 -0.051777106 -0.067874454 -0.1894686 -0.014675817
0.042474825 -0.10391898 -0.17793229 -0.12566538 -0.024108239 0.051497463 -0.0018591642 0.073677614
0.10796115 -0.034591105 -0.035205975 0.06953402 0.11800827 -0.08046885 0.046771735 0.14522466
0.11432965 0.10364405 -0.011894434 0.09258269 0.0013213886 -0.100809015 -0.08677691 -0.12437058
0.05678165 -0.11175764 -0.03774738 -0.07372277 -0.027470138 -0.08387386 -0.09310956 0.05090788
0.023082867 0.09342862 -0.080380574 0.069643 0.025962869 0.024687445 -0.001076976 0.13580056
0.05660839 -0.005588388 -0.019045154 -0.0047340547 -0.026954344 -0.061244495 -0.16998467 -0.12545614
-0.17040339 -0.08112216 -0.15616287 -0.061266564 0.025255147 0.04848801 -0.09508912 -0.13553362
0.07308904 0.19454671 0.091538355 -0.06514526 0.06799163 0.020490462 0.13693157 -0.00308438
-0.088795125 0.05932348 0.06561145 -0.0054641883 0.029029611 0.13239226 0.1903549 0.106429055
0.052292354 0.02762012 0.030486522 0.074445695 0.02651583 0.07117698 -0.09353832 0.028305462
0.023063062 -0.07151345 -0.07516809 0.0020014246 -0.05055139 -0.030095268 -0.043478955 -0.01087757
0.0085115675 -0.1079095 0.009535851 -0.026228657 0.010520528 -0.0239455 0.010446425 0.09771514
0.002491909 -0.08371312 -0.0052649216 0.027368983 -0.069441095 -0.12209182 -0.09530255 -0.064508006
-0.014986014 -0.018093074 -0.056828547 0.0044554225 -0.031017575 -0.036157098 -0.042741187 -0.016150033
0.086736746 -0.023338616 -0.10726435 0.030634593 0.07002272 0.08199788 0.035439983 0.047021236
0.042614445 0.07612433 0.008760258 0.09199687 0.050284833 0.05586986 -0.033031438 -0.07423138
-0.14245595 -0.044430993 -0.08041419 -0.0013150775 -0.062407054 0.077533506 0.034336377 -0.027053224
0.02145044 -0.057507873 -0.046614878 -0.04660781 -2.7287755e-05 -0.050098598 -0.060106385 -0.20422028
0.014211887 -0.019732736 -0.076153666 -0.04170933 -0.08232363 0.03474136 0.1396467 0.11101089
0.10720002 -0.048997775 -0.05244068 0.12367832 0.05688678 0.007572495 0.01951277 0.007311274
0.04289579 0.08789389 -0.020455776 -0.020286411 0.042104296 0.046589084 0.01536779 -0.061264224
-0.014575004 -0.089611426 -0.056076705 -0.08768446 -0.04133543 0.053418763 0.086632736 0.060649253
-0.04140896 -0.012615503 0.08313754 0.091531195 0.016175145 -0.033970624 0.063427895 0.055236183
0.0011533306 -0.06901895 -0.04762236 -0.05811945 0.017935663 -0.018566974 -0.10206121 -0.08930099
-0.05359999 0.070862174 -0.08742875 -0.006393072 0.020322938 0.016509818 0.09664062 0.0024350116
0.05778987 -0.011661144 0.039782554 0.07933401 -0.04600886 0.07419846 0.075856745 0.11260521
-0.023410033 -0.092283644 -0.036771268 0.008210073 -0.0801529 0.045343548 -0.07268075 0.08928257
-0.005007609 0.06658754 -0.05114947 -0.08579525 0.07919243 0.08209901 -0.043459814 -0.099659026
-0.010683506 -0.1202827 -0.13125286 -0.16512431 0.090925634 0.041480046 -0.08781397 -0.012442025
-0.04241451 0.011884019 -0.09635733 -0.029554863 -0.053833377 -0.027998833 -0.06086357 -0.1112125
00000000: af97 09be d03b c0bb d7be 023d 89ea 80bd
00000010: 4130 f73d db90 66bd 690c f53c 297e 5b3d
00000020: 60a0 c9bc 9f7d a83d 8a67 99bd dd42 c6bc
00000030: 3b14 54bd c301 8bbd 0f04 42be d772 70bc
00000040: 15fa 2d3d 79d3 d4bd e233 36be 6dae 00be
00000050: a47e c5bc 01ef 523d 33af f3ba 4ae4 963d
00000060: bc1a dd3d 67af 0dbd 2434 10bd da67 8e3d
00000070: 52ae f13d dacc a4bd b893 3f3d c6b5 143e
00000080: aa25 ea3d 5543 d43d dfe0 42bc fe9b bd3d
00000090: 7232 ad3a f574 cebd 18b8 b1bd 01b6 febd
000000a0: e093 683d 31e1 e4bd ff9c 1abd f7fb 96bd
000000b0: 0e09 e1bc 0fc6 abbd 3ab0 bebd c884 503d
000000c0: 4818 bd3c 8157 bf3d 929e a4bd fda0 8e3d
000000d0: 15b0 d43c 533d ca3c 5129 8dba 4d0f 0b3e
000000e0: 33de 673d cc1e b7bb 9504 9cbc 2120 9bbb
000000f0: 5bcf dcbc 82db 7abd 7610 2ebe 9377 00be
00000100: 3a7e 2ebe 6023 a6bd 29e9 1fbe a6f2 7abd
00000110: e2e3 ce3c 5d9b 463d 16be c2bd 53c9 0abe
00000120: b5af 953d 4137 473e 7678 bb3d e16a 85bd
00000130: 323f 8b3d 9ddb a73c ca37 0c3e 4f23 4abb
00000140: 38da b5bd 2dfd 723d 4c5f 863d ef0c b3bb
00000150: 82cf ed3c d691 073e 65ec 423e 7af7 d93d
00000160: 8230 563d 9743 e23c dfbe f93c fc76 983d
00000170: ba37 d93c 3dc5 913d 0591 bfbd dbe0 e73c
00000180: bfee bc3c a575 92bd baf1 99bd 552a 033b
00000190: f90e 4fbd 5a8a f6bc fd16 32bd d637 32bc
000001a0: 1a74 0b3c a8ff dcbd 423c 1c3c 7bdd d6bc
000001b0: 4b5e 2c3c 5a29 c4bc 7b27 2b3c e01e c83d
000001c0: 4c4f 233b c971 abbd 5d85 acbb eb34 e03c
000001d0: 2237 8ebd 470b fabd fc2d c3bd c61c 84bd
000001e0: e687 75bc ed37 94bc 0dc5 68bd cbfe 913b
000001f0: 9218 febc 7719 14bd 6211 2fbd 134d 84bc
00000200: 09a3 b13d a030 bfbc 69ad dbbd 66f5 fa3c
00000210: 1268 8f3d 81ee a73d 8429 113d 5799 403d
00000220: 7c8c 2e3d 13e7 9b3d 2f87 0f3c db68 bc3d
00000230: 78f7 4d3d cbd7 643d f94b 07bd 9f06 98bd
00000240: f9df 11be 46fd 35bd 32b0 a4bd ae5e acba
00000250: 8a9e 7fbd e3c9 9e3d 4da4 0c3d b99e ddbc
00000260: d5b8 af3c 608d 6bbd 3eef 3ebd d5e7 3ebd
00000270: 02e8 e4b7 3034 4dbd 1d32 76bd 1f1f 51be
00000280: f9d8 683c 8ca6 a1bc 74f6 9bbd 67d7 2abd
00000290: 4b99 a8bd f54c 0e3d 8bff 0e3e ad59 e33d
000002a0: af8b db3d e4b1 48bd 0acc 56bd 0f4b fd3d
000002b0: 1d02 693d b122 f83b 3fd9 9f3c 6993 ef3b
000002c0: 7fb3 2f3d b601 b43d df92 a7bc b02f a6bc
000002d0: 8e75 2c3d 32d4 3e3d 2fc9 7b3c 32f0 7abd
000002e0: ffcb 6ebc 3286 b7bd b0b0 65bd e993 b3bd
000002f0: 574f 29bd a2cd 5a3d 816c b13d 5a6b 783d
00000300: 719c 29bd 41b1 4ebc 0444 aa3d b574 bb3d
00000310: bd81 843c c824 0bbd 7ce6 813d 563f 623d
00000320: 5a2b 973a cf59 8dbd aa0f 43bd a90e 6ebd
00000330: d0ed 923c c419 98bc 7805 d1bd 70e3 b6bd
00000340: aa8b 5bbd 3020 913d d80d b3bd fa7c d1bb
00000350: 4a7c a63c 993f 873c 84eb c53d b794 1f3b
00000360: 12b5 6c3d 620e 3fbc 08f3 223d df79 a23d
00000370: c973 3cbd 5df5 973d c85a 9b3d 8f9d e63d
00000380: 66c6 bfbc 35ff bcbd 789d 16bd 8b83 063c
00000390: 3427 a4bd 28ba 393d a5d9 94bd c8d9 b63d
000003a0: de16 a4bb 0c5f 883d 1b82 51bd 6cb5 afbd
000003b0: a42f a23d 8723 a83d eb02 32bd 081a ccbd
000003c0: df09 2fbc c756 f6bd 2667 06be 5916 29be
000003d0: 3837 ba3d fbe6 293d d0d7 b3bd a3d9 4bbc
000003e0: d6ba 2dbd 30b5 423c fe56 c5bd 0a1d f2bc
000003f0: 6380 5cbd cf5d e5bc 144c 79bd 61c3 e3bd

c2.bias f4 [16]
-0.034386657 -0.01759245 -0.16326721 -0.12517382 0.029943693 -0.03254654 0.025240527 -0.079894386
-0.09702811 0.04153926 -0.17544916 -0.095485516 -0.08942588 -0.09362316 -0.05922485 -0.0028870543
00000000: 06d9 0cbd 0b1e 90bc 852f 27be 912d 00be
00000010: 7a4c f53c 854f 05bd 39c5 ce3c ab9f a3bd
00000020: acb6 c6bd 1225 2a3d f2a8 33be e98d c3bd
00000030: ea24 b7bd 80bd bfbd c295 72bd bc34 3dbb

c3.weight f4 [120, 16, 5, 5]
0.02112082 0.008447571 0.015404933 -0.014389627 -0.12919009 -0.03512515 -0.0004356894 0.06604304
0.06089602 -0.01338288 -0.044664055 0.035161782 0.0118440585 -0.0027076572 0.022309668 0.028795583
-0.03917901 -0.008445844 -0.025537923 -0.040994808 0.04553316 -0.02864144 -0.0314563 0.007900224
0.0660693 -0.018253718 -0.0045088967 -0.055071812 -0.047388457 -0.0030424322 0.00058811443 -0.058780212
-0.0595565 -0.03702215 -0.0099515505 -0.029488472 -0.020735845 -0.027247142 0.02140521 0.0069296085
0.035441313 -0.0030587069 0.078474596 -0.027114552 0.023126485 -0.038893826 -0.09176615 0.015893886
-0.029174384 -0.081907675 0.008691405 0.02034731 0.056921974 0.0017086142 -0.015433037 0.0006913056
0.019643027 0.018063452 0.034002617 -0.044797983 0.041588165 0.034440566 0.075816564 -0.030633504
-0.09517041 -0.04061039 -0.011039824 -0.040935505 -0.13496211 -0.157839 0.076533675 0.06698239
0.05767498 0.002909057 -0.020922465 0.009546495 0.042372115 0.0072251754 0.030439552 -0.034109674
-0.007133613 -0.015771732 0.013262945 -0.054660853 -0.05103937 0.04847763 -0.034293436 -0.021661
0.019498477 0.039921522 -0.05207209 -0.04501694 -0.062411778 0.07401113 -0.0070423 0.033421237
-0.019895593 -0.0069069555 0.086383566 0.03995062 -0.037718445 0.047331076 0.012160285 -0.014610346
-0.059654422 -0.028316641 -0.04252954 -0.029023688 -0.04561042 -0.071408086 0.037372474 0.041508768
-0.0054806205 -0.025538297 -0.022939902 0.012200103 -0.04962636 -0.07739907 -0.009194086 0.064401746
0.016177641 -0.048532736 -0.14129138 -0.12471376 0.0056139934 0.051075593 -0.024420707 -0.08648055
-0.05134045 0.016818706 0.004442882 -0.077665925 -0.014852825 -0.08354588 -0.056945365 0.032608837
-0.0790663 -0.085659206 -0.039786138 -0.078346804 -0.011711095 -0.087091714 -0.06666174 0.030010466
0.014102764 -0.002159963 -0.11703028 -0.04301338 0.007227847 -0.0152592305 0.021341125 -0.057563983
-0.06981951 -0.06711631 -0.06381411 0.024619978 -0.005272587 0.043446377 -3.8077374e-05 0.007496782
0.053254694 0.010684162 -0.008734765 -0.024573103 0.087597184 -0.020470168 -0.09116877 -0.09450394
-0.0070697186 -0.0511129 -0.006145749 -0.037684478 -0.07198984 -0.044616994 0.00093199563 -0.05105445
0.055320315 0.021035185 -0.014015216 0.021645775 -0.015054739 0.066686146 -0.022049148 0.055466093
0.04224568 0.047422826 0.048184413 0.0949418 -0.00974192 -0.03933261 0.009394109 -0.0051471293
0.055344764 0.091672115 -0.007582122 0.11181289 0.24898511 0.2640845 0.14924118 0.112795636
0.0045148195 -0.029642968 -0.02886281 -0.024334952 0.011032612 -0.013182714 0.052874744 -0.0058259377
0.00023506988 -0.00401379 0.052713037 -0.019619953 -0.015178473 0.028044766 0.020787196 0.030314632
0.0045325216 -0.01890613 -0.022215694 0.007975291 0.010091916 -0.029806925 0.02481921 -0.07934154
0.06557125 -0.071626045 0.02185838 0.032290082 -0.021702819 -0.018700743 -0.027390007 0.049788672
-0.015803033 0.025634496 -0.0009365342 0.029309345 0.03336414 -0.034218468 -0.04290753 0.024798824
-0.0029918307 0.0050236406 -0.041267287 -0.005933998 -0.053491894 -0.02028333 -0.08432877 -0.03466611
-0.089520015 0.046247706 -0.03690497 0.06188481 -0.0011314057 0.010624998 -0.0072758235 0.02644453
00000000: 9205 ad3c ae67 0a3c f964 7c3c 78c2 6bbc
00000010: 684a 04be 64df 0fbd 3e6d e4b9 9341 873d
00000020: 1b6e 793d de43 5bbc a8f1 36bd cd05 103d
00000030: 950d 423c f372 31bb c4c2 b63c b7e4 eb3c
00000040: 2b7a 20bd 7060 0abc e834 d1bc 2cea 27bd
00000050: fb80 3a3d 74a1 eabc 52d8 00bd f16f 013c
00000060: 574f 873d d288 95bc 5ebf 93bb fb92 61bd
00000070: 661a 42bd 8b63 47bb b12b 1a3a 85c3 70bd
00000080: 84f1 73bd 8aa4 17bd d40b 23bc cf91 f1bc
00000090: 38de a9bc 6635 dfbc fb59 af3c c511 e33b
000000a0: e92a 113d 9674 48bb 4ab7 a03d 561f debc
000000b0: c173 bd3c 224f 1fbd e4ef bbbd e533 823c
000000c0: 1eff eebc 36bf a7bd 6566 0e3c 67af a63c
000000d0: 0427 693d 94f3 df3a d9da 7cbc bc38 353a
000000e0: 6aea a03c cef9 933c 5446 0b3d 177e 37bd
000000f0: 5a58 2a3d 8d11 0d3d b745 9b3d 1df3 fabc
00000100: b4e8 c2bd 1557 26bd 61e0 34bc fdab 27bd
00000110: 8233 0abe 8ca0 21be b0bd 9c3d 102e 893d
00000120: 9a3c 6c3d e1a5 3e3b 9765 abbc e768 1c3c
00000130: 628e 2d3d 2ac1 ec3b 5e5c f93c 96b6 0bbd
00000140: 15c1 e9bb b833 81bc d34c 593c 0fe4 5fbd
00000150: a90e 51bd 7b90 463d 4677 0cbd 6972 b1bc
00000160: 45bb 9f3c c084 233d 8b49 55bd af63 38bd
00000170: 7ea3 7fbd 2693 973d 18c3 e6bb b5e4 083d
00000180: 15fc a2bc be53 e2bb dee9 b03d 43a3 233d
00000190: a87e 1abd 3bde 413d ef3b 473c 3c60 6fbc
000001a0: 3258 74bd 4df8 e7bc 7433 2ebd 16c3 edbc
000001b0: fed1 3abd 673e 92bd e113 193d 1905 2a3d
000001c0: c796 b3bb b135 d1bc 76ec bbbc f1e2 473c
000001d0: 0345 4bbd 6783 9ebd cba2 16bc 10e5 833d
000001e0: f986 843c 43ca 46bd b0ae 10be ee69 ffbd
000001f0: 97f5 b73b a434 513d ef0d c8bc b71c b1bd
00000200: 5d4a 52bd 62c7 893c 9895 913b 500f 9fbd
00000210: 4359 73bc 1a1a abbd 8b3f 69bd d890 053d
00000220: 83ed a1bd 186e afbd caf6 22bd 4a74 a0bd
00000230: e5df 3fbc 245d b2bd f385 88bd 82d8 f53c
00000240: 480f 673c 2a8e 0dbb 92ad efbd cc2e 30bd
00000250: 93d7 ec3b da01 7abc 95d3 ae3c 36c8 6bbd
00000260: 88fd 8ebd 4774 89bd f9b0 82bd d6af c93c
00000270: aac5 acbb d4f4 313d 45b5 1fb8 91a7 f53b
00000280: 9821 5a3d a00c 2f3c 431c 0fbc 884d c9bc
00000290: 2766 b33d 0eb1 a7bc b1b6 babd 488b c1bd
000002a0: 19a9 e7bb c35b 51bd 4762 c9bb 0a5b 1abd
000002b0: 696f 93bd 4fc0 36bd 2b51 743a 791e 51bd
000002c0: 8e97 623d fb51 ac3c 14a0 65bc 7b52 b13c
000002d0: 27a8 76bc bf92 883d 6aa0 b4bc 6a30 633d
000002e0: ce09 2d3d 703e 423d 055d 453d d970 c23d
000002f0: 939c 1fbc 3b1b 21bd c0e9 193c 40a9 a8bb
00000300: 31b1 623d 97be bb3d 7373 f8bb 28fe e43d
00000310: f4f5 7e3e 1536 873e aed2 183e 6601 e73d
00000320: 0df1 933b cfd5 f2bc b371 ecbc 185a c7bc
00000330: 21c2 343c 4ffc 57bc 3093 583d 82e7 bebb
00000340: 177d 7639 1c86 83bb a0e9 573d 06ba a0bc
00000350: 21af 78bc 23be e53c e949 aa3c 6456 f83c
00000360: 8c85 943b 07e1 9abc b0fd b5bc ccaa 023c
00000370: 9058 253c a72d f4bc a851 cb3c d17d a2bd
00000380: 384a 863d adb0 92bd 5810 b33c 9b42 043d
00000390: 1cca b1bc 4d32 99bc 0261 e0bc 35ef 4b3d
000003a0: 5d75 81bc 6fff d13c bf81 75ba 271a f03c
000003b0: d6a8 083d aa28 0cbd cebf 2fbd e726 cb3c
000003c0: 9712 44bb 5a9d a43b e307 29bd fc71 c2bb
000003d0: 511a 5bbd 3a29 a6bc 90b4 acbd 0dfe 0dbd
000003e0: 4556 b7bd 3c6e 3d3d aa29 17bd ed7a 7d3d
000003f0: ad4b 94ba 7914 2e3c 086a eebb 33a2 d83c

c3.bias f4 [120]
0.03363483 -0.04200297 -0.03589233 -0.005027246 -0.018308748 0.010044009 -0.03395817 0.048142407
0.018967692 0.022410445 0.01998357 0.0033616666 -0.0465105 0.0053850994 -0.051401883 -0.0063674105
0.039163064 -0.015024285 -0.05762335 -0.029913401 0.06120415 0.04550658 -0.021550948 -0.010549902
0.053358585 -0.017349973 0.0401845 -0.015045366 0.04097661 0.057866205 -0.0005399885 -0.026999045
-0.038064614 0.03859906 -0.0051899115 0.026434235 -0.0017910972 -0.032860864 -0.024878455 0.0032621657
-0.007811127 0.037193842 0.04108028 -0.018830577 -0.016249288 0.059013985 0.0036598304 -0.014516672
0.024616513 0.024157975 0.00017670613 -0.053976506 0.029403284 -0.018545685 0.053663656 0.003765021
0.021864371 0.021088004 -0.022667142 0.034599498 0.04910799 0.019506536 0.018668575 0.0064999494
-0.011867742 -0.024133544 -0.023905199 0.056855243 0.00034567574 -0.01316528 -0.025592096 0.05654461
-0.027472032 -0.033519436 0.01722997 -0.011297026 -0.05844065 0.009195692 -0.012753322 0.010900875
0.0275186 0.0053692223 0.006237763 -0.0026805145 0.031534843 0.02889266 7.7444656e-07 0.036024217
-0.000667202 0.030017952 -0.014030072 0.04449921 -0.026124902 -0.02128403 -0.010354713 0.029634679
-0.048181962 -0.007583629 0.025480315 0.0027423338 -0.03421913 0.047274686 0.02167571 -0.038408797
0.0202096 -0.03835744 0.010603206 -0.03089134 0.034679912 -0.009219055 -0.025516821 0.003035234
0.04560245 0.03442222 -0.0059610126 -0.021619173 0.020437103 -0.03779138 -0.014226032 -0.036540497
00000000: adc4 093d 4e0b 2cbd d603 13bd 99bb a4bb
00000010: 3afc 95bc a18f 243c b917 0bbd f930 453d
00000020: 2262 9b3c 1c96 b73c 95b4 a33c 684f 5c3b
00000030: cb81 3ebd 7d75 b03b c88a 52bd b6a5 d0bb
00000040: 7369 203d 6b28 76bc 7606 6cbd f30c f5bc
00000050: 34b1 7a3d 1c65 3a3d 9d8b b0bc 7fd9 2cbc
00000060: 888e 5a3d 8821 8ebc 8198 243d d780 76bc
00000070: 17d7 273d 1d05 6d3d 048e 0dba 1a2d ddbc
00000080: a4e9 1bbd 0c1a 1e3d 2210 aabb 9c8c d83c
00000090: 40c3 eaba 1d99 06bd e7cd cbbc 0fca 553b
000000a0: 7cf4 ffbb 9258 183d cc43 283d 9542 9abc
000000b0: 3a1d 85bc a6b8 713d c4d9 6f3b 56d7 6dbc
000000c0: 92a8 c93c f2e6 c53c 314a 3939 7816 5dbd
000000d0: 28df f03c 1fed 97bc 6cce 5b3d 92be 763b
000000e0: e91c b33c c0c0 ac3c 71b0 b9bc 34b8 0d3d
000000f0: 7625 493d 2ccc 9f3c d7ee 983c 87fd d43b
00000100: eb70 42bc b6b3 c5bc d6d4 c3bc 0be1 683d
00000110: d03b b539 30b3 57bc 84a6 d1bc 529b 673d
00000120: 070d e1bc ad4b 09bd de25 8d3c 2917 39bc
00000130: 775f 6fbd 87a9 163c 4ff3 50bc 9599 323c
00000140: b06e e13c 4df0 af3b 2666 cc3b 92ab 2fbb
00000150: ae2a 013d 4db0 ec3c 90e3 4f35 218e 133d
00000160: 2be7 2eba 35e8 f53c 63de 65bc ce44 363d
00000170: e403 d6bc d95b aebc d0a6 29bc 6dc4 f23c
00000180: 735a 45bd 1780 f8bb 18bc d03c bab8 333b
00000190: 5c29 0cbd 1aa3 413d 4291 b13c 8b52 1dbd
000001a0: 9a8e a53c b11c 1dbd 12b9 2d3c d60f fdbc
000001b0: 860c 0e3d 850b 17bc a708 d1bc c7ea 463b
000001c0: a2c9 3a3d 50fe 0c3d 9954 c3bb b11a b1bc
000001d0: b66b a73c 22cb 1abd 4e14 69bc 7dab 15bd

fc1.weight f4 [84, 120]
-0.08638559 -0.08476471 -0.1304096 -0.1358183 -0.017422212 0.20568195 -0.022539457 0.11976744
-0.09422991 0.040025614 -0.018904965 -0.06392389 -0.119826324 0.13999066 -0.015011801 0.0805175
0.07164321 0.030142952 -0.2355736 0.09319525 -0.11336508 -0.023730101 0.051516034 -0.050843034
-0.09122848 0.119379096 -0.032546278 -0.04921396 0.074740216 -0.123532124 0.093719594 -0.06837544
0.105913565 -0.07908986 0.124321565 0.13582131 0.041748457 -0.15441728 0.16850503 -0.16053423
0.019307505 0.028446268 0.123554625 -0.13048215 -0.037259765 0.15629327 0.080782644 -0.049613018
0.16496713 0.017618194 -0.09980532 0.069635876 0.056337513 0.098113164 -0.071064904 -0.05767947
-0.05359656 -0.07229929 -0.18897319 -0.027732465 0.14775285 -0.09700133 -0.0003108807 0.08255595
0.010794678 0.11840052 -0.06677694 -0.046041507 -0.17915332 0.21409303 -0.04123704 0.068763696
0.0771152 -0.002769134 0.19792242 -0.03776222 0.09135673 0.058360673 0.03412669 -0.17595392
0.04585611 -0.04031736 -0.12087283 0.10919314 -0.03334298 0.06240826 -0.033951867 0.18154542
0.08823907 -0.04883797 0.03305124 -0.16562219 0.08443486 0.0006165658 0.0027699678 -0.09185876
0.13123882 0.055522837 0.04647244 0.14803548 0.19972424 -0.18450172 0.086242095 -0.11302222
-0.11888835 -0.010866432 0.13499413 0.12328053 0.11679616 0.08977637 0.079496056 0.038502034
0.04971694 0.0040371506 -0.03260426 0.048193056 -0.07295345 -0.1597966 0.19531356 -0.15321079
-0.13017298 -0.13299304 -0.00686998 -0.17555478 0.16551997 -0.03952009 0.114540346 -0.10239786
-0.009484995 0.053086117 -0.008029767 -0.021982536 -0.035634466 0.08525044 -0.15252756 0.14868367
-0.07711591 0.1273045 -0.020121755 -0.00030959788 -0.12804618 0.031888507 0.06427052 -0.19028956
0.09069735 -0.05897245 -0.18311971 -0.12847504 -0.039215576 -0.009693849 -0.1465039 -0.07198327
-0.12486555 -0.09221702 0.118981086 -0.014987905 -0.06014694 0.09579729 0.1267699 -0.09420818
0.045930397 -0.027849652 0.059073552 -0.09888825 0.08497982 -0.07131142 0.1122674 0.062022578
-0.026694022 0.029569048 -0.09787323 0.05096836 -0.060192768 -0.15254407 -0.068435505 0.03001875
-0.027327761 -0.085583985 -0.22019188 -0.05528656 -0.14994554 -0.028404644 0.08573334 0.055480294
-0.06301419 -0.0413122 -0.12317939 -0.093526684 0.04596927 0.09937502 -0.010643248 -0.15439487
-0.13557805 -0.011325536 0.029801564 0.05034264 -0.014624569 0.10012015 0.022032572 0.0063010775
-0.011682798 -0.15054633 -0.03905923 0.07458434 -0.053583212 -0.08642477 0.07101416 0.11431646
0.08482107 0.06298962 -0.03074472 -0.13261497 -0.06617936 0.0046670805 0.16878514 -0.057268865
0.013991108 0.07562409 -0.1341404 0.04303609 -0.028087314 0.033732943 -0.017287917 -0.15853153
0.06548968 -0.07394742 0.13438697 0.03478989 0.09494298 0.036902722 -0.046859648 -0.12190577
-0.07533805 0.05999081 -0.04635479 -0.060878094 -0.105596706 -0.011352637 0.07757601 -0.0871834
0.08976519 0.1407838 -0.09181616 0.07195916 -0.027498035 0.030145958 -0.07618294 0.17989443
-0.09814875 0.033415753 -0.037230894 0.032205496 0.049947254 0.085918054 0.12796852 0.06053634
00000000: eeea b0bd 1f99 adbd 188a 05be f413 0bbe
00000010: 07b9 8ebc 4a9e 523e aba4 b8bc a248 f53d
00000020: 9cfb c0bd e6f1 233d 96de 9abc 87ea 82bd
00000030: 8167 f5bd b659 0f3e 0ff4 75bc 5ce6 a43d
00000040: adb9 923d 5aee f63c 353a 71be 27dd be3d
00000050: f32b e8bd a165 c2bc 7a02 533d c940 50bd
00000060: ffd5 babd 077d f43d 3f4f 05bd 9494 49bd
00000070: 6611 993d 69fe fcbd 0ff0 bf3d 6c08 8cbd
00000080: 36e9 d83d ddf9 a1bd 4e9c fe3d be14 0b3e
00000090: 6e00 2b3d 901f 1ebe 958c 2c3e 1663 24be
000000a0: c62a 9e3c 2608 e93c 350a fd3d 1d9d 05be
000000b0: b29d 18bd 580b 203e 5f71 a53d 0537 4bbd
000000c0: 25ed 283e 0854 903c bb66 ccbd 419d 8e3d
000000d0: 2ac2 663d 8eef c83d 7a8a 91bd 4f41 6cbd
000000e0: 1188 5bbd a611 94bd 3082 41be 322f e3bc
000000f0: 864c 173e a2a8 c6bd b4fd a2b9 1813 a93d
00000100: 29dc 303c f97b f23d 59c2 88bd 0596 3cbd
00000110: f873 37be 343b 5b3e 2ce8 28bd fbd3 8c3d
00000120: 93ee 9d3d 5c7a 35bb 2dac 4a3e 8fac 1abd
00000130: 3d19 bb3d 9a0b 6f3d 6ec8 0b3d 442d 34be
00000140: 9ed3 3b3d d123 25bd 2d8c f7bd a7a0 df3d
00000150: a692 08bd ce9f 7f3d 1d11 0bbd 0be7 393e
00000160: afb6 b43d 530a 48bd bd60 073d dd98 29be
00000170: 2fec ac3d 08a1 213a 5988 353b 7220 bcbd
00000180: 7863 063e ea6b 633d e359 3e3d 9d96 173e
00000190: 8384 4c3e 05ee 3cbe b29f b03d 3278 e7bd
000001a0: bc7b f3bd 1f09 32bc e73b 0a3e 817a fc3d
000001b0: d332 ef3d acdc b73d d4ce a23d 4fb4 1d3d
000001c0: fda3 4b3d 134a 843b 0b8c 05bd 1566 453d
000001d0: 9e68 95bd b8a1 23be 4700 483e 4ae3 1cbe
000001e0: 114c 05be 542f 08be 921d e1bb a2c4 33be
000001f0: 117e 293e d1df 21bd 2194 ea3d f8b5 d1bd
00000200: f466 1bbc d470 593d 498f 03bc b814 b4bc
00000210: 72f5 11bd c897 ae3d 2f30 1cbe 8840 183e
00000220: f2ee 9dbd 1c5c 023e 61d6 a4bc 8651 a2b9
00000230: 8a1e 03be 869d 023d 43a0 833d 44db 42be
00000240: 88bf b93d 198d 71bd bc83 3bbe f68e 03be
00000250: 83a0 20bd f3d2 1ebc 1e05 16be f76b 93bd
00000260: 82b9 ffbd 47dc bcbd 5bac f33d d48f 75bc
00000270: a35c 76bd 5f31 c43d f8cf 013e 38f0 c0bd
00000280: 8321 3c3d f424 e4bc 1cf7 713d ec85 cabd
00000290: e609 ae3d b90b 92bd 73ec e53d 630b 7e3d
000002a0: 6cad dabc ca3a f23c c371 c8bd 33c4 503d
000002b0: b18c 76bd 8334 1cbe ea27 8cbd e2e9 f53c
000002c0: 78de dfbc a846 afbd fb79 61be 2974 62bd
000002d0: 538b 19be dbb0 e8bc f694 af3d 4e3f 633d
000002e0: 950d 81bd fb36 29bd 7a45 fcbd eb8a bfbd
000002f0: 464a 3c3d 2185 cb3d 0561 2ebc b019 1ebe
00000300: f9d4 0abe be8e 39bc 6922 f43c 1634 4e3d
00000310: e39b 6fbc cb0b cd3d a77d b43c 4579 ce3b
00000320: 3569 3fbc d128 1abe 92fc 1fbd adbf 983d
00000330: 127a 5bbd 78ff b0bd df6f 913d c01e ea3d
00000340: abb6 ad3d b400 813d 5adc fbbc 38cc 07be
00000350: 0b89 87bd 4fee 983b 03d6 2c3e c292 6abd
00000360: f63a 653c cee0 9a3d 1a5c 09be 9c46 303d
00000370: 5e17 e6bc 8e2b 0a3d 649f 8dbc 1756 22be
00000380: 741f 863d bf71 97bd bd9c 093e d87f 0e3d
00000390: 7771 c23d 4f27 173d e7ef 3fbd bba9 f9bd
000003a0: d64a 9abd ecb8 753d 85de 3dbd 4f5b 79bd
000003b0: 1643 d8bd 6900 3abc 2ce0 9e3d 368d b2bd
000003c0: d0d6 b73d a129 103e 1c0a bcbd 535f 933d
000003d0: 8f43 e1bc a8f4 f63c cd05 9cbd 3f36 383e
000003e0: 3602 c9bd f5de 083d 6c7f 18bd e9e9 033d
000003f0: 7e95 4c3d cef5 af3d 2e0a 033e f4f4 773d

fc1.bias f4 [84]
-0.06448205 -0.030042855 0.08717221 -0.051135633 0.013775168 -0.0028182452 0.032724213 0.114791
0.017862955 -0.06991308 0.05617611 0.016126119 -0.053394504 0.082814604 0.05016101 0.026170073
-0.032302078 -0.03977475 -0.007118479 0.013765801 -0.025742015 -0.087671764 0.04833701 -0.039427586
0.050824862 -0.080164604 -0.04330788 0.047489446 0.047746394 0.022982705 0.045687724 0.04162922
-0.011398765 -0.0538702 0.0012154982 -0.0695182 -0.066862926 -0.024366964 -0.04402597 0.12793382
-0.09978152 0.09171538 0.009025944 -0.055083364 0.08160221 0.029560888 0.02775217 0.05994503
-0.045286376 -0.071522504 -0.06970382 -0.019528003 0.036258742 -0.035309896 0.061937384 -0.06260103
-0.04527905 0.031031948 0.047031727 0.011437575 0.03748066 0.016420303 -0.06029343 -0.008245174
-0.013970536 0.07027043 0.02038441 -0.10115399 -0.022430759 -0.06581166 0.00777275 -0.068361595
-0.042744223 -0.010015889 -0.07795064 0.024921406 0.027266206 0.054315727 0.08141561 0.059663568
-0.001654132 0.05830119 0.027800037 -0.002552339
00000000: 2a0f 84bd 6f1c f6bc 5887 b23d 9973 51bd
00000010: 3eb1 613c 4fb2 38bb d309 063d 8b17 eb3d
00000020: 5555 923c 972e 8fbd ec18 663d ec1a 843c
00000030: 32b4 5abd b49a a93d a275 4d3d 9f62 d63c
00000040: 2f4f 04bd d9ea 22bd 2142 e9bb f489 613c
00000050: ebe0 d2bc 418d b3bd 07fd 453d d27e 21bd
00000060: bb2d 503d 572d a4bd 9b63 31bd 4b84 423d
00000070: b991 433d 3a46 bc3c 0d23 3b3d 6783 2a3d
00000080: e3c1 3abc 00a7 5cbd 5a51 9f3a 8f5f 8ebd
00000090: 6eef 88bd 3a9d c7bc 9354 34bd 1501 033e
000000a0: 415a ccbd 46d5 bb3d 8ee1 133c 189f 61bd
000000b0: 0f1f a73d ad29 f23c 8558 e33c eb88 753d
000000c0: 357e 39bd 647a 92bd e0c0 8ebd 31f9 9fbc
000000d0: 0c84 143d 1ca1 10bd 0eb2 7d3d f834 80bd
000000e0: 8676 39bd b636 fe3c 57a4 403d ab64 3b3c
000000f0: 5285 193d df83 863c 3ef6 76bd c416 07bc
00000100: ade4 64bc f1e9 8f3d 35fd a63c d329 cfbd
00000110: b6c0 b7bc 43c8 86bd 8eb2 fe3b 2a01 8cbd
00000120: 9114 2fbd af19 24bc 96a4 9fbd fa27 cc3c
00000130: 615d df3c 2b7a 5e3d 3abd a63d c961 743d
00000140: 76cf d8ba 3bcd 6e3d e7bc e33c 2545 27bb

fc2.weight f4 [10, 84]
-0.10550225 -0.14004436 0.15569958 -0.13869062 0.13599214 -0.08040776 0.12257988 0.25319418
-0.12240187 -0.15648182 0.12962984 0.26279575 0.20542108 -0.03563933 -0.04110028 0.10146067
-0.1890894 -0.25991568 -0.17004997 -0.060253244 0.116642505 0.21678276 0.18242778 -0.019010648
-0.1211116 -0.1434905 0.2813123 0.1753171 0.26996765 -0.23788509 -0.027964184 0.18413842
0.30619752 0.06463318 -0.13653934 -0.050824255 -0.17970423 0.14668657 0.13698216 0.20202571
0.010494279 0.2225909 -0.24106924 0.13063587 -0.29012588 -0.3295841 0.28605118 0.19879507
0.2489305 0.111225866 -0.07629186 0.19407608 -0.31097016 0.39674565 -0.34194764 -0.19565867
-0.2646484 -0.18261032 -0.14332806 0.16127107 0.20323168 0.12997131 -0.11475811 0.17005774
-0.033252228 -0.18977498 0.012699726 0.09362818 -0.12573472 -0.21018119 -0.24773723 0.30645373
0.24788004 0.1928358 -0.05672675 0.18708943 -0.12756494 0.038543254 0.090385586 0.33011624
0.04249468 0.103402905 -0.26557896 -0.10967794 0.19429125 0.15524653 -0.043855287 -0.23785219
-0.16683082 0.26785657 -0.22929579 0.3407326 0.20516837 -0.10668665 0.18129444 -0.10917025
-0.20614935 0.2206144 0.30838367 -0.10383397 0.29092053 -0.10197674 0.23456484 0.09440737
-0.16416363 -0.14817786 -0.13121833 0.07320425 -0.18496057 0.22162071 -0.15121625 -0.30977973
0.0004535977 0.09587615 0.12409189 -0.15351638 -0.002739754 -0.15438542 0.2859178 0.21273603
-0.21004847 -0.20767926 -0.089132965 0.16252027 0.2878966 -0.12080622 0.17549545 -0.2631493
0.1149777 0.06779727 0.27103624 -0.17088543 -0.1896693 -0.16144998 0.12643291 -0.17411476
-0.18417972 -0.042973276 -0.14797807 0.12865001 -0.07507284 -0.22676468 0.01741138 -0.28296548
-0.14767441 -0.32555583 -0.23700915 -0.06522822 0.25640884 0.20535202 0.3100222 -0.17252228
-0.22045289 0.0034779818 -0.18476348 0.0293007 -0.24526139 -0.16810742 -0.29140913 -0.2513984
-0.07788141 0.26178563 -0.25690717 0.25517747 -0.13171981 -0.24825986 0.07593469 0.16387156
0.17918162 -0.19786017 0.20489885 -0.2214826 0.013877204 0.07783143 -0.17825055 0.1949814
0.18026818 -0.22445707 0.22314493 0.15674666 -0.1648421 0.13764092 -0.19147862 0.038074605
0.32052043 0.05542952 -0.09603939 -0.041287623 0.2547382 -0.17286813 0.049691487 -0.21961725
-0.1610528 -0.123951964 -0.08752336 -0.28424895 -0.20475174 0.24679905 -0.05101912 0.24886787
-0.10772542 0.23446642 0.27270475 0.19111866 -0.039780702 0.22845992 -0.07587109 0.10981327
-0.14691049 -0.019581366 -0.28457737 0.052417535 -0.33597267 0.0037676655 -0.1690466 0.19371225
0.23949777 -0.22745372 0.084666185 -0.09109878 0.16053927 -0.23069048 0.23218858 0.12571599
0.254257 -0.24137144 -0.3132023 0.09779219 0.13653952 0.13618898 -0.28149092 0.14817916
0.028888801 -0.07874003 -0.22005375 -0.14701869 0.21850495 -0.2859449 -0.18703614 -0.038975082
0.25530085 -0.20669979 -0.27183753 0.14072044 0.1864635 -0.11659547 -0.22748777 0.0004219673
-0.08485743 0.38465047 -0.21573569 0.15820113 -0.08942975 -0.098019294 0.048772875 0.13215443
00000000: 9011 d8bd ca67 0fbe b66f 1f3e ea04 0ebe
00000010: 8641 0b3e d3ac a4bd 290b fb3d aba2 813e
00000020: d5ad fabd c53c 20be afbd 043e 2a8d 863e
00000030: e759 523e 8cfa 11bd c458 28bd 9dca cf3d
00000040: a7a0 41be ab13 85be 9421 2ebe 1bcc 76bd
00000050: 44e2 ee3d 4dfc 5d3e 59ce 3a3e 38bc 9bbc
00000060: 5c09 f8bd 2cef 12be 2a08 903e 5386 333e
00000070: 3339 8a3e 2698 73be 2515 e5bc c88e 3c3e
00000080: ecc5 9c3e 675e 843d f8d0 0bbe 182d 50bd
00000090: 6304 38be 0135 163e 0d45 0c3e d4df 4e3e
000000a0: 32f0 2b3c deee 633e dbda 76be 69c5 053e
000000b0: 618b 94be 3fbf a8be 4d75 923e ef90 4b3e
000000c0: a3e7 7e3e 63ca e33d e83e 9cbd e1bb 463e
000000d0: 7b37 9fbe 3f22 cb3e c313 afbe bf5a 48be
000000e0: ff7f 87be 33fe 3abe 97c4 12be 3e24 253e
000000f0: f71b 503e 3317 053e 4d06 ebbd 9e23 2e3e
00000100: 7d33 08bd 5f54 42be 8312 503c 22c0 bf3d
00000110: 9ac0 00be bd39 57be d4ae 7dbe 81e7 9c3e
00000120: 44d4 7d3e bf76 453e 4f5a 68bd 5f94 3f3e
00000130: 62a0 02be 88df 1d3d 141c b93d ff04 a93e
00000140: e70e 2e3d e7c4 d33d f7f9 87be d49e e0bd
00000150: 49f4 463e f2f8 1e3e 9aa1 33bd 868f 73be
00000160: b3d5 2abe 7f24 893e 84cc 6abe 8174 ae3e
00000170: a817 523e 887e dabd 40a5 393e a794 dfbd
00000180: d118 53be bee8 613e 77e4 9d3e e8a6 d4bd
00000190: 89f3 943e 2ed9 d0bd c431 703e a758 c13d
000001a0: 831a 28be f0bb 17be 195e 06be 1cec 953d
000001b0: 4e66 3dbe 8af0 623e 6fd8 1abe 739b 9ebe
000001c0: dad0 ed39 b75a c43d e423 fe3d 6633 1dbe
000001d0: 728d 33bb 3617 1ebe d163 923e 79d7 593e
000001e0: f216 57be dfa9 54be 588b b6bd b76b 263e
000001f0: 2f67 933e 4069 f7bd 14b5 333e 81bb 86be
00000200: 6e79 eb3d 4cd9 8a3d 43c5 8a3e 97fc 2ebe
00000210: ab38 42be 2553 25be a177 013e 244b 32be
00000220: 9c99 3cbe bf04 30bd 9087 17be d4bc 033e
00000230: cabf 99bd 0035 68be 4fa2 8e3c dae0 90be
00000240: f637 17be 41af a6be 87b2 72be 5f96 85bd
00000250: 0548 833e cd47 523e 3bbb 9e3e aea9 30be
00000260: 67be 61be daee 633b a332 3dbe 0608 f03c
00000270: cd25 7bbe 5a24 2cbe 9433 95be 4bb7 80be
00000280: 4a80 9fbd c408 863e 5689 83be 9fa6 823e
00000290: 8fe1 06be d537 7ebe a683 9b3d f2cd 273e
000002a0: 637b 373e db9b 4abe 01d1 513e 56cc 62be
000002b0: 365d 633c 1666 9f3d 5087 36be 34a9 473e
000002c0: 3998 383e 13d8 65be 1b80 643e 3282 203e
000002d0: 5ecc 28be bef1 0c3e f912 44be 1ef4 1b3d
000002e0: 411b a43e 100a 633d 4db0 c4bd 361d 29bd
000002f0: 0c6d 823e 5804 31be 4d89 4b3d 58e3 60be
00000300: 06eb 24be 87da fdbd 733f b3bd 1489 91be
00000310: 71aa 51be e4b8 7c3e 6df9 50bd 38d7 7e3e
00000320: 259f dcbd f717 703e f59f 8b3e 9cb4 433e
00000330: 17f1 22bd 66f1 693e 4d62 9bbd c8e5 e03d
00000340: b46f 16be 1a69 a0bc 20b4 91be c5b3 563d
00000350: 9c04 acbe f0ea 763b 8d1a 2dbe 815c 463e
00000360: e73e 753e a1e9 68be 7765 ad3d ff91 babd
00000370: 6864 243e 203a 6cbe d8c2 6d3e b1bb 003e
00000380: f92d 823e 132a 77be 0d5c a0be 4647 c83d
00000390: 04d1 0b3e 2075 0b3e 941f 90be 47bc 173e
000003a0: 35a8 ec3c 7442 a1bd c555 61be 118c 16be
000003b0: c3bf 5f3e 5f67 92be 6786 3fbe 56a4 1fbd
000003c0: cbb6 823e 1ca9 53be 4a2e 8bbe 0519 103e
000003d0: 4af0 3e3e 9bc9 eebd 8ef2 68be 7e3b dd39
000003e0: bbc9 adbd e8f0 c43e d1e9 5cbe 7aff 213e
000003f0: f226 b7bd 57be c8bd 11c6 473d 7e53 073e

fc2.bias f4 [10]
0.0069853063 0.05850361 -0.0041667055 -0.035270907 -0.018603144 -0.052153286 0.016061649 -0.0030137927
-0.0120707555 0.0559481
00000000: ffe4 e43b 7ba1 6f3d dc88 88bb 3a78 10bd
00000010: 9f65 98bc af9e 55bd b893 833c 0d83 45bb
00000020: 6bc4 45bc d629 653d
