models/lenet5_mnist_2237.pth (torch, 250917 bytes, 10 tensors)

c1.weight f4 [6, 1, 5, 5]
0	0x3cd3a002	0.025833134
1	0xbe422986	-0.18961152
2	0xbd4f7e27	-0.050657418
3	0x3c7804e6	0.015137887
4	0x3e220e17	0.15825687
5	0x3e066bad	0.13127013
6	0x3a93eb7f	0.0011285393
7	0xbdb229ff	-0.08699416
8	0xbc5ccd20	-0.01347664
9	0xbb1e25b8	-0.002413137
10	0x3e1ac242	0.15113166
11	0x3dc50845	0.09620718
12	0x3e962ddb	0.2933186
13	0x3e3196bd	0.17342658
14	0x3ea3971f	0.31951234
15	0x3df79a53	0.12089982
16	0x3e27eb95	0.16398461
17	0x3d1d406e	0.038391523
18	0x3e886588	0.26639962
19	0x3d08b1bf	0.033372637
20	0xbd81b088	-0.06332499
21	0x3e2efd26	0.17088756
22	0xbd8150d7	-0.06314247
23	0xbde04fe4	-0.10952738
24	0xbe7b664f	-0.24550746
25	0xbdb55395	-0.08853833
26	0xbca0328e	-0.019555356
27	0xbe81c5a2	-0.25346094
28	0x3cf7655f	0.030199705
29	0xbe39724e	-0.1811001
30	0x3c7fd1dc	0.015613999
31	0xbe74029d	-0.23829122
32	0xbe612be0	-0.21989393
33	0x3d262223	0.0405599
34	0xbdcf3aab	-0.10118612
35	0xbc3003bf	-0.010743081
36	0xbc680620	-0.014161617
37	0x3e1df196	0.15424189
38	0xbd56bb73	-0.05242486
39	0xbe3e9f9f	-0.18615578
40	0xbe257310	-0.16157174
41	0x3e6248c2	0.22098067
42	0x3e4ee218	0.20203435
43	0x3e681bfa	0.22666922
44	0xbd0f1eef	-0.03494161
45	0x3e45579a	0.19271699
46	0x3e1b9c79	0.15196408
47	0x3c5da274	0.013527501
48	0x3cb7884c	0.022403859
49	0x3e15d069	0.14630283
50	0xbe65663a	-0.22402278
51	0x3d96d709	0.073652335
52	0x3e251abd	0.16123481
53	0x3d8b6bec	0.06807694
54	0x3dcef6ae	0.10105644
55	0xbd02a1c0	-0.031892538
56	0xbeae649e	-0.3406114
57	0xbe3e7c8e	-0.18602201
58	0xbe523b4e	-0.20530435
59	0xbe3b48ef	-0.1828954
60	0xbe0b0694	-0.13576728
61	0xbe362df0	-0.17790961
62	0xbe410e87	-0.18853198
63	0x3c9ba12b	0.01899775
64	0xbeada031	-0.3391128
65	0xbdc24810	-0.09486401
66	0x3dc81ac3	0.097707294
67	0xbd47b847	-0.048759725
68	0xbc9cd2aa	-0.019143421
69	0xbe2042fe	-0.15650555
70	0x3e04ed44	0.12981135
71	0x3d5363d0	0.05160886
72	0x3df101c7	0.11767917
73	0xbda0fdf6	-0.07860939
74	0x3e33aaf2	0.17545679
75	0x3e1475c4	0.14498049
76	0x3dcc3241	0.09970523
77	0xbe1ce1a7	-0.15320455
78	0xbe4d1b05	-0.20029838
79	0xbe3e32d3	-0.18574075
80	0xbe06f6fa	-0.13180152
81	0xbe398fd3	-0.18121271
82	0xbea2514f	-0.3170266
83	0xbd919f5b	-0.07110473
84	0xbe263a1f	-0.16233109
85	0xbe1481ed	-0.14502688
86	0xbe61332c	-0.21992177
87	0xbe0417f9	-0.1289977
88	0xbccb9b8d	-0.024854446
89	0xbd2d5e3d	-0.0423262
90	0xbdafe078	-0.08587736
91	0xbda0e292	-0.07855715
92	0xbdc1ea38	-0.09468502
93	0xbb0e37e8	-0.0021700803
94	0x3e08ee2b	0.13372104
95	0xbe311952	-0.17294815
96	0xbe0a222a	-0.13489595
97	0x3e14e33f	0.14539813
98	0x3db0ef1a	0.08639355
99	0x3a6f4778	0.0009127776
100	0x3e0de367	0.13856278
101	0x3cebc1a2	0.028778855
102	0xbd91b294	-0.07114139
103	0x3df22680	0.118237495
104	0x3d74db8d	0.059779692
105	0x3dc2e4f2	0.09516324
106	0x3ecfbaa0	0.4057207
107	0xbd884e6a	-0.06655581
108	0x3d882ffb	0.066497765
109	0xbdd1b947	-0.10240417
110	0x3e92665c	0.2859372
111	0x3cc6128c	0.024178766
112	0x3dc4ae78	0.0960359
113	0xbe722bc4	-0.23649508
114	0xba9978fb	-0.0011709029
115	0x3e4295f6	0.19002518
116	0x3eaf7dc2	0.34275633
117	0x3e42e042	0.1903086
118	0x3dc89a71	0.09795082
119	0xbe257906	-0.16159448
120	0x3e1281b1	0.14307286
121	0x3dee2b69	0.116293736
122	0xbbda95d0	-0.006670691
123	0xbd058b8e	-0.032603793
124	0x3dc985ce	0.09839974
125	0xbdd10d04	-0.10207561
126	0x3c25d2a4	0.010121021
127	0x3e01d3d4	0.12678462
128	0x3d99474a	0.074843004
129	0x3c949c32	0.018140886
130	0xbe00552e	-0.12532493
131	0xbe9feb8c	-0.31234396
132	0xbe8d6a19	-0.2762001
133	0x3d4857a8	0.04891172
134	0x3e181747	0.1485263
135	0xbd7fadd6	-0.062421642
136	0xbe42c53a	-0.19020548
137	0xbe84c3e8	-0.25930715
138	0x3e4255ab	0.18977992
139	0x3e1ba265	0.15198667
140	0xbd2255c3	-0.03963257
141	0xbe82489a	-0.25446016
142	0xbd075ffa	-0.033050515
143	0x3e1a8ab5	0.15091975
144	0xbdc5f3b1	-0.09665621
145	0x3c209a6c	0.009802442
146	0x3c65dd55	0.01402982
147	0x3db09721	0.086225756
148	0xbde1f716	-0.11033456
149	0x3e11d02e	0.1423957

c1.bias f4 [6]
0	0x3e36a750	0.17837262
1	0xbdad5c22	-0.084648386
2	0x3d52fa2e	0.05150812
3	0xbcf39e85	-0.029738674
4	0xbe276db7	-0.16350447
5	0x3e2d27f0	0.16909766

c2.weight f4 [16, 6, 5, 5]
0	0x3c1c6400	0.009545326
1	0xbe03049b	-0.12794726
2	0xbdcb2ade	-0.09920286
3	0xbe29f111	-0.16595866
4	0xbd97c438	-0.07410473
5	0xbda4c505	-0.08045391
6	0xbda1b651	-0.07896102
7	0xbcd2a6e2	-0.025714342
8	0xbc89a70a	-0.016803283
9	0x3c8718d1	0.016491326
10	0xbab128c5	-0.0013516179
11	0x3d200c32	0.03907413
12	0xbd126bec	-0.035747454
13	0xbbbf5d1d	-0.0058399574
14	0xbd8f4170	-0.06994903
15	0xbd69e2a6	-0.057100914
16	0xbd702602	-0.058629997
17	0xbdd944e9	-0.10608847
18	0xbda815a5	-0.08207253
19	0x3d542d9c	0.05180131
20	0xbd6d257c	-0.057897076
21	0xbdf71f8e	-0.120665655
22	0xbd1fac6b	-0.03898279
23	0xbdccb6c7	-0.099957995
24	0xbc175877	-0.0092374
25	0xbdd7780d	-0.10520945
26	0x3cadb232	0.021203134
27	0x3dea4aed	0.11440072
28	0x3d305432	0.043049045
29	0x3dbca019	0.09210224
30	0xbd82de93	-0.06390109
31	0xbdabc9db	-0.0838811
32	0x3d6cd631	0.057821456
33	0x3d796ac4	0.060892835
34	0x3e0921d1	0.13391806
35	0xbd88b5a0	-0.06675267
36	0xbdaa8032	-0.083252326
37	0xbdd58268	-0.10425264
38	0x3d5bf6b4	0.05370207
39	0x3de0bef5	0.10973922
40	0x3dca2da1	0.09871984
41	0x3d762ab4	0.06009932
42	0xbd929175	-0.0715665
43	0xbdda9dd0	-0.106746316
44	0x3dd6eb47	0.10494094
45	0x3d0f5acc	0.0349987
46	0xbcaa7ee5	-0.020812461
47	0x3d1aa896	0.037758432
48	0xbd22f625	-0.039785523
49	0x3ca6b9c7	0.020352257
50	0xbd477b0a	-0.048701324
51	0xbbee8ef7	-0.0072802263
52	0x3d33c29f	0.043886777
53	0xbc806806	-0.015674602
54	0xbc045516	-0.008076927
55	0xbb1049d3	-0.002201666
56	0xbdd26c49	-0.1027456
57	0x3d001e63	0.03127898
58	0xbce0b1b5	-0.027428487
59	0x3d41c226	0.047304295
60	0xbd47269b	-0.0486208
61	0xbc5e5c72	-0.013571845
62	0xbd2fd766	-0.04293003
63	0xbc6044a6	-0.013688242
64	0xbcdda946	-0.027058255
65	0x3cf17185	0.029473076
66	0x3ce19238	0.027535543
67	0x3da8250d	0.08210192
68	0xbc80298a	-0.015644807
69	0xbddf0263	-0.10889127
70	0xbcf7366e	-0.030177321
71	0xbc72c33c	-0.014817055
72	0x3d99e1fb	0.075138055
73	0xbd9f18e5	-0.0776842
74	0x3d16219b	0.036653142
75	0x3ca8ec68	0.02062054
76	0xbd359c6d	-0.044338632
77	0xbbd24f89	-0.0064181727
78	0x3d03ed8a	0.032208957
79	0x3e0b18f9	0.13583745
80	0xbd9377ec	-0.07200608
81	0xbdbff826	-0.093735024
82	0xbe0ebe86	-0.13939866
83	0xbe0d5e2d	-0.13805456
84	0xbd0c2776	-0.03421732
85	0x3c777767	0.015104151
86	0xbdc2f0a8	-0.09518558
87	0xbe588c6e	-0.2114732
88	0xbe21f36a	-0.15815511
89	0xbdf4057b	-0.11915108
90	0x3e0804ed	0.13283129
91	0x3ddb15e0	0.10697532
92	0xbd14920d	-0.036272097
93	0xbd8ed105	-0.06973461
94	0xbe1185ad	-0.1421115
95	0x3dc6e151	0.097109444
96	0x3e0fe9e6	0.14054069
97	0x3dd834de	0.105569586
98	0xbd8519c3	-0.06499054
99	0xbd6c130f	-0.057635363
100	0x3d929631	0.07157553
101	0x3b6e136e	0.00363275
102	0xbd6148f7	-0.055001225
103	0xbdfccd0e	-0.123437986
104	0xbdb5abf4	-0.08870688
105	0xbde16735	-0.11006013
106	0xbc13f9ae	-0.009031696
107	0x3c197a4f	0.00936754
108	0x3c3190bb	0.010837729
109	0x3dd501af	0.10400712
110	0xbd5f928a	-0.05458311
111	0xbdc5e959	-0.09663648
112	0x3ce360af	0.027756063
113	0x3ca0f488	0.019647852
114	0x3cf11dce	0.029433157
115	0xbc677a3e	-0.014128266
116	0xbafb598a	-0.0019176465
117	0xbce9d609	-0.028544443
118	0xbd641e53	-0.055692982
119	0x3c68e158	0.014213882
120	0x3dec8b82	0.115500465
121	0x3d87918d	0.066195585
122	0xbd4824d8	-0.048863262
123	0xbdb0341a	-0.086036876
124	0x3d97a2d0	0.07404101
125	0xbddf8abe	-0.10915135
126	0xbd711ba4	-0.05886425
127	0xbe149de7	-0.1451336
128	0xbdf4a253	-0.119450234
129	0x3d317a08	0.04332927
130	0x3d8ad7e1	0.06779457
131	0xbe1a083e	-0.15042207
132	0xbd80daff	-0.0629177
133	0xbe4544ac	-0.19264477
134	0xbd88781c	-0.06663534
135	0x3ceff3ee	0.02929112
136	0x3de5e68a	0.112256125
137	0xbd8d4907	-0.068986945
138	0xbe237ba4	-0.15965134
139	0xbe24e865	-0.16104276
140	0x3db14367	0.08655434
141	0xbc41ee14	-0.011836547
142	0x3d23a0be	0.039948218
143	0xbd20e30c	-0.03927903
144	0xbd9d160c	-0.07670221
145	0xbdd3122a	-0.10306199
146	0xbd1a7dbc	-0.037717566
147	0x3d699e8a	0.05703596
148	0x3d3a5a8a	0.0454965
149	0xbd5345b9	-0.051580165
150	0xbd7165fd	-0.058935154
151	0xbe03cb05	-0.12870415
152	0xbd2439bc	-0.040094122
153	0xbdc07c9f	-0.093987696
154	0xbdd68951	-0.1047541
155	0xbdb484a0	-0.08814359
156	0xbdd9422c	-0.106083244
157	0xbe3597c2	-0.17733672
158	0xbe71f292	-0.2362769
159	0xbdc762e9	-0.097356625
160	0xbbb740fb	-0.005592463
161	0x3d17ebe4	0.037090197
162	0x3d8a1caa	0.067437485
163	0x3cd53931	0.026028248
164	0x3cb66ef3	0.022269702
165	0xbd91fbb0	-0.07128084
166	0xbc540c8f	-0.012942447
167	0x3d8a8f67	0.06765633
168	0xbc5a860a	-0.013337621
169	0x3c26a6fe	0.01017165
170	0xbd607938	-0.054803103
171	0xbd1a7ac6	-0.037714742
172	0xbe103fa3	-0.14086775
173	0xbdc00b82	-0.09377195
174	0xbd7673e7	-0.060169127
175	0xbd8b7971	-0.068102725
176	0xbcdecd2f	-0.027197449
177	0xbdcffddb	-0.10155841
178	0xbda1674f	-0.07881033
179	0xbe4316b0	-0.19051623
180	0x3d049856	0.03237184
181	0xbce1543a	-0.027505983
182	0x3dbf1c86	0.09331612
183	0x3cc8cd44	0.02451194
184	0x3e00ed68	0.12590563
185	0x3d54aeb2	0.051924415
186	0x3da3a56c	0.07990536
187	0x3c328f63	0.010898444
188	0x3db1a40d	0.08673868
189	0x3e311530	0.17293239
190	0xbcebb40b	-0.028772375
191	0xbe1bb913	-0.15207319
192	0xbe522050	-0.20520139
193	0xbe95468e	-0.2915539
194	0xbd846b22	-0.064657465
195	0x3cc33e57	0.023833437
196	0x3b16d7df	0.0023016853
197	0xbd6efb09	-0.058344875
198	0xbd148475	-0.036259133
199	0xbd60a719	-0.054846857
200	0x3d29edbd	0.04148649
201	0xbdb0e0f9	-0.0863666
202	0xbdb408bd	-0.08790729
203	0xbdfe4e06	-0.124172255
204	0xbca2263a	-0.019793618
205	0xbcd64bbc	-0.02615916
206	0xbd0d7849	-0.03453854
207	0x3d2d4caa	0.04230944
208	0x3de8b151	0.113619454
209	0x3e207c03	0.15672307
210	0xbce8ae2d	-0.028403366
211	0xbdb4f8ee	-0.08836542
212	0xbdc9538e	-0.0983039
213	0xbdda340f	-0.10654461
214	0xbc2f68ba	-0.010706121
215	0x3d668785	0.056281585
216	0xbc49a36c	-0.012307029
217	0xbd8223ea	-0.06354506
218	0xbd9438bf	-0.07237386
219	0xbe3a066a	-0.1816651
220	0xbd2045b5	-0.039128978
221	0x3c21c902	0.009874584
222	0x3e0ec3bc	0.13941854
223	0x3e0246e5	0.12722357
224	0x3de76aab	0.11299642
225	0xbcf4ff52	-0.029906902
226	0x3d85f3f8	0.06540674
227	0x3ccf1c43	0.02528203
228	0xbd545dbe	-0.051847212
229	0x3d1c4fda	0.03816209
230	0xbc6a111f	-0.014286309
231	0xbd6cbad4	-0.05779536
232	0x3d75e8f5	0.06003662
233	0xbc74ba17	-0.014936945
234	0xbd213fc5	-0.039367456
235	0xbc625d61	-0.013816209
236	0xbd189e51	-0.037260357
237	0xbd8489b7	-0.064715795
238	0xbd9263b8	-0.07147926
239	0xbddc10ef	-0.10745417
240	0x3cca1df3	0.024672484
241	0xbddb608d	-0.10711775
242	0xbd5dae8f	-0.05412155
243	0xbd15408c	-0.03643851
244	0xbe46be71	-0.19408585
245	0x3d916374	0.07099047
246	0x3c16aa11	0.00919582
247	0x3dd5b153	0.104342125
248	0x3da17876	0.07884304
249	0x3d251904	0.04030706
250	0xbdb4580a	-0.088058546
251	0xbd83b49a	-0.064309314
252	0x3c3718cd	0.011175347
253	0xbd9a5a05	-0.07536701
254	0xbdc60a2d	-0.096699096
255	0xbde08f95	-0.10964886

c2.bias f4 [16]
0	0xbdb6e465	-0.089302815
1	0xbd382ede	-0.04496657
2	0xbde1fbc2	-0.11034347
3	0x3b22bbf6	0.0024831272
4	0xbbe488ce	-0.006974316
5	0xbd86ac28	-0.06575805
6	0x3c26e2a3	0.01018587
7	0xbdf9b772	-0.121931925
8	0xbc3ffdb2	-0.0117182005
9	0xbe272d7d	-0.16325946
10	0x3d792a2b	0.06083123
11	0x3c979889	0.018505352
12	0xbdd27313	-0.10275855
13	0xbd1bc6f3	-0.03803153
14	0xbd99e464	-0.07514265
15	0xbd1f2f47	-0.038863447

c3.weight f4 [120, 16, 5, 5]
0	0xbc1ab4de	-0.009442536
1	0x3c901702	0.017589096
2	0xbc7191f4	-0.014744271
3	0xbb069969	-0.0020538217
4	0xbd6e5fe7	-0.05819693
5	0xbd5da059	-0.054107998
6	0xbb4bdddf	-0.0031107587
7	0x3c82ace0	0.015951574
8	0xbd5fda0b	-0.0546513
9	0x3d95986b	0.07304462
10	0x3d637f02	0.055541046
11	0xbd0de2a1	-0.03463996
12	0xbd8736ca	-0.06602247
13	0x3d6d728f	0.05797058
14	0x3d9542a7	0.072881036
15	0xbc56b586	-0.013104802
16	0xbd982694	-0.07429233
17	0xbd348fcf	-0.04408246
18	0xbc5005c5	-0.012696688
19	0xbc38c794	-0.011278052
20	0x3ca94f60	0.020667732
21	0xbce9f375	-0.028558472
22	0x3d8c9e62	0.068661466
23	0xbcad7273	-0.021172738
24	0xbe128311	-0.1430781
25	0xbd8a9380	-0.06766415
26	0xbd861ea1	-0.06548811
27	0xbc9434e1	-0.01809162
28	0x3cbaced5	0.022803703
29	0x3caf612f	0.021408645
30	0xbd117027	-0.035507347
31	0xbc00f50d	-0.007870925
32	0x3d1219b3	0.03566904
33	0x3da4f77f	0.08055019
34	0xbbcb0bba	-0.0061964663
35	0x3dcb7d1a	0.099359706
36	0xbd57692d	-0.052590538
37	0xbddcbc2d	-0.10778079
38	0x3c27ffbe	0.010253845
39	0xbd818359	-0.06323881
40	0xbde6431a	-0.11243267
41	0xbde6f4e0	-0.11277175
42	0xbce7deb8	-0.028304443
43	0xbe22ad42	-0.15886405
44	0xbcbb1c65	-0.022840688
45	0x3cadb18d	0.021202827
46	0x3e12d736	0.14339909
47	0x3dd218da	0.10258646
48	0xbc87a0b5	-0.016556123
49	0x3cb39f56	0.021926563
50	0x3cba43a1	0.022737326
51	0x3d02a110	0.031891882
52	0x3d8505fb	0.06495281
53	0x3d6891ff	0.056779858
54	0x3da201ae	0.079104766
55	0xba0bdaa9	-0.0005335012
56	0xbc663992	-0.014051812
57	0xbd1a9065	-0.03773536
58	0x3d7b15cc	0.061300084
59	0x3d0e7333	0.03477783
60	0x3d22ca95	0.03974398
61	0x3db55b38	0.08855289
62	0xbd1e7fd0	-0.03869611
63	0xbbc19252	-0.0059073353
64	0x3ca49d87	0.020094646
65	0xbd87ea53	-0.06636491
66	0x3d441cf5	0.047879178
67	0xbcec4015	-0.02883915
68	0xbdf4be5a	-0.11950369
69	0xbe1bc94d	-0.15213509
70	0xbd5804e0	-0.052739024
71	0xbb8db6db	-0.0043247766
72	0x3cb78425	0.022401879
73	0xbc9a8f76	-0.018867236
74	0x3d8ea87b	0.06965729
75	0x3d69cd3e	0.0570805
76	0x3d90ac53	0.07064118
77	0xbcc0b282	-0.02352262
78	0xbd7201f9	-0.059083913
79	0xbb53c007	-0.0032310502
80	0x3d3dd9d1	0.046350304
81	0xbd289c71	-0.04116482
82	0x3c938a8b	0.018010398
83	0x3cd1e589	0.025622146
84	0x3d996e1f	0.07491707
85	0xbc920956	-0.017826717
86	0xbd76fd17	-0.06029996
87	0x3d15edf4	0.036603883
88	0xbcde9d3e	-0.027174588
89	0xbca72b78	-0.02040647
90	0x3c85b279	0.016320454
91	0x3dd6cc57	0.104881935
92	0xbb19d1a3	-0.00234709
93	0x3d12c8e1	0.035836104
94	0x3d7d75db	0.061879974
95	0xbd646c35	-0.055767257
96	0x3d9121b7	0.07086509
97	0xbb73db2a	-0.003720949
98	0x3e15ef78	0.14642131
99	0x3c1d26c7	0.009591765
100	0x3c46aae7	0.012125707
101	0xbd21c4f9	-0.03949449
102	0xbd2f7534	-0.042836383
103	0xbda79cc7	-0.081842
104	0x392f253e	0.00016703174
105	0x3d3400fa	0.043946244
106	0xbc9cf173	-0.0191581
107	0x3cd7e8b4	0.026356079
108	0x3d2833f5	0.041065175
109	0x3baf9f4e	0.005359567
110	0x3d33b23f	0.04387116
111	0x3d9826ce	0.074292764
112	0xbd36ea5b	-0.044657093
113	0xbcf0ef65	-0.029411027
114	0xbb3f05e8	-0.0029147808
115	0x3d4aa474	0.04947324
116	0xbb81a345	-0.003956231
117	0xbdaf140d	-0.08548746
118	0xbd6da5af	-0.058019336
119	0xbd820876	-0.0634927
120	0xbd3860b1	-0.045014087
121	0xbdd73494	-0.10508075
122	0xbdc67f08	-0.09692198
123	0xbda5546a	-0.08072741
124	0xbe2f0067	-0.17089997
125	0x3bf12273	0.007358843
126	0x3c56213d	0.013069448
127	0xbd438d74	-0.047742322
128	0x3cba5ff2	0.022750828
129	0xbcaec3e4	-0.021333642
130	0x3c8f44a7	0.01748879
131	0x3d3af9c4	0.04564835
132	0x3d34de76	0.044157468
133	0x3b9e42f4	0.004829759
134	0x3d6a45c8	0.057195455
135	0xbd258052	-0.04040558
136	0xbd4ffff3	-0.0507812
137	0xbcdc281f	-0.0268746
138	0x3c6a2f5f	0.014293521
139	0xbd3b18a6	-0.045677803
140	0xbcc5acd4	-0.024130262
141	0xbd4fd4bb	-0.050739985
142	0x3d9d88bc	0.07692096
143	0x3d92b94d	0.071642496
144	0x3cbade1e	0.022810992
145	0xbbaff9ff	-0.005370378
146	0x3bd3621e	0.0064509055
147	0x3ddf3269	0.10898287
148	0x3da42592	0.080149785
149	0xbcafaa9f	-0.021443663
150	0xbccd76af	-0.025081007
151	0x3dc79b10	0.09746373
152	0x3dc99957	0.098437004
153	0x3d047ca0	0.032345414
154	0xbc9aa306	-0.018876564
155	0xbd351cde	-0.044216983
156	0x3c801190	0.015633374
157	0x3cbfa1bd	0.023392553
158	0xbd69bd39	-0.057065222
159	0x3d74b4d1	0.059742752
160	0x3d6346dd	0.055487502
161	0xbca4b80a	-0.020107288
162	0xbcd76202	-0.026291851
163	0x3d0bd24d	0.034136105
164	0xbd53a507	-0.051671054
165	0xbd832341	-0.064032085
166	0xbd06c854	-0.03290589
167	0xbdefc04e	-0.11706601
168	0xbd5740c0	-0.052551985
169	0xbcb93925	-0.022610256
170	0x3be1e9c6	0.006894323
171	0xbca21521	-0.019785466
172	0xbd275c27	-0.040859368
173	0x3d5dcbe1	0.054149512
174	0x3d1adef4	0.03781028
175	0x3b2954e4	0.0025837952
176	0xbd37e650	-0.044897377
177	0xbd5adf0d	-0.053435374
178	0xbc4c346a	-0.012463668
179	0xbc8fe585	-0.017565498
180	0xbd7bc10d	-0.061463404
181	0x3d7deec5	0.061995286
182	0xbc9c7ccd	-0.019102478
183	0x3ce8ac04	0.028402336
184	0xbc4bffce	-0.012451125
185	0x3d45cabd	0.04828905
186	0xbc7a2fa3	-0.015270147
187	0x3d1b5565	0.037923235
188	0x3d2afd87	0.04174569
189	0xbd7d118e	-0.06178432
190	0xbda59bf2	-0.08086385
191	0xbc9ae97a	-0.018910158
192	0xbbd25a71	-0.006419473
193	0x3acc71bd	0.0015597861
194	0xbc892893	-0.01674298
195	0x3d49e694	0.049292162
196	0xbcc6743d	-0.024225349
197	0x3ca9e990	0.020741254
198	0x3dd85389	0.10562808
199	0x3d981df3	0.07427587
200	0x3d682d2c	0.056683704
201	0x3bd13927	0.006384987
202	0xbb36ba6a	-0.0027882108
203	0xbd5ebb71	-0.054377977
204	0xbd5f44f5	-0.054509122
205	0xbd038c5c	-0.03211628
206	0xbdb25b3f	-0.0870881
207	0xbd1d7c83	-0.03844882
208	0xbd2a2a07	-0.041543987
209	0xba62e414	-0.0008655202
210	0x3d3d6f49	0.046248708
211	0xbd3c81d6	-0.04602226
212	0xbd26c96e	-0.040719442
213	0x3d484f6a	0.04890386
214	0x3d400f83	0.046889793
215	0xbd0654e5	-0.032795805
216	0x3da4e041	0.080505855
217	0xbd0be96d	-0.03415816
218	0xbd5c76f4	-0.05382438
219	0x3c8ca1c3	0.017166978
220	0x3c919fdb	0.01777642
221	0x3ce6e265	0.028184125
222	0xbc9a653b	-0.018847099
223	0xbdfdefcf	-0.123992555
224	0xbc0f3090	-0.008739606
225	0xbb6d8710	-0.0036243834
226	0xbac216f0	-0.0014807861
227	0x3da241c3	0.07922699
228	0xbd4f0682	-0.050543316
229	0xbd530a04	-0.051523224
230	0xbc0518d4	-0.008123595
231	0x3d9e3d7a	0.077265695
232	0x3d1c102b	0.038101356
233	0x3cb6de36	0.022322755
234	0x3d3b416c	0.045716688
235	0xbd1d2e1e	-0.03837406
236	0x3d1383ce	0.03601437
237	0x3d92bea6	0.071652696
238	0x3c7a9824	0.015295062
239	0x3d996f33	0.07491913
240	0x3c7a4d8a	0.015277276
241	0xba71d541	-0.0009225198
242	0x3d739a82	0.059473522
243	0xbc400ccb	-0.0117218
244	0x3d8c30d2	0.06845249
245	0xbd72a166	-0.059235953
246	0x3ced2780	0.0289495
247	0xbb05814d	-0.0020371259
248	0x3d9a0be4	0.07521799
249	0x3d848ed7	0.06472557
250	0x3c3bc4ae	0.011460466
251	0x3bcb683a	0.006207493
252	0x3c22bade	0.009932248
253	0xbc3f5411	-0.011677758
254	0xbd1df118	-0.038560003
255	0xbd2125b6	-0.039342605

c3.bias f4 [120]
0	0x3c27cdd8	0.010241948
1	0xbca5dcb1	-0.020246835
2	0x3ca6006b	0.020263871
3	0x3d3362b7	0.043795314
4	0xbc93b3cd	-0.018030072
5	0x3d2827b0	0.041053474
6	0x3c7fe87a	0.015619392
7	0xbbe316ca	-0.006930207
8	0xba57b6c2	-0.0008228832
9	0x3cc3e41e	0.023912486
10	0xbb316131	-0.0027065987
11	0xbc5ea52f	-0.0135891875
12	0x3c8d609a	0.017257977
13	0x3d239616	0.039938055
14	0x3d0fdafd	0.035120953
15	0x3d81b069	0.06332476
16	0xbbd3d8bc	-0.0064650457
17	0x3c5f527f	0.013630508
18	0xbd5fa4ff	-0.054600712
19	0xbccd6149	-0.025070803
20	0x3d510403	0.051029216
21	0xbd0b5205	-0.034013767
22	0xbce6b141	-0.028160693
23	0xbcf90645	-0.030398497
24	0x3d2d954a	0.0423787
25	0xbca49522	-0.020090643
26	0xbd1fa544	-0.03897597
27	0xbd09c4bd	-0.03363489
28	0xbd7dc36a	-0.06195394
29	0xbca3110b	-0.019905588
30	0x3c646b68	0.013941623
31	0x3ba4d7b2	0.0050305957
32	0x3c8821f0	0.016617745
33	0x3bd87619	0.006605875
34	0xbd7e9cb7	-0.062161174
35	0x3cea8fb3	0.028632974
36	0xbd3fdac9	-0.04683951
37	0x3c9789cf	0.01849833
38	0xbd0bb75e	-0.03411042
39	0xbd0657c3	-0.03279854
40	0xbc9b646c	-0.018968783
41	0x3c8811df	0.016610084
42	0x3d2620d4	0.04055865
43	0x3c6647fc	0.014055248
44	0xbc53f0b5	-0.012935807
45	0x3cc0f98f	0.023556499
46	0xbd237ccb	-0.039913934
47	0x3b34cb49	0.0027586988
48	0xbd1f1b0d	-0.038844157
49	0x3aaffeb6	0.001342735
50	0xbd1bf1ae	-0.03807228
51	0x3c741c3d	0.014899311
52	0xbaca935e	-0.0015455296
53	0x3b9ff128	0.004881043
54	0x3cd6b94c	0.026211403
55	0x3c2a4b95	0.010393997
56	0x3d46b762	0.04851473
57	0xbd2f3a76	-0.042780362
58	0xbc6b75f4	-0.014371384
59	0x3d80cb50	0.06288779
60	0xbd3e3f5c	-0.046447143
61	0xbb88b7ad	-0.0041722865
62	0x3b5186b1	0.0031971151
63	0xbd72e4d4	-0.05930026
64	0xbd4add56	-0.04952749
65	0x3c9604cb	0.018312832
66	0xbb92c34a	-0.0044788467
67	0x3c557fdf	0.013030975
68	0xbd2b4cc5	-0.04182126
69	0xbcc0a229	-0.023514824
70	0xbc0cfa6d	-0.008604628
71	0xbd66c2e1	-0.056338195
72	0xbcd8e4b7	-0.026476247
73	0xbd4ca17a	-0.049958684
74	0xbb68f9de	-0.0035549323
75	0x3ceb166a	0.028697211
76	0xbd82e542	-0.06391384
77	0xbcf77020	-0.030204833
78	0xbd4d6687	-0.050146606
79	0x3be4436d	0.0069660456
80	0x3c320d4d	0.010867429
81	0xbce9e748	-0.028552666
82	0x3d147cb0	0.036251724
83	0x3cbe2dab	0.023215136
84	0x3cbeb305	0.023278723
85	0x3ccb14e3	0.024790233
86	0xbb5b98d1	-0.0033507834
87	0x3d0625b4	0.0327508
88	0x3c885f8a	0.01664712
89	0x3b1cade3	0.0023907355
90	0xbd2e1024	-0.04249586
91	0x3ca87716	0.020564597
92	0x3cbf73c2	0.023370627
93	0xbd00c5a2	-0.031438477
94	0xbd820744	-0.06349042
95	0xbcc0e7b1	-0.02354798
96	0x3c08f36e	0.008358819
97	0x3cf46199	0.029831694
98	0x3c9ee81e	0.019397791
99	0xbc5769d2	-0.013147788
100	0xbb274fa3	-0.0025529645
101	0xbd5f31c8	-0.054490834
102	0x3d58246e	0.052769117
103	0x3ca7f208	0.020501152
104	0xbd4228bd	-0.047402132
105	0x39339beb	0.00017128854
106	0x3d01755a	0.031606056
107	0x3d3eb0ff	0.046555515
108	0x3d0f7a96	0.035029016
109	0x3d10494f	0.035226163
110	0x3b9caebb	0.0047815717
111	0x3b63dcdf	0.00347691
112	0x3cb224e9	0.021746116
113	0xbd09e5e3	-0.033666503
114	0x3c85d01f	0.016334591
115	0xbd454383	-0.048160087
116	0xbcabc902	-0.020969871
117	0x3c5b5e2c	0.013389152
118	0x3bcfa7f5	0.0063371607
119	0x3cc79273	0.024361825

fc1.weight f4 [84, 120]
0	0x3c2dfc55	0.010619243
1	0x3dab541d	0.08365653
2	0xbd58fdd7	-0.052976456
3	0x3df8ffea	0.12158187
4	0xbae786f0	-0.0017664116
5	0x3debd014	0.11514297
6	0x3d1c7931	0.038201515
7	0x3c8ab297	0.016930861
8	0xbc957c00	-0.018247604
9	0xbda8e9a5	-0.08247689
10	0x3da23814	0.07920852
11	0x3d5326a3	0.05155052
12	0x3bb87c94	0.0056300852
13	0x3cd1b56c	0.025599204
14	0xbd68819f	-0.05676424
15	0xbde092ac	-0.109654754
16	0xbdf30970	-0.118670344
17	0x3d233fc3	0.03985573
18	0xbd194b66	-0.03742542
19	0x3dfce511	0.123483784
20	0x3d6ec309	0.05829147
21	0xbe4cb4fe	-0.19990918
22	0xbe0702bc	-0.13184637
23	0x3d6bcecd	0.057570267
24	0xbe3da0ae	-0.18518326
25	0x3d5b2813	0.053505015
26	0x3d701d8a	0.05862192
27	0xbe5ae9a0	-0.21378183
28	0x3e0e281b	0.13882487
29	0xba028391	-0.00049787114
30	0x3b5668db	0.0032716307
31	0xbd3dfdf3	-0.046384763
32	0xbd3c3cc1	-0.045956377
33	0xbe590a2c	-0.21195287
34	0x3e0d2836	0.1378487
35	0x3c4e0188	0.012573607
36	0xbda3f289	-0.08005244
37	0xbdba0233	-0.09082451
38	0xbdf8b98b	-0.121447645
39	0xbdd56e90	-0.10421479
40	0x3de3b2f1	0.11118115
41	0xbdf2378c	-0.11827001
42	0x3e77e941	0.24210073
43	0x3cc95d2e	0.024580564
44	0xbda2b442	-0.07944538
45	0x3d214323	0.039370667
46	0x3db71639	0.089397855
47	0xbd9e4451	-0.07727874
48	0xbc54f641	-0.012998165
49	0x3d7d5b6b	0.06185476
50	0x3ded78dd	0.115953185
51	0x3daf7637	0.085674696
52	0x3dd4087c	0.10353181
53	0xbc3d517b	-0.011555071
54	0xbe07aefc	-0.13250345
55	0xbbaf1170	-0.005342655
56	0x3a9ad434	0.0011812509
57	0xbc9f259c	-0.019427113
58	0x3da52b10	0.08064854
59	0x3dd374df	0.10325026
60	0x3e2e2330	0.1700561
61	0xbd45f5c0	-0.04833007
62	0xbd817515	-0.0632116
63	0xbdc0fffd	-0.09423826
64	0xbdfafc39	-0.12255139
65	0x3c427ac0	0.011870086
66	0x3d17a925	0.037026543
67	0x3d408757	0.04700407
68	0xbe044c35	-0.12919696
69	0xbd2875f3	-0.04112811
70	0xbd082860	-0.03324163
71	0x3caef2fd	0.0213561
72	0xbd62aa3a	-0.055338122
73	0x3e1634b4	0.14668542
74	0x3e79ac6e	0.24382183
75	0xbd9b9573	-0.075968646
76	0xbdfec108	-0.124391615
77	0xbe1b5763	-0.15170054
78	0xbcaafd27	-0.020872666
79	0xbe377922	-0.17917302
80	0xbc0e88fd	-0.008699653
81	0xbd24fd72	-0.040280767
82	0xbd462959	-0.048379276
83	0x3cd8bbbc	0.026456706
84	0xbdddeb88	-0.1083594
85	0x3dd5fa94	0.104481846
86	0xbe2c5f61	-0.16833259
87	0xbdd0f334	-0.10202637
88	0xbe3e4ced	-0.18584032
89	0xbc762396	-0.015023133
90	0x3e27134a	0.16315952
91	0xbd38aa19	-0.045084093
92	0x3cf8767b	0.030329933
93	0xbd9250ff	-0.07144355
94	0xbd27647e	-0.04086732
95	0xbca7db52	-0.020490322
96	0x3dc1035a	0.094244674
97	0xbd541127	-0.05177417
98	0x3dd56132	0.10418929
99	0xbd959c55	-0.073052086
100	0x3de6ff01	0.11279107
101	0xbdd0cdeb	-0.10195526
102	0x3e25dcf3	0.16197567
103	0xbd9e4f3f	-0.07729959
104	0xbd1f369c	-0.03887044
105	0xbe2f13f5	-0.17097457
106	0x3dc59651	0.09647811
107	0x3d912f78	0.07089132
108	0xbd2048be	-0.039131872
109	0x3db7ba9b	0.08971139
110	0x3dd44bcc	0.103660196
111	0x3d682dec	0.05668442
112	0xbd8bcfe2	-0.0682676
113	0x3d324031	0.04351825
114	0x3de45476	0.11148922
115	0x3cf3babe	0.029752132
116	0xbda0bba0	-0.07848287
117	0xbd47504c	-0.04866056
118	0xbcfe5a3f	-0.031048892
119	0xbd09a309	-0.033602748
120	0x3e5cee3c	0.21575254
121	0xbd86514c	-0.06558475
122	0x3d873696	0.06602208
123	0x3d5712c7	0.05250814
124	0xbd574fa6	-0.052566193
125	0x3cf5bd06	0.02999736
126	0xbe0712e9	-0.13190807
127	0xbe24f57b	-0.16109268
128	0xbe0ef9b0	-0.13962436
129	0x3df216cb	0.11820754
130	0xbdac33c7	-0.08408313
131	0xbc9c51cd	-0.019081974
132	0x3cf83b21	0.030301632
133	0x3e3c1676	0.18367943
134	0xbdca227e	-0.0986986
135	0x3d28487f	0.041084763
136	0x3e00aedc	0.12566704
137	0xbb0c4b22	-0.0021407087
138	0x3e39c6a4	0.18142182
139	0xbe1f6e77	-0.15569483
140	0x3c574a6c	0.013140302
141	0xbe1e804c	-0.15478629
142	0xbcc99164	-0.02460546
143	0xbde74046	-0.11291556
144	0xbce1a2d8	-0.02754347
145	0x3c9c3256	0.01906697
146	0x3e032a87	0.12809192
147	0x3d952001	0.07281495
148	0x3e1864ce	0.14882204
149	0x3e13d38a	0.14436164
150	0x3cdf963d	0.027293319
151	0xbd8a211f	-0.067445986
152	0xbb00c81e	-0.001965053
153	0xbcc53bff	-0.02407646
154	0xba4b8af9	-0.0007764544
155	0x3e12d428	0.14338744
156	0xbd4a0249	-0.049318586
157	0xbae63219	-0.0017562538
158	0xbe211499	-0.15730514
159	0x3e00b142	0.12567618
160	0xbe2d6526	-0.16933116
161	0x3d0b5d9e	0.034024827
162	0xbaec2132	-0.0018015264
163	0x3c2bae4d	0.010478568
164	0x3cf17bc9	0.02947797
165	0xbe1d906c	-0.15387124
166	0x3e0ca91e	0.13736388
167	0x3dacafe3	0.08431985
168	0x3e00ea9a	0.12589493
169	0x3bc19692	0.005907842
170	0x3e26fd47	0.16307555
171	0x3cfae284	0.03062559
172	0x3daca8d4	0.08430639
173	0xbd9ca91b	-0.07649442
174	0x3cabe807	0.020984663
175	0xbd8c7b11	-0.068594106
176	0xbe205166	-0.15656051
177	0x3d977e4c	0.07397136
178	0xbd6b7e99	-0.05749378
179	0xbd885eb2	-0.06658687
180	0x3dd6c3fe	0.10486601
181	0xbdb0d916	-0.08635156
182	0x3d0216c1	0.03175998
183	0x3d083a87	0.03325894
184	0xbd7820f9	-0.06057832
185	0x3e16247c	0.14662355
186	0xbd2da2b9	-0.042391513
187	0x3df30927	0.1186698
188	0xbe0585f0	-0.13039374
189	0x3d00609f	0.031342145
190	0x3e31676e	0.17324612
191	0xbd698b9f	-0.05701792
192	0x3d147292	0.036242075
193	0xbdaf64a3	-0.08564117
194	0xbd4feb17	-0.05076131
195	0x3d32d7e3	0.043662917
196	0xbcc26cea	-0.023733575
197	0x3d999b50	0.07500327
198	0xbe5a42b2	-0.21314505
199	0xbce10fb8	-0.027473316
200	0x3dad9681	0.08475972
201	0x3d3b7ae3	0.04577149
202	0xbd912b42	-0.07088329
203	0x3da12080	0.07867527
204	0x3dd34a2e	0.10316883
205	0xbe23a776	-0.1598185
206	0xbcb769b7	-0.022389276
207	0x3e0c0c49	0.13676561
208	0x3d04d05d	0.032425273
209	0xbe2d67f6	-0.16934189
210	0xbdc8595c	-0.09782669
211	0x3e292e27	0.16521512
212	0xbd8579cb	-0.06517371
213	0x3e04a94b	0.12955205
214	0x3df2d625	0.11857251
215	0x3ccabd85	0.024748573
216	0x3dc92981	0.09822369
217	0xbde393b6	-0.11112158
218	0xbb2fca66	-0.002682352
219	0x3db02cf0	0.08602321
220	0xbe16f36a	-0.14741293
221	0xbc4d6e44	-0.012538496
222	0x3d242b88	0.040080577
223	0xbe30cf5d	-0.17266603
224	0x3d419bbc	0.04726766
225	0x3e08831e	0.13331267
226	0x3d2197c5	0.03945138
227	0x3d1cd0ee	0.03828519
228	0x3c22c006	0.009933477
229	0x3bc07d48	0.0058743097
230	0xbdb1be6a	-0.08678897
231	0xbd044d9e	-0.032300584
232	0x3d1de442	0.03854776
233	0x3e42bd34	0.19017488
234	0x3e0a7e84	0.13524824
235	0xbdff546a	-0.124672726
236	0xbc0661f8	-0.0082020685
237	0xbe0f43f9	-0.13990773
238	0xbe5b5654	-0.2141965
239	0x3e243032	0.1603401
240	0x3d504fed	0.050857473
241	0xbd5d5768	-0.054038435
242	0x3dd49b97	0.10381239
243	0xbd97aaa1	-0.07405592
244	0xbcb8b6b9	-0.022548066
245	0x3df3b0e4	0.118989736
246	0x3dbbafab	0.091643654
247	0xbd0db3ff	-0.034595486
248	0xbd917ba5	-0.071036614
249	0x3d8b3545	0.0679727
250	0x3c1ed8ac	0.009695213
251	0xbcdc04ce	-0.02685776
252	0x3dfdfc76	0.12401669
253	0x3db9843a	0.09058423
254	0xbd40ad8a	-0.0470405
255	0x3e3d531f	0.1848874

fc1.bias f4 [84]
0	0xbccea6fc	-0.025226109
1	0xbd2091b0	-0.03920144
2	0x3c9610a7	0.018318487
3	0xbd7a75b6	-0.061147414
4	0xbc2f5f01	-0.010703803
5	0xbb45a6ad	-0.003015916
6	0xbca2d2ac	-0.019875847
7	0xbc05b8c8	-0.008161731
8	0xbdc10edc	-0.09426662
9	0x3c197df5	0.009368409
10	0x3d111f87	0.035430457
11	0xbd7db18d	-0.061936904
12	0xbc17083b	-0.009218271
13	0x3d2d1405	0.04225542
14	0xbdb2f4af	-0.08738076
15	0xbc7ba6f3	-0.015359628
16	0xbde19fb0	-0.11016786
17	0x3db9c3b5	0.09070531
18	0x3bc104a9	0.005890448
19	0x3d7a6c63	0.061138522
20	0x3d761f3c	0.06008838
21	0xb9b216f0	-0.00033967895
22	0x3d937c45	0.07201437
23	0xbd5ddb57	-0.054164257
24	0x3dd544ba	0.10413499
25	0xbdc9bdfa	-0.09850688
26	0xbd4a45b6	-0.049382888
27	0xbce30d77	-0.027716381
28	0x3d937991	0.07200921
29	0xbcc45174	-0.023964621
30	0x3c980af6	0.018559914
31	0x3d97ac77	0.07405942
32	0xbb876873	-0.0041323244
33	0xbd89e621	-0.06733347
34	0x3dab5eda	0.08367701
35	0xbd220f2d	-0.039565254
36	0xba001786	-0.0004886318
37	0x3cd03cd6	0.025419634
38	0x3dd976d2	0.10618366
39	0x3d4ccbd6	0.04999908
40	0x3d2ffb58	0.04296431
41	0xbd9a50dc	-0.07534954
42	0xbd351cf8	-0.04421708
43	0xbdb72727	-0.089430146
44	0xbb41600d	-0.0029506714
45	0x3d15cc66	0.036571883
46	0xbce221dd	-0.027604038
47	0x3d6f2a7d	0.05839013
48	0x3ddc3731	0.107527144
49	0xbd143aa4	-0.036188737
50	0x3c8693f0	0.016427964
51	0xbbf8f224	-0.007597225
52	0xbd204f23	-0.03913797
53	0xbab072b6	-0.0013461921
54	0xbc8b3e7c	-0.016997568
55	0x3b469aea	0.0030304738
56	0xbd95fc57	-0.07323521
57	0xbcbc05a8	-0.022951916
58	0xbd12594f	-0.035729703
59	0x3d861eb4	0.06548825
60	0xbd158190	-0.036500514
61	0x3d1c8e20	0.03822148
62	0x3d4f158f	0.05055767
63	0xbc898a09	-0.016789453
64	0x3c246085	0.010032778
65	0xbd31b56a	-0.0433859
66	0xbc862bd4	-0.01637832
67	0x3d9f248d	0.077706434
68	0xbc7920ee	-0.015205605
69	0xbd4a3651	-0.049368206
70	0xbde36440	-0.111031055
71	0xbd983dd2	-0.07433666
72	0xbcd88b38	-0.026433572
73	0xbc334b0b	-0.010943185
74	0xbd6c657c	-0.05771397
75	0x3d916c5c	0.07100746
76	0xbd805cd2	-0.06267704
77	0x3cc79f65	0.024367997
78	0x3bd186b3	0.006394231
79	0xbc9dd67f	-0.019267319
80	0xbc09a148	-0.008400269
81	0xbc36660c	-0.011132728
82	0xbd63df6b	-0.05563299
83	0x3d6b20f3	0.05740447

fc2.weight f4 [10, 84]
0	0x3eb5923a	0.35463125
1	0xbda097f4	-0.07841483
2	0x3e0d08bc	0.13772863
3	0xbe667a90	-0.22507691
4	0xbe29a664	-0.16567379
5	0x3cb5058e	0.022097375
6	0xbe4c14b2	-0.1992977
7	0x3d814373	0.06311693
8	0xbe096900	-0.1341896
9	0xbe40092e	-0.18753502
10	0x3e3eaabd	0.18619819
11	0xbd8463bb	-0.064643346
12	0xbe8f49f3	-0.27986106
13	0xbe1684be	-0.14699075
14	0xbe692ead	-0.22771712
15	0x3e85ad5a	0.2610882
16	0xbdbe089a	-0.09278984
17	0xbe157ba5	-0.14597948
18	0x3d11de70	0.035612524
19	0x3e96d005	0.2945558
20	0xbe4694ee	-0.1939275
21	0xbeae9e40	-0.3410511
22	0x3e2551be	0.16144463
23	0x3e59950d	0.21248265
24	0x3eaae613	0.33378658
25	0xbededbad	-0.43526974
26	0xbddd3eab	-0.108029686
27	0x3e8c6226	0.2741863
28	0x3ea3f4f3	0.3202282
29	0xbd5fd4d8	-0.054646343
30	0x3eb81a0c	0.35957372
31	0xbe49d4e6	-0.1971012
32	0x3e934df1	0.28770402
33	0x3e4c7ec0	0.19970226
34	0xbdaf14a3	-0.08548858
35	0x3e8b4ecd	0.27208558
36	0xbe4f8948	-0.20267212
37	0xbe74101d	-0.23834272
38	0xbe0c81e9	-0.13721432
39	0xbe82dd62	-0.25559527
40	0xbe6f1ffe	-0.23352048
41	0x3e2fd899	0.17172469
42	0x3de2ef50	0.110808015
43	0x3ebb7800	0.3661499
44	0xbe8da4b3	-0.27664718
45	0x3dde7309	0.10861785
46	0x3e46d1a5	0.1941591
47	0xbf0c4877	-0.5479807
48	0x3e413391	0.18867327
49	0xbe563d2c	-0.20921773
50	0xbe8df5f8	-0.27726722
51	0xbe70dac5	-0.23520954
52	0xbe92b8a0	-0.28656483
53	0x3d6baefc	0.057539925
54	0xbebc3a5f	-0.36763284
55	0x3e933847	0.28753874
56	0x3ec6175a	0.3868969
57	0xbeb4be4c	-0.35301435
58	0xbea07838	-0.3134172
59	0x3e164602	0.14675143
60	0xbe776223	-0.2415853
61	0xbe3731f5	-0.17890151
62	0xbe35f6a6	-0.1776987
63	0x3e85f6d0	0.26164865
64	0xbe0a9082	-0.13531688
65	0x3e843f69	0.25829628
66	0x3e048924	0.1294294
67	0xbe69a32f	-0.22816156
68	0x3e940474	0.28909647
69	0x3e64e359	0.22352351
70	0xbe1773bc	-0.14790243
71	0x3d446905	0.047951717
72	0x3ed1381e	0.40863127
73	0x3e6e2a51	0.2325833
74	0x3dc41189	0.09573657
75	0x3e70f26a	0.23529974
76	0xbea91df6	-0.3303067
77	0x3e4a2cdc	0.19743675
78	0xbe1efc7f	-0.15526007
79	0x3ec27f66	0.37987822
80	0x3e664234	0.22486192
81	0xbe143a0f	-0.14475273
82	0xbd91a687	-0.07111841
83	0xbdee0023	-0.1162112
84	0x3ce562c2	0.028001193
85	0xbe0c057e	-0.1367397
86	0xbe46e02a	-0.1942145
87	0x3e3bf801	0.18356325
88	0xbea16d78	-0.3152883
89	0xbebdfe73	-0.37108192
90	0x3e96cc48	0.2945273
91	0xbed006ba	-0.40630132
92	0xbe8c9a4d	-0.27461472
93	0x3e279674	0.16365987
94	0xbe4e82b6	-0.2016705
95	0xbe66199a	-0.22470704
96	0x3e04053f	0.12892626
97	0x3eb26d42	0.34848982
98	0xbe54d56e	-0.20784542
99	0xbd35f5ae	-0.04442375
100	0x3e41e2d7	0.18934189
101	0x3ea5d507	0.3238909
102	0xbe9ad77f	-0.30242535
103	0x3ec7e48b	0.39041552
104	0x3e88959b	0.2667664
105	0xbe853cad	-0.26022854
106	0xbeb3ee42	-0.35142714
107	0xbd0ca804	-0.03433992
108	0x3e918054	0.2841822
109	0xbeb0b5e3	-0.3451377
110	0x3d0bf47f	0.034168717
111	0xbe25f391	-0.16206194
112	0x3d0c846c	0.034305975
113	0xbe6fac53	-0.2340558
114	0xbe3a5bb9	-0.18199052
115	0x3ed08bd1	0.4073167
116	0xbe7d32cf	-0.24726413
117	0xbdc1b479	-0.094582506
118	0x3e859480	0.2608986
119	0xbddb1ec4	-0.106992275
120	0x3e8d4740	0.27593422
121	0x3ec53691	0.38518193
122	0x3e5ac8d2	0.2136567
123	0x3e8bc567	0.27299044
124	0x3e6016ab	0.21883647
125	0xbea5038a	-0.32229263
126	0xbe7f1722	-0.24911168
127	0xbe03accd	-0.12858887
128	0x3da27289	0.07932002
129	0xbdc6dd59	-0.097101875
130	0xbe65f513	-0.2245677
131	0xbe4e79c8	-0.20163643
132	0xbd035e8d	-0.032072593
133	0xbe73aa82	-0.23795512
134	0xbcc0baf0	-0.023526639
135	0x3dafc666	0.085827634
136	0x3e77c5f1	0.24196602
137	0x3eb6f4e1	0.35733703
138	0x3d17c54e	0.0370534
139	0xbe85f025	-0.26159778
140	0xbe5d1947	-0.21591674
141	0x3db1afd8	0.08676118
142	0xbd06321c	-0.03276263
143	0x3e8c7ab9	0.2743738
144	0x3e56c612	0.20973995
145	0x3ea656d6	0.32488126
146	0x3e8a214d	0.2697853
147	0xbe95c8ea	-0.29254848
148	0x3ec95ce6	0.39328688
149	0xbec123f8	-0.37722754
150	0xbec64c3b	-0.38730034
151	0x3e8118e8	0.25214314
152	0xbe41cc5a	-0.1892561
153	0xbe44067d	-0.191431
154	0x3e263418	0.1623081
155	0xbe9b81d3	-0.30372486
156	0xbd8256fd	-0.06364248
157	0xbc725507	-0.01479078
158	0xbe4e2d64	-0.20134503
159	0xbe80a604	-0.2512666
160	0xbe02fcbb	-0.12791722
161	0x3de68b34	0.1125702
162	0xbe66ece0	-0.22551298
163	0xbe1f55cc	-0.15560073
164	0xbe35e24c	-0.17762107
165	0xbe2d683d	-0.16934295
166	0xbdc1719f	-0.094455
167	0x3e33d19d	0.1756043
168	0x3eb7af62	0.35875994
169	0x3e1869be	0.14884087
170	0x3b97ca32	0.004632258
171	0x3e517767	0.20455705
172	0xbcfc4037	-0.030792339
173	0x3dead471	0.11466301
174	0xbeb84e5c	-0.35997283
175	0x3e6a3958	0.22873437
176	0xbe1669b8	-0.14688766
177	0x3e866d9f	0.2625551
178	0xbe3ee03d	-0.18640228
179	0x3e92d3f4	0.28677332
180	0x3e0a786e	0.13522503
181	0xbed72192	-0.420178
182	0xbe705a89	-0.23472036
183	0x3e28ac95	0.16472085
184	0xbe8b8edb	-0.27257428
185	0xbe84c0a9	-0.25928238
186	0xbe8a0dd7	-0.26963684
187	0x3ed0e784	0.40801632
188	0x3e6bbd6c	0.23021477
189	0x3ec19329	0.37807587
190	0x3e5d3645	0.21602733
191	0x3ed6850b	0.4189838
192	0x3dc7e265	0.09759978
193	0xbdcedee9	-0.101011105
194	0x3e6795c9	0.22615732
195	0xbe7a5aa1	-0.24448635
196	0xbe14e6f1	-0.14541222
197	0xbe2fdb6f	-0.17173551
198	0xbe7d2caa	-0.24724069
199	0xbe60ed9b	-0.2196564
200	0x3eb1a521	0.34696296
201	0xbe853f07	-0.2602465
202	0x3e3e8e4f	0.18608974
203	0x3d2ad209	0.04170421
204	0xbe8d7705	-0.27629867
205	0x3ea05c42	0.31320387
206	0x3e54c68f	0.20778869
207	0x3ca50132	0.020142172
208	0x3e8949f8	0.26814246
209	0x3d968934	0.07350388
210	0x3e814a60	0.25252056
211	0x3e7c8433	0.24659805
212	0x3d34580b	0.044029277
213	0x3de0b235	0.1097149
214	0x3e977f76	0.29589432
215	0x3e882023	0.26587018
216	0x3e65250c	0.22377414
217	0x3e192c35	0.1495827
218	0xbe7a6369	-0.24451984
219	0xbcd59bc4	-0.026075251
220	0x3bd3cbb4	0.0064634923
221	0xbe864ceb	-0.2623056
222	0x3e57f8c3	0.21090989
223	0x3f139c43	0.5766031
224	0x3e822879	0.25421503
225	0x3e733b9f	0.23753212
226	0x3ec5e8cc	0.38654172
227	0xbc326c01	-0.010890008
228	0x3e5bb8dc	0.21457237
229	0x3e2ef343	0.17084984
230	0x3e8f9a4d	0.2804741
231	0xbe6336bf	-0.22188853
232	0x3ec08158	0.3759868
233	0x3e1b9b4c	0.1519596
234	0x3e42678c	0.18984812
235	0x3e1c939d	0.15290685
236	0x3eeeca08	0.46638513
237	0xbdcd4070	-0.10022056
238	0xbe6e2b71	-0.23258759
239	0x3db8f1d0	0.09030497
240	0x3e418c03	0.18901066
241	0x3e18c67f	0.1491947
242	0xbe5e7eee	-0.21728107
243	0xbe8e7136	-0.27820748
244	0x3e93f509	0.28897884
245	0xbdc6fb7a	-0.09715934
246	0x3e9ad930	0.30243826
247	0x3e401f66	0.18761978
248	0xbbd69ac0	-0.0065492094
249	0x3ea69f36	0.32543343
250	0xbd58c511	-0.052922312
251	0xbed3a8dd	-0.4133977
252	0xba2a457f	-0.0006495341
253	0x3e8feebf	0.28111836
254	0x3db2feb5	0.08739988
255	0xbe89a1c5	-0.26881233

fc2.bias f4 [10]
0	0xbd34cfa7	-0.044143345
1	0x3d97f38e	0.07419501
2	0xbd48b564	-0.049001113
3	0xbe315b42	-0.17319968
4	0x3d5e3541	0.054250006
5	0x3dc95ce7	0.09832173
6	0xbde7d361	-0.11319614
7	0x3cb0d75e	0.02158707
8	0xbdb08011	-0.08618177
9	0x3d6c9fb8	0.057769507
