models/lenet5_mnist_1759.pth (torch, 250917 bytes, 10 tensors)

c1.weight f4 [6, 1, 5, 5]
0	0x3c51065c	0.012757864
1	0xbe156707	-0.14590083
2	0x3df3ba78	0.119008005
3	0xbe33799f	-0.17526864
4	0xbc4f8ec0	-0.012668312
5	0x3d0ff443	0.035145056
6	0x3de50c55	0.11183993
7	0x3db018bb	0.08598467
8	0x3df50043	0.119629405
9	0x3db248c2	0.08705284
10	0x3e1f12bd	0.15534492
11	0x3d86754e	0.06565343
12	0xbd3aec5e	-0.045635574
13	0x3e0ebfb5	0.13940318
14	0x3ac43889	0.0014970462
15	0x3e2a1b48	0.1661197
16	0x3e1717c5	0.14755161
17	0x3e607a9e	0.21921775
18	0x3e1775e8	0.14791071
19	0x3e72369c	0.23653644
20	0xbc15e017	-0.009147665
21	0x3d891d8f	0.06695091
22	0xbd52ef16	-0.05149754
23	0x3e08aa5e	0.1334624
24	0xbcf4bf78	-0.029876456
25	0x3e0b84cf	0.13624881
26	0xbb986279	-0.0046504107
27	0xbe49f121	-0.1972089
28	0x3e2505ad	0.16115446
29	0x3e5fa09f	0.21838616
30	0x3e33f53b	0.17574017
31	0xbe83b174	-0.25721323
32	0x3e0a2607	0.13491069
33	0xbd091311	-0.03346545
34	0xbd0790ab	-0.03309695
35	0xbdc74d57	-0.09731548
36	0xbe25ca51	-0.16190459
37	0xbe08335f	-0.13300847
38	0x3e4ca2c1	0.1998396
39	0x3d025775	0.031821687
40	0xbe9745f3	-0.29545555
41	0x3da7f172	0.08200349
42	0xbdf550b9	-0.11978287
43	0xbd6974e7	-0.056996252
44	0xbdf77685	-0.12083153
45	0xbe001d5c	-0.125112
46	0xbdc58988	-0.09645373
47	0x3e329eb4	0.17443353
48	0x3cb74eda	0.022376467
49	0x3e143d1d	0.14476438
50	0xbdd176aa	-0.102277115
51	0xbd265002	-0.040603645
52	0x3cf9b993	0.030483996
53	0x3d73f791	0.05956227
54	0x3cce2e16	0.02516846
55	0xbd45c0f6	-0.048279725
56	0xbd668a7a	-0.056284405
57	0x3d5cdd8a	0.053922214
58	0x3e246d1c	0.16057247
59	0x3cad9ed2	0.021193895
60	0xbddff6ea	-0.10935767
61	0x3e47e0f9	0.19519414
62	0x3e1fc1f5	0.15601332
63	0x3d8373e9	0.064185925
64	0x3e3d9b5c	0.18516296
65	0xbde03766	-0.109480664
66	0x3e0666ce	0.13125154
67	0x3dc5c9b3	0.09657612
68	0x3d9a176f	0.07524001
69	0xbe35fe3e	-0.17772767
70	0xbd02bef9	-0.031920407
71	0xbdbc839f	-0.09204792
72	0xbe8c09e4	-0.27351296
73	0xbe55becc	-0.20873564
74	0xbe5d91b6	-0.21637616
75	0xbe63233a	-0.22181407
76	0xbdf3bb9d	-0.11901019
77	0xbe0fa042	-0.14025977
78	0x3e56d469	0.20979466
79	0x3d8e6a13	0.06953826
80	0xbb8886eb	-0.004166474
81	0x3e1af83f	0.15133761
82	0x3d999ff5	0.075012125
83	0xbd9c8c3b	-0.07643934
84	0x3e804e84	0.25059903
85	0x3e586c73	0.2113512
86	0xbdcdbaec	-0.10045418
87	0x3e34dc19	0.17662086
88	0x3e99e370	0.30056334
89	0x3de07b54	0.10961023
90	0xbdb0a045	-0.08624319
91	0x3d119192	0.035539217
92	0x3d73bb42	0.059504755
93	0xbdb3436e	-0.087530956
94	0x3e36f198	0.17865598
95	0x3e041cdb	0.12901632
96	0xbcec9bfd	-0.028882975
97	0xbd578a14	-0.052621916
98	0xbbad6c73	-0.005292469
99	0xbe0ef835	-0.13961871
100	0x3e7f1a47	0.24912368
101	0x3c2f2922	0.010690959
102	0x3df1ab2c	0.118002266
103	0x3dd9290d	0.10603533
104	0x3e41e35c	0.18934387
105	0xbc571e09	-0.0131297195
106	0x3e23c622	0.1599355
107	0xbdb12215	-0.08649079
108	0xbde5b1b8	-0.11215538
109	0x3d969d84	0.073542625
110	0x3e5d152e	0.2159011
111	0xbcca0b66	-0.024663638
112	0xbdda9d66	-0.106745526
113	0x3e126179	0.14294995
114	0xbe0965a1	-0.13417675
115	0x3e1f7638	0.1557244
116	0xbe697727	-0.2279936
117	0xbe70e6dd	-0.23525567
118	0xbe7ba2e1	-0.24573852
119	0x3d8de696	0.069287464
120	0xbe22c316	-0.15894732
121	0xbe61bdae	-0.22045013
122	0xbc4a0cba	-0.012332136
123	0xbd8e0483	-0.06934454
124	0xbd309de1	-0.043119315
125	0xbdc111ce	-0.09427224
126	0xbe3eaca7	-0.18620549
127	0xbde091a1	-0.109652765
128	0x3d92b11c	0.07162687
129	0xbdac5039	-0.08413739
130	0xbe4f1a89	-0.20224966
131	0xbe387764	-0.18014294
132	0xbddf613d	-0.109072186
133	0xbe81a9ab	-0.2532476
134	0x3dbb3d7a	0.09142585
135	0xbe0ba791	-0.1363814
136	0xbe26c3de	-0.16285655
137	0xbe1ffc8b	-0.15623681
138	0xbe363590	-0.1779387
139	0x3dc972a5	0.0983632
140	0x3b11bd3e	0.0022238041
141	0x3c8e0a1e	0.017338809
142	0xbe0718c7	-0.13193046
143	0x3e19cf60	0.15020514
144	0xbd0eb2f0	-0.034838617
145	0x3e10a2ea	0.14124647
146	0x3e411efe	0.18859479
147	0x3dc997ab	0.098433815
148	0x3d9813b8	0.07425636
149	0x3e49d86d	0.19711466

c1.bias f4 [6]
0	0xbe37e35b	-0.17957823
1	0x3d8d3757	0.06895321
2	0xbd8e1f35	-0.06939546
3	0xbe6f5142	-0.23370841
4	0x3d2f7c75	0.0428433
5	0x3d8adfa9	0.06780941

c2.weight f4 [16, 6, 5, 5]
0	0xbdcb1747	-0.09916549
1	0xbce8244a	-0.028337616
2	0xbb983372	-0.0046448046
3	0x3d970aa7	0.07375079
4	0x3d31cfdb	0.043411117
5	0xbdcd7fc8	-0.10034138
6	0xbd5101d1	-0.051027123
7	0xbd730268	-0.059328467
8	0xbdd95b6d	-0.10613141
9	0xbdd7fb2b	-0.10545953
10	0x3c28c732	0.010301398
11	0x3d9c5d35	0.07634965
12	0x3c80d343	0.015725737
13	0xbc242efa	-0.010020966
14	0xbc93742f	-0.017999737
15	0x3bd9180f	0.0066251825
16	0x3dbd0909	0.09230239
17	0x3cca93a4	0.024728604
18	0xbb5507fc	-0.003250598
19	0xbd2b84a2	-0.041874535
20	0xbb6cd790	-0.0036139227
21	0x3c462e10	0.012095943
22	0xbda0fe8f	-0.07861053
23	0xbd75c8ff	-0.060006138
24	0xbcc231e2	-0.023705427
25	0x3dd358ac	0.10319647
26	0x3d93a74d	0.072096445
27	0xbd0fe016	-0.035125814
28	0xbde7b68c	-0.11314115
29	0xbd9cec23	-0.07662227
30	0x3c1987a7	0.009370721
31	0xbc41cdb5	-0.01182883
32	0x3c80933a	0.015695203
33	0xbd5a43f4	-0.05328746
34	0x3ce996a2	0.02851421
35	0x3cfbe277	0.030747635
36	0xbdffaaa4	-0.12483719
37	0xbd5be06a	-0.053680815
38	0xbdd2340b	-0.10263833
39	0xbd303f38	-0.04302904
40	0xbd982929	-0.07429726
41	0xbd9cf84c	-0.07664546
42	0xbda9b83d	-0.08287094
43	0xbdaa910b	-0.08328446
44	0x3b00802a	0.0019607642
45	0xbd6a8b50	-0.057261765
46	0xbda48ce9	-0.08034689
47	0xbdaa0a48	-0.08302742
48	0x3b8ac311	0.0042346795
49	0x3dc97a39	0.09837765
50	0x3d258980	0.040414333
51	0x3ddc34ca	0.10752256
52	0x3d727398	0.05919227
53	0x3d15d739	0.036582205
54	0xbd09d1a5	-0.0336472
55	0xbda26674	-0.07929698
56	0xbd97bf90	-0.074095845
57	0xbb90ec13	-0.0044226735
58	0xbb694abf	-0.003559753
59	0xbd1f8b73	-0.03895135
60	0xbdb51907	-0.08842664
61	0x3c56c77f	0.013109087
62	0x3c9842e7	0.018586589
63	0xbc2330e5	-0.009960388
64	0xbd01814d	-0.03161745
65	0x3d952ba5	0.07283715
66	0xbc8692a5	-0.016427347
67	0x3c5fcc62	0.0136595685
68	0xbdaa9eda	-0.0833108
69	0x3cb519d5	0.022107044
70	0xbd7837d3	-0.060600113
71	0xbd599498	-0.053120226
72	0x3c366ead	0.011134786
73	0xbdee4af9	-0.11635394
74	0xbda54fd1	-0.080718644
75	0x3cf5d536	0.030008893
76	0x3d930bae	0.07179962
77	0x3d1130f9	0.035447095
78	0xbc34d0c5	-0.011036103
79	0xbd9d90b8	-0.076936185
80	0xbc6fb038	-0.014629416
81	0xbdd26a1e	-0.102741465
82	0x3d5c6756	0.053809486
83	0xbdd2780d	-0.10276804
84	0xbda9213a	-0.082582906
85	0xbc03611a	-0.008018756
86	0x3da2bd00	0.07946205
87	0x3c728b3d	0.014803705
88	0xbd2be540	-0.041966677
89	0xbe08587d	-0.13315006
90	0x3d02d196	0.031938158
91	0xbc82ab9d	-0.015950972
92	0xbceee7cb	-0.029163262
93	0xbe08f0d9	-0.13373126
94	0x3bb35058	0.005472224
95	0x3d4dcc61	0.05024374
96	0xbd5504e5	-0.05200662
97	0xbdd5c7a8	-0.10438472
98	0xbdbb72f5	-0.09152786
99	0x3db6a944	0.089190036
100	0x3dd5a43a	0.10431714
101	0x3d1e1715	0.03859623
102	0x3c84366a	0.016139228
103	0xbc8e69d1	-0.017384442
104	0x3df90038	0.12158245
105	0x3ca9f3a5	0.020746062
106	0xbacc6802	-0.0015594962
107	0x3d942ca7	0.07235079
108	0x3d58acfe	0.052899353
109	0x3d82ce74	0.06387034
110	0xbd739e9e	-0.05947744
111	0xbe413fec	-0.1887204
112	0xbe282e54	-0.16423923
113	0xbd500135	-0.0507824
114	0xbcb01e51	-0.021498831
115	0xbdcc4567	-0.09974175
116	0x3d27ded9	0.04098401
117	0xba93225b	-0.0011225449
118	0x3d54ab2e	0.051921062
119	0xbd651d53	-0.05593617
120	0x3d3d16e8	0.046164423
121	0x3d90a259	0.07062215
122	0xba503900	-0.0007943064
123	0x3c563044	0.013073031
124	0xbd267266	-0.040636443
125	0x3d260c8f	0.04053932
126	0x3d0218fa	0.0317621
127	0xbdae4cb7	-0.08510726
128	0xbada5dad	-0.0016659998
129	0xbd1037e1	-0.03520954
130	0x3cd7540d	0.026285196
131	0x3df6c00f	0.12048351
132	0x3da372d7	0.07980888
133	0xbc40f84c	-0.011777949
134	0x3db57b43	0.08861401
135	0x3e0dd943	0.1385241
136	0x3dfee81a	0.124466136
137	0x3dca04a8	0.09864169
138	0x3d17d81e	0.03707134
139	0x3dfbac87	0.12288766
140	0xbdbfccde	-0.09365247
141	0xbd51d6c0	-0.051230192
142	0xbc4f4d4a	-0.0126527045
143	0xbc0cc839	-0.008592659
144	0x3ca43fe7	0.020050002
145	0xbdd6f870	-0.104966044
146	0xbc4d9cd4	-0.012549598
147	0xbdb207e7	-0.086929135
148	0x3bd6c9c5	0.0065548145
149	0x3d3de310	0.04635912
150	0xbd1bb3ee	-0.03801339
151	0xbc39a289	-0.011330255
152	0xbdb3906f	-0.08767783
153	0xbdbfd57f	-0.09366893
154	0x3d71851b	0.05896483
155	0xbd983218	-0.074314296
156	0xbbc37da6	-0.005965906
157	0xbdcff5e2	-0.1015432
158	0xbd078fb6	-0.033096038
159	0xbc158926	-0.009126937
160	0x3d4376a5	0.04772057
161	0xbd84840b	-0.06470498
162	0x3d000bc5	0.031261224
163	0xbca27adc	-0.019833975
164	0xbbbc218f	-0.005741305
165	0x3d317ecb	0.04333381
166	0x3d19c94e	0.037545495
167	0xbd16f22f	-0.036852058
168	0xbce14ea2	-0.027503315
169	0xbd06129e	-0.0327326
170	0x3d59e2f7	0.053194966
171	0x3ddfb2a6	0.10922746
172	0xbc899e2f	-0.01679906
173	0x3d904187	0.07043748
174	0x3c348ccd	0.011019898
175	0x3dab5ea5	0.083676614
176	0x3c5abd08	0.013350733
177	0x3bb2b3ff	0.005453586
178	0x3d912b52	0.07088341
179	0x3de0e492	0.10981096
180	0x3c7fb3c1	0.0156068215
181	0xbd37caa3	-0.044870984
182	0xbaa946d7	-0.0012914789
183	0x3d42dc56	0.04757341
184	0x3cb2265b	0.021746805
185	0x3a3374ee	0.0006845732
186	0xbd6c852a	-0.057744183
187	0xbd4feb2d	-0.05076139
188	0x3d1bdca1	0.038052205
189	0xbdb9234a	-0.09039934
190	0xbca66092	-0.02030972
191	0xbdf30288	-0.11865717
192	0xbd567b84	-0.052363887
193	0x3b9aa6b0	0.0047195777
194	0x3bad98cd	0.0052977563
195	0xbddef603	-0.10886767
196	0xbd2e4ae9	-0.04255191
197	0x3c86e185	0.016464958
198	0xbdce88b8	-0.10084671
199	0xbd8cd63b	-0.06876799
200	0xbb36d864	-0.0027899975
201	0xbcb96a22	-0.022633616
202	0x3d24f707	0.040274646
203	0xbd1992ef	-0.037493642
204	0xbe19b557	-0.15010582
205	0xbd851534	-0.06498185
206	0x3dacee14	0.08443847
207	0xbdd153a2	-0.1022103
208	0xbd0d69ee	-0.03452485
209	0x3d3169a6	0.043313645
210	0xbccf9c63	-0.025343126
211	0xbe146342	-0.14490989
212	0xba23d44f	-0.0006249593
213	0x3dfe75a8	0.12424785
214	0x3cd525a6	0.026018929
215	0xbdc26480	-0.09491825
216	0x3c00c622	0.007859739
217	0x3de71f52	0.11285271
218	0x3cde3f2b	0.02712973
219	0xbd8e6080	-0.06952
220	0x3dc97ae9	0.098378964
221	0x3da1de00	0.07903671
222	0x3d4b5d03	0.04964925
223	0xbbb92d66	-0.005651164
224	0xbd064446	-0.032779954
225	0xbd5c559f	-0.053792592
226	0x3d998fb3	0.074981116
227	0xbd84afd3	-0.06478848
228	0xbd819322	-0.063268915
229	0xbc60b3ad	-0.013714713
230	0xbd90a7e4	-0.070632726
231	0xbd8d0883	-0.06886389
232	0xbe116ceb	-0.14201705
233	0xbd485578	-0.048909634
234	0x3dfb3767	0.122664265
235	0xbdcc1bae	-0.09966217
236	0xbc228fb4	-0.009921957
237	0xbd7a115c	-0.06105171
238	0x3dbdadf5	0.09261695
239	0x3de84a49	0.11342294
240	0x3d485557	0.04890951
241	0x3dfc5155	0.123202
242	0x3dde0f82	0.10842802
243	0x3cfe0cfe	0.031012055
244	0x3d52b55f	0.0514425
245	0xbb992406	-0.004673484
246	0x3dd779ea	0.105213
247	0x3dced659	0.10099477
248	0xbcf525e5	-0.029925296
249	0x3d2bfc49	0.041988645
250	0x3cd39980	0.02583003
251	0xbba93a5e	-0.0051644286
252	0xbd1adee7	-0.037810232
253	0x3cc70ff8	0.024299607
254	0x3bfdc24e	0.00774411
255	0xbdb12fdf	-0.08651709

c2.bias f4 [16]
0	0xbbbb8e16	-0.005723725
1	0xbdc7e2fd	-0.097600915
2	0xbe0b7297	-0.13617931
3	0xbd8d5246	-0.06900458
4	0xbdb05d22	-0.08611514
5	0xbd12c219	-0.035829637
6	0xbd81130c	-0.06302461
7	0xbdbbd3e0	-0.09171271
8	0xbc879c91	-0.016554149
9	0xbd578492	-0.052616663
10	0xbdace776	-0.08442585
11	0xbe19a0b4	-0.1500271
12	0x3c0148e5	0.007890915
13	0xbd231c9c	-0.039822206
14	0xbd8ad218	-0.067783535
15	0xbe05fa0a	-0.13083664

c3.weight f4 [120, 16, 5, 5]
0	0xbc4427de	-0.011972396
1	0x3d8fa846	0.070145175
2	0x3c0c83b8	0.008576326
3	0xbd2b1445	-0.041767377
4	0xbb86c163	-0.004112409
5	0x3c8d4d3a	0.017248739
6	0x3dabce3c	0.083889455
7	0x3e22f0b3	0.15912132
8	0x3d7fa034	0.06240864
9	0xbc5ac388	-0.013352282
10	0x3bf876d1	0.0075825234
11	0xbd50c084	-0.050964847
12	0x3abea1c8	0.0014544064
13	0xbc9bf5e1	-0.019038143
14	0xbd315674	-0.04329534
15	0x3ac19a6e	0.0014770755
16	0xbd79b52c	-0.060963795
17	0xbca4c91b	-0.020115426
18	0x3c26c57d	0.010178921
19	0xbcd7aeae	-0.026328411
20	0x3d0c06de	0.034186237
21	0xbd0d464f	-0.03449088
22	0xbd527b77	-0.051387277
23	0xbd9a3255	-0.07529131
24	0xbd5d0e62	-0.053968795
25	0x3d3de0fa	0.046357132
26	0x3cbbec56	0.022939842
27	0xbd882227	-0.06647139
28	0xbd8b5ef4	-0.0680522
29	0x3c813027	0.015770031
30	0xbd02c772	-0.031928487
31	0x3c8f4343	0.017488128
32	0x3de56a97	0.11201971
33	0x3aefd5e0	0.0018297993
34	0x3d25b2bb	0.040453654
35	0x3c0a0923	0.00842503
36	0x3cd479bf	0.02593696
37	0xbc2b31db	-0.010448898
38	0xbcb32162	-0.021866504
39	0xbcbc552d	-0.022989834
40	0xbd23cc3c	-0.039989695
41	0xbd9f6e6d	-0.07784734
42	0xbde6b67c	-0.11265275
43	0x3d746062	0.05966223
44	0xbd197d6f	-0.03747314
45	0x3cbe7b50	0.02325216
46	0xbdbae1c7	-0.09125095
47	0xbc654687	-0.013993866
48	0xbd8d5d8a	-0.06902607
49	0xbd4214cd	-0.04738312
50	0xbd4520f3	-0.048127126
51	0xbd003077	-0.03129622
52	0xbcc20a72	-0.023686621
53	0xbcc2af56	-0.023765247
54	0x3d6b5a57	0.0574592
55	0xbd836b6e	-0.06416975
56	0xbe03ef54	-0.12884265
57	0xbd5c9d30	-0.053860843
58	0xbe0704ac	-0.13185376
59	0xbda7aae1	-0.081868894
60	0xbca52d1e	-0.020163115
61	0x3d9be648	0.07612282
62	0x3d4758ce	0.048668675
63	0x3cab27d3	0.020893013
64	0x3cd63325	0.026147434
65	0xbcdef8d1	-0.027218254
66	0x3cac870e	0.021060493
67	0x3d00fba7	0.031489994
68	0x3d1a33a3	0.0376469
69	0x3aa0070f	0.0012209135
70	0xbca6090f	-0.020267991
71	0x3d2e8c64	0.042614356
72	0xbb48b6a6	-0.0030626445
73	0xbc9c6ead	-0.019095743
74	0x3d599f64	0.053130522
75	0xbd508c48	-0.050915033
76	0x3bbb0663	0.0057075485
77	0xbdbd919e	-0.0925629
78	0x3cd51336	0.026010137
79	0x3d211004	0.039321914
80	0x3d1a36a9	0.037649784
81	0xbcd0f4a6	-0.025507282
82	0xbc814078	-0.015777811
83	0xbb2f7b95	-0.0026776541
84	0x3da26166	0.079287335
85	0xbd4313bb	-0.04762624
86	0x3cc01693	0.023448264
87	0x3ce4b1bc	0.027916782
88	0xbdb13578	-0.086527765
89	0xbc5e8851	-0.013582305
90	0xbd301543	-0.042989027
91	0x3c94ff90	0.018188268
92	0x3b990fd0	0.0046710745
93	0xbd2b8355	-0.041873295
94	0x3da1acb3	0.07894268
95	0x3bfe9858	0.0077696256
96	0xbc1ad367	-0.009449816
97	0x3bf0c893	0.007348129
98	0xbc674746	-0.014116114
99	0xbccbde9a	-0.024886418
100	0x3bcb277c	0.0061997753
101	0x397bfcb3	0.00024031363
102	0xbccae386	-0.024766695
103	0x3da8b2d6	0.08237235
104	0x3d27cece	0.04096871
105	0xbaf7f80a	-0.0018918526
106	0xbd255498	-0.040363878
107	0x3c3d4c87	0.01155389
108	0x3d8835d4	0.06650892
109	0x3d55b85e	0.05217778
110	0xbda5da4a	-0.08098276
111	0xbdc069ba	-0.09395166
112	0xbc8dca5e	-0.01730841
113	0xbcbfe3f6	-0.02342413
114	0xbd84278a	-0.06452854
115	0x3b73c606	0.0037196889
116	0xbcdc9a36	-0.026929002
117	0xbc381b04	-0.01123691
118	0x3cbf2f01	0.023337843
119	0xbd259b05	-0.04043104
120	0x3cdcdb48	0.02696003
121	0xbd720868	-0.059090048
122	0x3d1bc5c7	0.038030412
123	0x3d4dd0f8	0.050248116
124	0x3cc464d1	0.023973854
125	0xbd0b0724	-0.033942357
126	0xbcbe2684	-0.023211725
127	0xbd939ee8	-0.07208043
128	0xbd84be56	-0.06481616
129	0xbd5e7580	-0.054311275
130	0x3d44a8f1	0.048012678
131	0x3cbfd5b1	0.023417326
132	0x3d09c761	0.03363741
133	0xbd1636a3	-0.0366732
134	0x3d09e4b8	0.03366539
135	0x3e0ba1c5	0.13635929
136	0xbc718cad	-0.014743012
137	0x3d8a89d3	0.06764569
138	0x3c384713	0.011247414
139	0xba208456	-0.0006123235
140	0xbbbf5708	-0.0058392324
141	0xbd3afc10	-0.04565054
142	0xbd9dd5a4	-0.07706764
143	0xbdc2dc47	-0.09514671
144	0xbda22e2b	-0.07918962
145	0xbde7a8c8	-0.11311489
146	0xbcdfcadb	-0.027318409
147	0xbd7431f6	-0.05961796
148	0xbc83035f	-0.015992818
149	0xba57e523	-0.0008235743
150	0xbd709afb	-0.05874155
151	0xbc09e1bd	-0.008415637
152	0xbcbb4e1b	-0.022864392
153	0xbc0280ae	-0.00796525
154	0xbcbf42ea	-0.023347337
155	0xbd283bff	-0.04107284
156	0xbcc69d23	-0.02424485
157	0x3c0825ca	0.008309791
158	0x3cc397e3	0.023876136
159	0xbd06c3b4	-0.03290148
160	0xbcd4123c	-0.025887601
161	0x3d5ee260	0.054415107
162	0xbc2d0af4	-0.010561693
163	0xbb83efb6	-0.0040263785
164	0xbc019678	-0.00790941
165	0xbdb99a2f	-0.09062611
166	0xbd55e0ea	-0.052216448
167	0xbbe24d59	-0.006906193
168	0xba4e4c4f	-0.0007869647
169	0x3d4d23a9	0.050082836
170	0x3b2a7f67	0.002601588
171	0x3b8ac897	0.004235338
172	0x3cc80b5e	0.024419483
173	0x3aba6004	0.0014219289
174	0x3cc30d1b	0.02380996
175	0x3cf1bf1f	0.029510079
176	0xbdd2fff6	-0.10302727
177	0xbe31d05c	-0.17364639
178	0xbe3cb88d	-0.18429776
179	0xbd819921	-0.06328035
180	0xbd91cde8	-0.071193516
181	0xbcbb97ba	-0.022899497
182	0x3b12f3f0	0.002242323
183	0xbd9d322a	-0.07675584
184	0xbd32a948	-0.04361847
185	0x3d91348e	0.07090102
186	0xbc87ce9a	-0.016578007
187	0xbae11096	-0.0017171081
188	0x3d6cca00	0.05780983
189	0x3c87c3e4	0.0165729
190	0x3c692a53	0.014231282
191	0x3bc16085	0.0059013986
192	0x3c81b18f	0.015831737
193	0x3cd262aa	0.025681812
194	0x3d72bb11	0.05926043
195	0xbd44236d	-0.047885347
196	0x3d4ad8ed	0.049523283
197	0xbc57d1f6	-0.013172617
198	0x3beb744b	0.007185494
199	0xbc048bd7	-0.008089981
200	0xbd506dc3	-0.050885927
201	0x3db1bf7c	0.08679101
202	0x3d962902	0.0733204
203	0x3df5c3f8	0.12000269
204	0x3ca8a055	0.020584265
205	0xbd307472	-0.0430798
206	0x3c1509b6	0.009096554
207	0xbd9e12aa	-0.07718404
208	0xbcf4368c	-0.029811166
209	0x3b10e40c	0.0022108583
210	0x3d7edbf9	0.0622215
211	0x3bc0df82	0.005886019
212	0x3d04ed07	0.03245261
213	0x3c16ab16	0.0091960635
214	0xbd1b3519	-0.037892435
215	0x3c962ff7	0.018333418
216	0xbcc9e7c3	-0.024646645
217	0x3c36557f	0.011128782
218	0xbb66d96f	-0.0035224815
219	0x3d0136bf	0.03154635
220	0x3d67be59	0.056578014
221	0x3d0c9b48	0.034327775
222	0xbcf9cbca	-0.030492682
223	0x3d76695a	0.060159065
224	0xbb14159d	-0.002259589
225	0xbd80d0eb	-0.06289848
226	0xbd2795f0	-0.040914476
227	0x3d023a3d	0.03179382
228	0x3cd6f7c4	0.02624119
229	0xbcdcf190	-0.026970655
230	0x3d2bea72	0.04197163
231	0x3d582b30	0.05277556
232	0x3d144a87	0.036203887
233	0x3d21b5bd	0.03947996
234	0x3d28432f	0.041079696
235	0xbc40e089	-0.011772283
236	0x3ca197fd	0.019725794
237	0x3c4bd7c8	0.012441583
238	0x3cf85153	0.030312216
239	0x3b5369d7	0.003225913
240	0xbdc68a64	-0.09694365
241	0xbdaef318	-0.0854246
242	0xbdd0966a	-0.10184939
243	0xbd906c15	-0.07051865
244	0xbc36423d	-0.011124191
245	0x3a1c1bf8	0.00059550954
246	0xbcb1534d	-0.021646166
247	0xbd3f3f83	-0.04669143
248	0xbd529a52	-0.051416703
249	0xbd9c44c2	-0.07630302
250	0xbd362bd2	-0.044475384
251	0xbd6271b0	-0.055284202
252	0xbd9d409a	-0.076783374
253	0xbd4b90be	-0.049698584
254	0x3d0d729d	0.034533132
255	0x3cccf6b9	0.02501999

c3.bias f4 [120]
0	0xbcfce951	-0.030872973
1	0xbc2681e3	-0.010162803
2	0x3ab0b6c0	0.0013482198
3	0x3d31ce78	0.043409795
4	0x3c9082a3	0.017640417
5	0x3c3d2644	0.011544768
6	0xbd388c52	-0.045055695
7	0x3d2dfc48	0.042476922
8	0x39f13c4c	0.00046012027
9	0x3d0f9125	0.03505053
10	0xbd8c9dca	-0.068660334
11	0xbc245d04	-0.010031942
12	0x3cc01564	0.0234477
13	0xbc167c2f	-0.009184881
14	0x3ca1330d	0.019677663
15	0xbc542d9f	-0.01295033
16	0xbc918c9f	-0.017767249
17	0xbd361916	-0.044457518
18	0x3d10134c	0.035174653
19	0xbb87c63d	-0.004143505
20	0xbd717bc1	-0.05895591
21	0xbc4f5f21	-0.012656958
22	0x3d230df6	0.039808236
23	0x3c36e38e	0.011162652
24	0xbcaf01bd	-0.021363134
25	0x3d0d4e3f	0.03449845
26	0x3c8b8f7d	0.017036194
27	0xbb5b6081	-0.003347427
28	0xbb338466	-0.0027392148
29	0x3cbe47e6	0.023227643
30	0x3ccb995c	0.0248534
31	0xbcee0567	-0.02905531
32	0x3d1b1396	0.037860475
33	0x3cd66c0a	0.026174564
34	0x39b67d60	0.00034807157
35	0x3d108798	0.035285562
36	0x3d34f574	0.044179395
37	0x3ce7f0d3	0.028313076
38	0xbc763360	-0.015026897
39	0xbd777fe7	-0.06042471
40	0xbac97cb1	-0.0015372244
41	0xbc5a0d0e	-0.013308777
42	0xbb848ad0	-0.004044868
43	0xbb29dc44	-0.0025918642
44	0x3d0af0b5	0.033920962
45	0xbca00b6c	-0.019536696
46	0x3c75976a	0.014989713
47	0x3bf0f5cb	0.0073535196
48	0xbc2668f3	-0.010156858
49	0x3d754988	0.059884578
50	0xbcd859a3	-0.02640993
51	0xbd1e9a46	-0.038721345
52	0xbc51cb6d	-0.012804848
53	0xbbf7d470	-0.0075631663
54	0x3d09981e	0.033592336
55	0xbd451159	-0.048112247
56	0x3d39e5e3	0.045385253
57	0xbbb01b3f	-0.0053743417
58	0x3ce673ff	0.028131483
59	0xbd3470f0	-0.044053018
60	0xbd087bfe	-0.033321373
61	0xbcd0f08f	-0.025505332
62	0x3c9da242	0.01924241
63	0x3d014524	0.03156008
64	0x3c9f49c2	0.01944435
65	0x3bcafb04	0.006194474
66	0xbcc57f21	-0.024108471
67	0x3c9a4fbe	0.018836852
68	0x3d5223a4	0.05130352
69	0xbd44a182	-0.04800559
70	0xbd10fd13	-0.0353976
71	0xbc85ea98	-0.016347215
72	0x3d894d28	0.067041695
73	0xbd61d3e8	-0.05513373
74	0xbc2918b0	-0.010320827
75	0xbcd4163d	-0.02588951
76	0x3d1a79f7	0.03771397
77	0xbb118057	-0.002220174
78	0xba612a83	-0.00085894036
79	0xbd3bef8d	-0.04588275
80	0x3d3c3357	0.0459474
81	0x3d60518a	0.05476526
82	0xba543e18	-0.0008096411
83	0x3d371835	0.04470082
84	0x3cc16487	0.023607505
85	0xbbeb3c67	-0.0071788314
86	0xbd09315f	-0.03349435
87	0xbd161be6	-0.0366477
88	0x3c5bdfd8	0.013420068
89	0xbd265638	-0.04060957
90	0xb98fccdc	-0.00027427718
91	0x3d07954b	0.03310136
92	0x3ba2759e	0.0049578687
93	0x3cb09be2	0.021558706
94	0xbd80e6af	-0.062939994
95	0x3c906b6e	0.017629351
96	0xbd49f59b	-0.049306493
97	0xbc130ce3	-0.00897524
98	0x3d1cbcf1	0.038266126
99	0xbd85c8a5	-0.065324105
100	0x3d540f93	0.051772665
101	0xbcd14353	-0.025544798
102	0x3cabaa6f	0.020955293
103	0xbd4d129a	-0.050066568
104	0xbc430d14	-0.011904974
105	0xbd0fc707	-0.035101917
106	0x3b90e4dd	0.004421814
107	0xbd16c3d4	-0.03680785
108	0xbce1ccb1	-0.027563425
109	0x3d02cfde	0.03193652
110	0xbd32f755	-0.043692905
111	0xbd7d2709	-0.061804805
112	0xbd6d02b6	-0.057863913
113	0xbc97f04c	-0.0185472
114	0xbd33fcc6	-0.043942235
115	0xbc276810	-0.0102176815
116	0x3d05dfd4	0.032684162
117	0x3d16588f	0.03670555
118	0xbb83107c	-0.003999768
119	0x3bfad5c6	0.0076548783

fc1.weight f4 [84, 120]
0	0x3da04d8f	0.07827293
1	0xbd4229b9	-0.04740307
2	0xbd477b91	-0.048701826
3	0x3e0203da	0.12696782
4	0x3e10016b	0.14063041
5	0x3e120ae0	0.14261961
6	0x3d2f52fd	0.042803753
7	0xbe172f19	-0.1476406
8	0xbda9c13d	-0.082888104
9	0x3dfcae12	0.12337889
10	0xbdfb38e6	-0.12266712
11	0x3be0c37c	0.006859241
12	0xbde88641	-0.11353732
13	0xbd710d9b	-0.058850866
14	0xbe2dbea3	-0.16967253
15	0x3cd07ade	0.025449213
16	0xbdadf0d9	-0.08493204
17	0xbcc3550f	-0.02384427
18	0xbe2e975f	-0.17049931
19	0xbdd8c806	-0.105850264
20	0xbc828978	-0.01593469
21	0xbc98c2b7	-0.018647535
22	0x3e07c6ab	0.1325938
23	0xbbafef87	-0.00536913
24	0x3dd28d7c	0.10280892
25	0x3b529504	0.0032132277
26	0x3d102735	0.03519364
27	0x3d4caa74	0.049967244
28	0x3cbc2c07	0.022970213
29	0xbe0c4da6	-0.13701496
30	0xbe20fb6a	-0.15720907
31	0x3dd3787f	0.10325717
32	0xbca59cbf	-0.020216344
33	0xbcb9e654	-0.022692837
34	0x3e0adbbe	0.13560387
35	0xbe0b0501	-0.13576128
36	0xbe05fe19	-0.13085212
37	0xbc471e73	-0.012153256
38	0xbdd1eaa8	-0.10249835
39	0x3d9c2d07	0.07625776
40	0x3e19c813	0.15017729
41	0xbd9dcad4	-0.07704702
42	0x3ced6e4e	0.028983261
43	0xbd368dd9	-0.04456887
44	0xbdd8bfdf	-0.105834715
45	0x3d311b86	0.04323914
46	0x3e141506	0.14461145
47	0x3d863464	0.065529615
48	0x3e0f4c68	0.1399399
49	0x3d3f7cc0	0.04674983
50	0xbd76e4ce	-0.0602768
51	0xbd3f19c9	-0.04665545
52	0x3d9a460f	0.07532894
53	0xbd81d1c1	-0.063388355
54	0x3e1f10d0	0.15533757
55	0x3c9b21d4	0.018937029
56	0xbda6113b	-0.08108755
57	0xbe6aba88	-0.22922719
58	0xbd91203e	-0.07086228
59	0x3dd8a1e6	0.10577755
60	0xbb90ceef	-0.0044191997
61	0x3cf335be	0.029688712
62	0xbdf18191	-0.11792291
63	0xbe6e46ee	-0.23269245
64	0x3dfdec36	0.12398569
65	0x3d06905b	0.03285251
66	0xbd8bb482	-0.068215385
67	0x3e26cfb6	0.16290173
68	0x3e16a424	0.14711052
69	0x3de475e3	0.111552976
70	0x3c856f15	0.01628832
71	0x3dcad936	0.09904711
72	0xbdc8adf3	-0.09798803
73	0xbda30e47	-0.079617076
74	0xbcfbc645	-0.03073419
75	0xbca436f9	-0.020045744
76	0xbd43b19a	-0.047776796
77	0x3bb4f42e	0.0055222725
78	0x3ca7742d	0.02044114
79	0xbdede06d	-0.116150714
80	0xbc8d5ea2	-0.017257039
81	0x3e0a6d0d	0.13518162
82	0xbdb385ae	-0.08765732
83	0x3d9ec5d1	0.07752574
84	0xbd7f5c19	-0.06234369
85	0xbdd22995	-0.102618374
86	0xbdc0fb15	-0.0942289
87	0x3de971c6	0.11398654
88	0xbe1ae2c6	-0.1512557
89	0x3be50bc9	0.0069899303
90	0xbd0c435c	-0.034243926
91	0x3e39c640	0.18142033
92	0x3d496919	0.049172495
93	0x3e5e4179	0.21704663
94	0xbdb587d9	-0.088638015
95	0xbda407d9	-0.08009309
96	0xbae7aa16	-0.0017674591
97	0xbd2a371e	-0.04155647
98	0xbde300dc	-0.11084148
99	0x39db9ed1	0.00041889263
100	0xbb32bfd8	-0.0027274992
101	0x3dea8490	0.114510655
102	0xbe142c39	-0.14469995
103	0x3dca8f6c	0.09890637
104	0x3d15429a	0.03644047
105	0x3d883cba	0.06652208
106	0x3c004859	0.007829749
107	0x3d5fc24e	0.054628663
108	0x3cc71a8d	0.024304653
109	0x3d333d3c	0.04375957
110	0x3c7063f4	0.014672268
111	0xbd1533ab	-0.036426228
112	0xbd666c71	-0.05625576
113	0xbc68b470	-0.014203176
114	0x3bb612ad	0.0055564255
115	0xbd9ca65a	-0.076489165
116	0xbe154454	-0.14576846
117	0xbe0e5fee	-0.13903782
118	0xbd74c468	-0.05975762
119	0xbdabca3a	-0.08388181
120	0xbd022ac1	-0.031779055
121	0x3dde8043	0.10864308
122	0xbd6c1e8f	-0.05764633
123	0x3cc76c18	0.024343535
124	0x3df30626	0.11866407
125	0x3d5b675b	0.053565364
126	0xbdb161b5	-0.08661214
127	0xbe14f3aa	-0.14546075
128	0xbc03f268	-0.0080534
129	0xbd441a06	-0.04787638
130	0x3d894778	0.06703085
131	0xbc0c659e	-0.008569149
132	0x3dd98891	0.10621751
133	0x3e896754	0.26836646
134	0xbd3b1c3c	-0.045681223
135	0xbaffab5d	-0.0019506026
136	0xbc6cccab	-0.0144530935
137	0x3e03314d	0.12811776
138	0xbc551333	-0.013005066
139	0xbcb1357f	-0.021631954
140	0xbd60afaf	-0.054855045
141	0xbda124d4	-0.078683525
142	0x3c6ac1de	0.014328448
143	0xbd169741	-0.03676534
144	0x3e3c155d	0.18367524
145	0xbe3a14b0	-0.18171954
146	0xbdf02d5a	-0.117274
147	0xbca44651	-0.02005306
148	0xbccc74d3	-0.02495805
149	0x3d696fc3	0.05699135
150	0x3d580704	0.052741066
151	0x3c399553	0.011327106
152	0x3c93ddac	0.018050037
153	0x3d1dccaf	0.03852528
154	0xbd598503	-0.053105365
155	0x3bfe2305	0.0077556395
156	0x3ddf2098	0.10894889
157	0xbcc29f23	-0.023757523
158	0x3cb9acbb	0.022665372
159	0x3d1b021b	0.037843805
160	0x3c714d03	0.014727834
161	0x3d7b1d2b	0.061307114
162	0xbde9f0e7	-0.114229016
163	0xbe1670c4	-0.14691454
164	0xbd26c1da	-0.040712215
165	0xbdd38639	-0.10328335
166	0x3bf44595	0.007454584
167	0x3cb10eb2	0.021613453
168	0xbd57df65	-0.05270328
169	0xbd821f3d	-0.063536145
170	0xbc69f05b	-0.014278497
171	0x3dc0e82f	0.094192855
172	0x3c0e6799	0.008691692
173	0x3d36520a	0.044511832
174	0xbdb0353b	-0.08603903
175	0xbdc539cb	-0.09630164
176	0xbe2b54ac	-0.16731519
177	0x3d4b62bd	0.04965471
178	0x3e0d3e63	0.1379333
179	0xbd41bcde	-0.04729926
180	0x3d6e3f48	0.05816582
181	0xbd6dc3c0	-0.05804801
182	0xbd723e7d	-0.059141625
183	0xbd3f3d6d	-0.04668944
184	0xbdb56e9e	-0.08858989
185	0xbccdc36e	-0.025117602
186	0x3e43ff19	0.19140281
187	0x3d7c7204	0.06163217
188	0x3c93fdbe	0.01806533
189	0xbe27ace5	-0.16374548
190	0x3da19d60	0.07891345
191	0xbe0e8dfe	-0.13921353
192	0xbda6021e	-0.081058726
193	0xbd2a0876	-0.041511975
194	0xbd98f47e	-0.07468508
195	0x3dd5f8b6	0.104478285
196	0x3d5dde7b	0.054167252
197	0x3b140ab7	0.0022589394
198	0x3da8017e	0.082034096
199	0xbd75c4dd	-0.060002197
200	0xbdccffb7	-0.10009711
201	0xbd04eba3	-0.032451283
202	0xbda8736a	-0.082251385
203	0x3daa63d0	0.08319819
204	0xbd432652	-0.047643967
205	0x3d9e1185	0.07718185
206	0x3e0aacfc	0.13542551
207	0xbd85b116	-0.06527917
208	0xbcce2d44	-0.025168069
209	0xbdab2824	-0.083572656
210	0x3d943e5c	0.072384566
211	0xbd02d403	-0.03194047
212	0x3db72d7c	0.08944222
213	0x3dc7c688	0.09754664
214	0x3dff4db5	0.12465993
215	0x3c6f5939	0.014608675
216	0x3d683c03	0.056697857
217	0xbdd5e1c5	-0.10443453
218	0xbd77eae8	-0.06052676
219	0x3e0b47de	0.13601634
220	0xbdc6e022	-0.09710719
221	0x3e40384e	0.18771479
222	0xbd15f2b9	-0.03660843
223	0x3dbdbf0c	0.09264955
224	0xbdee1afa	-0.11626239
225	0x3da75450	0.08170378
226	0x3d8d2bd9	0.06893129
227	0x3e267911	0.1625712
228	0xbe118c19	-0.142136
229	0xb9cedaad	-0.00039454308
230	0xbd362c9a	-0.04447613
231	0xbdbe22b3	-0.09283962
232	0xbd9c8c74	-0.07643977
233	0xbdb8ad00	-0.09017372
234	0x3e301d7d	0.17198749
235	0x3da0a5af	0.07844102
236	0x3bfda08f	0.0077400873
237	0xbcd1b176	-0.025597315
238	0xbc926377	-0.017869694
239	0xbdce0fd5	-0.100616135
240	0xbc16d274	-0.009205449
241	0x3d328421	0.04358304
242	0xbdb0bdd5	-0.086299576
243	0xbe08511e	-0.13312194
244	0x3ce0789a	0.027401257
245	0x3e447938	0.19186866
246	0xbd6cfd6d	-0.057858873
247	0xbd85e037	-0.06536906
248	0xbc0b3ee2	-0.008498879
249	0x3e87d56d	0.26530018
250	0xbe1af967	-0.15134202
251	0xbe067844	-0.13131815
252	0x3ca0f746	0.01964916
253	0xbdc000bf	-0.09375142
254	0x3d8124d5	0.06305853
255	0xbe004d85	-0.12529571

fc1.bias f4 [84]
0	0x3d011380	0.031512737
1	0xbc208cc0	-0.009799182
2	0xbdabb826	-0.08384733
3	0xbd2d2045	-0.042267103
4	0xbc926586	-0.017870676
5	0xbd8b8fbc	-0.068145245
6	0x3d81cf99	0.06338424
7	0x3dbafc89	0.091301985
8	0x3cc28bee	0.023748364
9	0xbcbf331e	-0.023339804
10	0xbdfe00a4	-0.12402466
11	0x3da5659c	0.08076021
12	0x3d96d33e	0.0736451
13	0xbd6f6965	-0.05845012
14	0xbd0c6eba	-0.034285285
15	0x3ce2e09a	0.027694989
16	0x3daaa022	0.08331324
17	0xbbc823c8	-0.006107781
18	0x3dd44618	0.10364932
19	0x3bc525b2	0.0060164565
20	0x3c274676	0.01020967
21	0xbb842eac	-0.004033884
22	0xbdb1d00c	-0.0868226
23	0x3c675005	0.014118199
24	0x3c6356ce	0.013875676
25	0xbc25a0ab	-0.010109107
26	0xbd8c2f64	-0.068449765
27	0x3b282a42	0.0025659953
28	0x3c608f4e	0.0137060415
29	0xbdaffcce	-0.085931405
30	0x3afd8956	0.0019343297
31	0xbdc455e1	-0.095866926
32	0xbc45ca3e	-0.012072144
33	0xbd5620d3	-0.052277397
34	0x3d0254c5	0.031819124
35	0xbdb87c12	-0.090080395
36	0xbd1f2e8b	-0.038862746
37	0xbd3c1795	-0.045920927
38	0x3d915884	0.07096961
39	0xbd265bf6	-0.040615045
40	0xbc5e746a	-0.01357756
41	0xbdb55f83	-0.08856108
42	0x3ca739ee	0.020413365
43	0x3d2fc527	0.04291263
44	0xbd01cf10	-0.03169161
45	0xbd150f6f	-0.03639167
46	0xbd15898c	-0.036508128
47	0x3d80460c	0.062633604
48	0x3d66f96b	0.056390207
49	0x3c9bd28e	0.019021299
50	0x3d8a4dc9	0.067531176
51	0xbcd39771	-0.025829049
52	0xbd48e11b	-0.049042802
53	0xbcad0997	-0.021122737
54	0xbd0b43b1	-0.034000102
55	0xbc8cdc03	-0.017194754
56	0xbd9a2c7e	-0.075280175
57	0xbb466b35	-0.0030276303
58	0xbcd5a92b	-0.026081642
59	0xbc304135	-0.010757734
60	0x3c553177	0.013012282
61	0xbda9008c	-0.082520574
62	0xbdaabdf4	-0.08337012
63	0x3da347cd	0.07972679
64	0x3d84e727	0.06489401
65	0x3d4c0b22	0.049815305
66	0x3d50d192	0.05098111
67	0x3d3410a6	0.04396119
68	0xbdc324a6	-0.095284745
69	0x3cebfc85	0.028806934
70	0x3d081256	0.03322061
71	0x3d6568d6	0.056008182
72	0xbd2457b1	-0.04012269
73	0xb71cdbf3	-9.3495355e-06
74	0x3c663ff4	0.014053334
75	0xbd65b04f	-0.056076344
76	0x3d00e6fe	0.03147029
77	0x3cb49f3e	0.022048589
78	0x3db569f1	0.08858097
79	0x3e129299	0.14313735
80	0xbd888222	-0.06665446
81	0x3dd01f3f	0.1016221
82	0xbd72e5b8	-0.059301108
83	0x3cfd0dd6	0.030890387

fc2.weight f4 [10, 84]
0	0x3da21541	0.0791421
1	0xbe844a88	-0.25838113
2	0xbe0e163a	-0.13875666
3	0x3e2d38f2	0.16916254
4	0x3d3177c9	0.043327127
5	0x3e468984	0.19388396
6	0xbe0e137f	-0.13874625
7	0xbe10ac08	-0.14128125
8	0x3e58c03e	0.21167085
9	0xbe255be5	-0.16148336
10	0x3e289b50	0.16465497
11	0x3d0566df	0.03256881
12	0xbc98c2c1	-0.018647553
13	0xbe3160fd	-0.17322154
14	0x3e10ffb8	0.14160049
15	0xbe2ee6fc	-0.17080301
16	0x3e3f8096	0.18701395
17	0xbe37839d	-0.179213
18	0xbc945815	-0.018108407
19	0x3cf3fc89	0.029783504
20	0xbe600f8d	-0.21880932
21	0xbe8f0bd3	-0.2793871
22	0x3e3f7c26	0.18699703
23	0xbe31296c	-0.17300957
24	0x3dad262d	0.08454547
25	0xbe71af25	-0.23601969
26	0xbe02e499	-0.12782516
27	0xbe781474	-0.24226552
28	0x3e64e932	0.22354582
29	0x3dc4c22d	0.096073486
30	0xbe14784d	-0.14499016
31	0xbe5714ea	-0.21004072
32	0x3d1f94a9	0.038960133
33	0x3e40bd0e	0.18822119
34	0x3e08dfb3	0.13366584
35	0xbdfabced	-0.12243066
36	0x3e3086b3	0.17238884
37	0xbe3a2c3e	-0.1818094
38	0x3d8029c6	0.06257968
39	0x3d8f2fd1	0.06991542
40	0x3eb1377a	0.34612638
41	0xbe36f129	-0.17865433
42	0x3ec7e701	0.3904343
43	0x3e8eb75c	0.27874267
44	0x3d8c048a	0.06836803
45	0xbbede0a1	-0.007259444
46	0xbe806178	-0.25074363
47	0x3dfb1475	0.12259761
48	0x3ceac0c8	0.028656378
49	0x3e322d86	0.17400178
50	0xbe503bdc	-0.20335335
51	0x3d0c6bc4	0.03428246
52	0xbe4f413f	-0.20239733
53	0xbebc680a	-0.36798126
54	0x3c65519e	0.01399651
55	0xbe318eaa	-0.17339578
56	0xbdd88309	-0.10571868
57	0xbe25d0e8	-0.16192973
58	0xbea7eeef	-0.3279948
59	0xbcdaf519	-0.0267282
60	0xbe584a1e	-0.21122023
61	0xbe3dee28	-0.1854788
62	0xbea39055	-0.31946054
63	0x3e8ed555	0.27897134
64	0x3e5207cf	0.20510791
65	0xbe135245	-0.14386852
66	0x3b26ccb3	0.00254516
67	0x3e7225df	0.23647259
68	0xbde7a03c	-0.11309859
69	0xbd77ff50	-0.06054622
70	0xbe496eef	-0.19671224
71	0xbe813718	-0.25237346
72	0x3c1388ff	0.00900483
73	0x3e3517ab	0.1768481
74	0xbe1ae794	-0.15127403
75	0xbcafc22b	-0.021454891
76	0x3e8f3dd7	0.27976868
77	0x3e4438a4	0.19162232
78	0xbe7b2c91	-0.2452872
79	0x3e624e50	0.22100186
80	0x3e4c7e22	0.19969991
81	0xbe47ebd0	-0.19523549
82	0x3d840e10	0.06447995
83	0x3e40477c	0.18777269
84	0xbe1bc453	-0.1521161
85	0xbd73c618	-0.05951509
86	0x3e562d43	0.20915703
87	0xbe0b72e9	-0.13618053
88	0xbe7138a0	-0.23556757
89	0x3e58cac9	0.21171106
90	0x3e2a9c11	0.16661097
91	0x3e31b779	0.17355146
92	0xbe1ead76	-0.15495858
93	0x3e40dc9b	0.18834154
94	0xbe4beae8	-0.19913828
95	0x3e5a2d42	0.21306327
96	0x3e6a006c	0.22851723
97	0xbdab60e0	-0.08368087
98	0xbe39ff46	-0.18163785
99	0xbe6c93c7	-0.23103248
100	0xbe3be343	-0.18348412
101	0x3dcc7a26	0.099842355
102	0x3e90e099	0.28296354
103	0xbe55ed49	-0.20891298
104	0x3df454c6	0.11930232
105	0xbe8217ec	-0.25408876
106	0xbe72fbcf	-0.2372887
107	0x3d27ec85	0.040997047
108	0xbde4c358	-0.11170071
109	0x3e41ec6d	0.18937846
110	0x3e498f13	0.19683485
111	0x3e04da3b	0.12973873
112	0xbdf03f63	-0.1173084
113	0xbad11c47	-0.0015953862
114	0x3df7ff2c	0.12109217
115	0x3e31ea29	0.17374481
116	0x3e6c028c	0.23047847
117	0x3d2ea8e2	0.042641528
118	0x3e4b2197	0.19837032
119	0xbda95422	-0.08268
120	0xbe4cfae4	-0.20017582
121	0x3e625d77	0.22105967
122	0xbe400b40	-0.18754292
123	0xbe075a1f	-0.13217972
124	0x3e84044d	0.2578453
125	0xbe28a6b9	-0.1646985
126	0x3e9eff41	0.31054118
127	0xbdf74b55	-0.12074915
128	0x3e1b630e	0.15174505
129	0x3e278aa0	0.16361475
130	0x3e27ad4b	0.163747
131	0x3e4a0f61	0.19732429
132	0xbe359958	-0.17734277
133	0xbe8b98a6	-0.272649
134	0x3e8eeee5	0.27916637
135	0x3e486ec5	0.19573505
136	0x3e5b8448	0.2143718
137	0xbdc10f6b	-0.09426769
138	0xbe94eab9	-0.2908533
139	0x3e4532ed	0.19257708
140	0x3e6acbdf	0.22929333
141	0x3e4e227e	0.20130345
142	0xbe151b1d	-0.14561124
143	0xbdc2526e	-0.094883785
144	0x3d61af07	0.05509856
145	0x3e801cf2	0.25022084
146	0xbe88d76a	-0.26726848
147	0x3e8d170f	0.27556655
148	0xbe3a2ed4	-0.18181926
149	0xbe809cb7	-0.25119564
150	0x3e5e70ef	0.21722768
151	0xbe811125	-0.25208393
152	0x3e987b1b	0.29781422
153	0x3e4738a7	0.19455205
154	0x3e438af5	0.19095977
155	0xbe070b9f	-0.13188027
156	0xbe8461b5	-0.25855795
157	0xbd064dbe	-0.032788984
158	0x3e339d24	0.17540413
159	0xbe047705	-0.12936027
160	0x3e66d9b2	0.22543982
161	0xbe48e1fc	-0.19617456
162	0x3e10f6d5	0.14156659
163	0x3e588f01	0.21148302
164	0xbe410230	-0.1884849
165	0x3e2616b5	0.162196
166	0xbe4d5cf6	-0.20054993
167	0xbdd9f185	-0.10641769
168	0x3ea1385b	0.31488308
169	0xbe412582	-0.18861964
170	0x3debcc34	0.11513558
171	0x3dc59a5f	0.096485846
172	0x3e00aef9	0.12566747
173	0x3d1d2e68	0.038374335
174	0x3e472485	0.19447525
175	0x3df2c352	0.11853661
176	0x3ec956fd	0.3932418
177	0x3ea2cf1e	0.31798643
178	0xbe44054e	-0.19142649
179	0x3dbe80e1	0.093019255
180	0xbe4d2a7b	-0.20035736
181	0x3eac4e91	0.3365369
182	0xbe5ac01f	-0.21362351
183	0xbe7224e2	-0.23646882
184	0xbe21747c	-0.15767092
185	0x3e359f75	0.1773661
186	0xbe814db7	-0.25254604
187	0x3deba27c	0.11505601
188	0x3d6742ab	0.056460064
189	0xbded65bb	-0.11591669
190	0xbd97669a	-0.073926166
191	0x3e3df436	0.1855019
192	0xbe31b28f	-0.17353271
193	0xbe1cd922	-0.15317205
194	0x3e4c54f7	0.19954287
195	0xbeb030b1	-0.3441215
196	0x3dfdc8d2	0.12391819
197	0x3e6b1efb	0.22961037
198	0x3df96919	0.12178249
199	0xbe5d124a	-0.21589008
200	0x3d96dbe7	0.07366162
201	0xbe14307b	-0.14471619
202	0x3d56d69f	0.052450772
203	0xbe315a3d	-0.1731958
204	0x3d928fc1	0.07156325
205	0x3d9215a7	0.07133036
206	0x3de3d9a3	0.11125495
207	0x3e5a9ca1	0.21348812
208	0x3d8284af	0.06372964
209	0xbe40655f	-0.1878867
210	0xbe4d89b4	-0.20072061
211	0xbd98d61d	-0.07462714
212	0x3e456263	0.19275813
213	0xbe62b4ac	-0.22139233
214	0xbe75c702	-0.24001697
215	0x3e27642d	0.16346808
216	0x3d3b587d	0.045738686
217	0x3e10b9dd	0.14133401
218	0xbdbd93a6	-0.09256677
219	0x3e8faf1e	0.2806329
220	0x3e93cbc7	0.28866407
221	0x3d9d393f	0.076769345
222	0x3e26150d	0.16218968
223	0x3e73777c	0.23776048
224	0xbe884696	-0.26616353
225	0x3ddce611	0.10786069
226	0x3e7c590f	0.24643348
227	0xbd35a051	-0.044342343
228	0xbe4d7a46	-0.20066175
229	0xbe671f83	-0.22570615
230	0xbe256414	-0.16151458
231	0xbc0fbc5d	-0.008772937
232	0xbe4b155f	-0.19832371
233	0x3e6c3012	0.23065212
234	0xbd1f29d0	-0.038858235
235	0x3e3658d2	0.1780732
236	0xbe8bd4fc	-0.27310932
237	0x3e3c8b67	0.18412553
238	0xbdf09328	-0.11746818
239	0x3e6fbb61	0.23411323
240	0x3df1656b	0.11786922
241	0x3e316538	0.17323768
242	0xbe312c74	-0.17302114
243	0x3e5d5c92	0.21617344
244	0x3eaef575	0.34171644
245	0xbd725886	-0.059166454
246	0x3dd020b7	0.1016249
247	0x3e8b770c	0.27239263
248	0xbe3ae37e	-0.18250844
249	0xbe036506	-0.12831506
250	0xbe82c18c	-0.2553829
251	0xbe804bc1	-0.25057796
252	0xbe302ee6	-0.1720539
253	0x3d300a21	0.04297841
254	0x3e6b592b	0.22983234
255	0xbe1f8e37	-0.15581594

fc2.bias f4 [10]
0	0xbacf1652	-0.0015799499
1	0x3d523e53	0.05132897
2	0xbc6ccf23	-0.014453682
3	0xbda0c842	-0.07850696
4	0xbdedd300	-0.11612511
5	0xbb7865c1	-0.0037902447
6	0xbdb4fec2	-0.08837654
7	0x3dc7962e	0.097454414
8	0x3dbb369b	0.091412745
9	0x3ddad456	0.10685031
