models/lenet5_mnist_2044.pth (torch, 250917 bytes, 10 tensors)

c1.weight f4 [6, 1, 5, 5]
000000 7e 18 54 3d ae 2a d1 bc fb ac 42 3d 21 a0 c9 bc
       0.05178117 -0.025533047 0.04752825 -0.024612488
000010 ae 66 8b be ea 86 ce bd a8 51 ac bc 25 7c 33 be
       -0.27226776 -0.100843266 -0.02103503 -0.17527826
000020 f0 4a 86 bb 5c cd 8b be b3 b8 4c 3c 18 84 26 3e
       -0.0040982887 -0.27305114 0.012495208 0.16261327
000030 2f bd bf bc 11 5a 10 be 5d 52 05 be 63 62 79 3c
       -0.02340564 -0.14096858 -0.130197 0.015221211
000040 6e de 71 3e a4 4c 14 3d e9 7e ee 3d 19 cd cc bd
       0.23620006 0.036205903 0.116453 -0.10000057
000050 3d e9 1d 3c 55 8d 81 3e 81 45 7e 3e 19 ee 9c bd
       0.009638128 0.2530314 0.24831201 -0.07662601
000060 ea a4 a6 3d d2 ef d0 bd 92 31 36 3d 7b 79 38 3e
       0.081369236 -0.10201992 0.044480868 0.18015091
000070 ae ba e7 3d 1a 5c 90 bd f4 1a 77 be e0 0f dc 3d
       0.11314903 -0.07048817 -0.24131376 0.107452154
000080 72 4e 01 be 73 37 1d be 48 eb 32 be 2c 3d 6b be
       -0.12627581 -0.15353183 -0.17472565 -0.22972554
000090 13 2a 51 3c 14 a4 6a be 0e e6 b0 bd bc 98 50 be
       0.012766379 -0.22914153 -0.086376294 -0.20370764
0000a0 d7 3f 8f 3d c1 a9 41 be 80 f7 49 be e0 76 be bd
       0.06994598 -0.18912412 -0.1972332 -0.09300017
0000b0 0e 7c 27 be b1 da d4 3d c5 c9 12 3e 1f 53 92 3d
       -0.16355917 0.103932746 0.14334781 0.0714476
0000c0 92 d4 b1 bd da 86 8a 3e 53 f9 44 bd 33 16 95 3d
       -0.08683123 0.2705601 -0.048089337 0.07279625
0000d0 d0 84 54 3e 7d 9f 60 3b ae cb 91 3d 05 f5 0e be
       0.20753789 0.003427475 0.07118927 -0.13960655
0000e0 a5 77 82 3d ef 61 3f 3e b9 a3 79 3e ef a9 17 3e
       0.06370477 0.18689702 0.24378861 0.14810918
0000f0 69 de 81 3d ae ce 6b 3e 7c 6f e1 3d d0 74 e2 bd
       0.063412495 0.23028061 0.11007592 -0.110574365
000100 b0 a0 fe 3d be b6 26 be e8 e1 e2 bd 94 18 c6 bd
       0.124329925 -0.16280648 -0.110782444 -0.09672657
000110 34 d5 7e be 82 ea 05 bd bb e3 ec bc 60 49 6f 3c
       -0.24886018 -0.032694347 -0.028917184 0.014604896
000120 98 05 5d be 1b 4d 63 be e3 5f fd bc 69 7c df bb
       -0.21584165 -0.22197382 -0.030929511 -0.006820251
000130 d7 93 2d 3e 7b 27 2c 3d 19 6d 01 3d da 12 4b be
       0.16950928 0.04202984 0.031598184 -0.1983141
000140 30 1c 9b 3e 67 22 8c 3e 77 81 13 3e d4 cf 46 3e
       0.30294943 0.27369997 0.14404856 0.19415218
000150 ce 85 bf bc 6d 14 57 bd ff 82 59 3d 14 28 a6 3e
       -0.023379233 -0.052509714 0.053103443 0.32452452
000160 00 5e 96 3e b8 cb 42 bd 32 85 62 bc 67 7c ed bd
       0.2936859 -0.047557563 -0.013825702 -0.115959935
000170 6e 8e a7 bb 36 0c f0 bd ec d3 e4 3d c1 43 c4 bd
       -0.0051134145 -0.11721079 0.111732334 -0.095832355
000180 fa ab c1 3d d7 3f 2a 3d 67 51 06 3e ca 2c fd 3d
       0.0945663 0.04156479 0.1311699 0.123620585
000190 88 f9 ff bc 2f 51 2a 3e fd 3b ca bd 1b 9b cd bd
       -0.031246915 0.16632532 -0.09874723 -0.1003935
0001a0 11 06 c9 bd 4a 0f 76 be 9a 4c 61 bd ed 95 9d 3d
       -0.0981561 -0.2402927 -0.055004694 0.07694612
0001b0 19 59 ed bd 8b e5 06 be 40 dc 9e 3d 38 e1 1f be
       -0.1158926 -0.13173501 0.07756853 -0.15613258
0001c0 8f fd 36 3e dc c4 e0 3c f6 4d 6a 3e 68 de e7 3d
       0.17870162 0.02743762 0.22881302 0.113217175
0001d0 31 17 6c 3e 19 6d 36 3e 5b 52 7f bc 41 64 42 3e
       0.23055722 0.17815055 -0.0155836 0.18983556
0001e0 91 11 4e be b0 58 80 be ba 70 5f be d8 54 54 3d
       -0.20123889 -0.25067663 -0.21820346 0.051838726
0001f0 4f 5f 2e 3e 8c b0 13 bd 21 78 0c 3e ea 7c a5 bd
       0.17028545 -0.03605704 0.137177 -0.08080466
000200 c3 dd f2 3d 53 bf 1a be 25 1e a2 3c 4e d8 40 3e
       0.11858704 -0.15112047 0.019789765 0.18832514
000210 0d b3 13 be 80 47 47 bd 9b 82 73 be af b6 00 3e
       -0.14423771 -0.048652172 -0.23780291 0.12569688
000220 5a 0c 35 3d 15 fd a2 3c 86 16 ac be 05 91 6e be
       0.044201232 0.01989607 -0.33610934 -0.23297508
000230 5d 81 2c 3c 2e 5d e6 bd b3 ac 30 be 11 f3 92 be
       0.0105288895 -0.11248241 -0.1725338 -0.2870107
000240 f2 41 a5 bd 9b 29 54 3e 19 4a 21 be 25 2b 84 bd
       -0.08069219 0.20718996 -0.15750922 -0.06453542
000250 b9 1c 80 be 1b c4 dc bc
       -0.25021914 -0.02694898

c1.bias f4 [6]
000000 cb 0b 71 bd 6e 28 14 3d d7 b6 e4 3d 31 1a 84 bc
       -0.058849137 0.03617137 0.111676864 -0.01612577
000010 13 a7 9b be dc 4d 64 3e
       -0.30400905 0.22295326

c2.weight f4 [16, 6, 5, 5]
000000 93 52 fd bd 87 5f d0 bc b2 ff dd bd 6d 65 94 bd
       -0.123692654 -0.025436176 -0.10839786 -0.07245908
000010 d6 a5 70 bd 39 50 c6 bb 00 3c 0c bc e9 25 1c 3b
       -0.058751903 -0.0060520438 -0.008559227 0.0023826307
000020 80 0e 62 3c ac 97 2e bb 90 ac be 39 3b 8b 10 be
       0.013797402 -0.0026640696 0.00036368193 -0.14115612
000030 85 d1 b3 bd bc 1b 85 3d 30 cb 88 bd 57 31 f6 bd
       -0.08780197 0.064994305 -0.0667938 -0.120211296
000040 78 bc 36 be c4 78 8a bd ae c2 77 3c ba 90 00 bd
       -0.17845333 -0.067613155 0.015122099 -0.031388022
000050 e8 20 ab bd 0c f1 1d be 90 31 4d bd ec ad 6b 3c
       -0.08355886 -0.15423983 -0.050096095 0.014384728
000060 89 67 0d be 66 55 b8 bc e2 46 c9 3c f6 37 e4 3c
       -0.13809027 -0.022501659 0.024569932 0.027858716
000070 75 50 a8 3d 4c 72 db bd 5c 47 2b 3d ac 02 c3 3d
       0.08218471 -0.1071516 0.0418161 0.09521994
000080 e4 11 a0 bd 48 3d 1a be 27 f6 e4 bc ee c7 1d 3d
       -0.07815912 -0.1506244 -0.027949406 0.038520746
000090 07 8a c8 bc 53 a5 80 bc 04 d5 01 bc 62 e7 09 3c
       -0.024479879 -0.015703833 -0.007924322 0.008416982
0000a0 17 c2 f9 3d a1 ad ad bd 50 74 a7 bd 30 7a d0 3b
       0.12195223 -0.08480383 -0.08176482 0.006362222
0000b0 f8 be d8 bd 9c a6 dc bd 7c 46 f3 bc fe 92 b4 bd
       -0.105832994 -0.10773966 -0.029696696 -0.08817099
0000c0 2e 1e 97 bd 73 0f 23 3d 5a e8 1a 3d 07 ec 5c bd
       -0.07378803 0.039809655 0.037819244 -0.05393603
0000d0 ba 33 1f bd d6 6a 57 bd cc 51 c7 bd 06 3f 82 bd
       -0.03886769 -0.05259212 -0.097323984 -0.06359677
0000e0 8e 37 f8 bc 55 72 d0 bd f8 b7 80 bd d3 44 00 bd
       -0.030299928 -0.10178057 -0.06285089 -0.031315636
0000f0 1f 3e e1 bc 03 1d 13 be 3c 3a 56 bd 00 00 19 bd
       -0.027495442 -0.14366536 -0.05230163 -0.037353516
000100 59 bb 92 bc ba d8 cb bc f5 83 81 3c e4 44 04 bd
       -0.0179116 -0.024883617 0.015809992 -0.03229226
000110 75 99 69 3b 32 3f 1f be e3 32 88 3a b3 bd a3 bd
       0.0035644446 -0.15551451 0.0010391142 -0.07995167
000120 ba dc b9 3d 03 91 3e 3c 0e 9b 2b bd 1a a0 52 3c
       0.090753034 0.011631253 -0.04189592 0.012855554
000130 38 b2 19 bd d9 88 73 bd 05 cf 41 bd 0a a8 4d bd
       -0.03752348 -0.05945668 -0.04731657 -0.050209083
000140 c2 2d d9 bd d6 9e 08 be 04 d9 29 bb b7 70 45 3d
       -0.10604431 -0.13341841 -0.0025916705 0.048203196
000150 7b 77 ce 3c d2 56 e2 bd c8 60 88 bd 31 db eb bc
       0.025203457 -0.11051716 -0.066590846 -0.028791042
000160 90 71 53 bb eb fe 01 be c6 75 04 bd a5 06 ae bd
       -0.0032263733 -0.126949 -0.03233888 -0.08497361
000170 aa ec 4e 3a f4 41 3e 3c 21 13 0c bd d2 ac 2f bd
       0.0007893542 0.011612404 -0.03419793 -0.042889424
000180 17 ac 0d be 42 03 24 bd 8c 04 80 3d d1 83 80 3b
       -0.13835178 -0.04004217 0.06250867 0.0039219637
000190 e7 38 d9 3c 83 f2 93 bd 0e c2 88 3d f0 dd ce bd
       0.026516391 -0.0722399 0.06677638 -0.10100925
0001a0 22 43 73 be 5a e8 2b 3b 9e 8d d8 3d 16 bc d8 bc
       -0.23756078 0.0026231022 0.10573886 -0.026456874
0001b0 5b 49 0f be 48 b2 e1 bd 48 1c 65 3c e3 92 b0 3d
       -0.13992827 -0.110203326 0.013983794 0.086217664
0001c0 95 a8 82 3d 30 5e 38 be 7d 74 ff bd 34 47 4e bb
       0.06379811 -0.1800468 -0.1247339 -0.0031475546
0001d0 ed d4 ac 3d a3 d7 7a bc e3 2f 87 bd c0 6f d1 bb
       0.0843905 -0.015310201 -0.066009305 -0.0063914955
0001e0 0b a5 0d bd e4 2f 7a 3c 04 c2 9a bd 89 b0 94 bb
       -0.034581225 0.015270207 -0.07556537 -0.004537646
0001f0 a8 38 49 3c 27 9f 78 3d cc ee 07 b8 15 a9 41 3d
       0.012281574 0.060698655 -3.2408905e-05 0.04728039
000200 60 1d fd 3c 99 fe c1 3c 68 1f 4f 3d 4a c3 01 bd
       0.030897796 0.023680972 0.05056706 -0.031680383
000210 b6 fa 93 bd 29 d2 d7 3c 55 b9 8b 3d 6c 81 18 3c
       -0.07225554 0.02634533 0.06822459 0.0093082
000220 88 22 b5 bd 5d 6a c0 bd 42 28 31 bd 67 4f 93 3d
       -0.08844477 -0.09395287 -0.043251283 0.07192879
000230 2c 9c 2d 3a b7 81 04 be e2 7a 4a bd 74 55 c6 3d
       0.00066226977 -0.12940107 -0.049433596 0.09684268
000240 fe d7 d0 3c f3 7b 27 3d 88 f6 0f be e5 0e b9 bd
       0.025493618 0.04088969 -0.14058888 -0.09036044
000250 61 88 58 3d 96 7d 36 bd a2 d1 c1 bd 06 a9 7d bc
       0.052864436 -0.04455336 -0.094638124 -0.015482193
000260 ef 4d 22 bc ba 04 b0 bd c2 b2 c8 3c 20 6c 5a 3d
       -0.009906276 -0.085946515 0.0244993 0.053325772
000270 20 42 91 3c 94 36 e8 bd 25 57 e2 bd a1 05 ea bd
       0.017731726 -0.11338535 -0.11051778 -0.11426855
000280 78 bb bf 3c 13 dd d8 ba 23 f4 b2 bd e0 05 8a bc
       0.023404822 -0.0016545377 -0.08737972 -0.016848505
000290 86 42 72 bd 75 31 a7 3d d5 60 01 3e ee da 2e 3e
       -0.059145473 0.0816373 0.12634595 0.17075703
0002a0 d4 21 df 3d ab ea 1b 3e 3a 30 fe bb 41 ae 98 bd
       0.10895124 0.15226237 -0.007757214 -0.07455111
0002b0 18 f7 af bd 87 81 24 be e1 83 fe bd 69 88 a6 bd
       -0.08592051 -0.16065036 -0.12427498 -0.08131487
0002c0 17 6f 18 be 1c 8e f7 3c 15 8d 79 bd 06 8b 24 3d
       -0.14886127 0.03021913 -0.060925562 0.040171646
0002d0 d3 80 3a be aa 25 b5 bd d8 bb 2a bd 66 6d 45 bc
       -0.18213205 -0.088450745 -0.041683048 -0.012050008
0002e0 b4 96 aa bd 3d f7 7e bd 12 de 20 bd 21 6e f5 3b
       -0.083295256 -0.062247504 -0.039274283 0.007489935
0002f0 c0 d8 d4 3d 77 92 9f 3d 10 52 08 3d 75 98 04 bd
       0.10392904 0.07791608 0.033281386 -0.032371957
000300 3f 39 43 3c 09 91 3c 3d 39 2e 99 3d 3e e1 24 bd
       0.011915504 0.046036754 0.074795194 -0.04025387
000310 58 63 58 bd a1 43 cb bd 03 55 02 3d c8 58 d9 bc
       -0.052829117 -0.099250086 0.031819355 -0.026531592
000320 ff 9c b9 bd 95 03 e3 bc d5 73 1e 3d 2f 84 eb bc
       -0.09063148 -0.027711669 0.038684685 -0.028749553
000330 f8 ea ba bd b5 83 a1 3d 54 7d cb 3d 31 4f 88 bd
       -0.09126848 0.07886449 0.09936014 -0.066557296
000340 4d d4 9c 3c a0 a6 90 bc ad df d3 3d 5c 95 03 bc
       0.019144202 -0.017657578 0.10345397 -0.0080312155
000350 76 5c f7 bd 93 ed 72 bd 97 01 05 3d b9 54 8e 3d
       -0.120781824 -0.0593086 0.03247222 0.06949753
000360 32 71 57 be b8 07 09 be b1 c3 41 be ad 73 1c be
       -0.21039274 -0.1338185 -0.18922307 -0.15278502
000370 86 4b e2 3c dd ac 7b 3c 57 65 3b bc 70 8f 49 bd
       0.027623903 0.015361038 -0.0114377355 -0.04920906
000380 f7 92 84 39 0e 1c a6 3d cd b8 0a 3d 38 cd e0 bb
       0.000252865 0.0811082 0.033867646 -0.0068604015
000390 d1 47 72 3c 99 77 19 3d d7 b4 bd 3c f3 09 36 3d
       0.01478763 0.037467573 0.02315752 0.044443082
0003a0 a7 ea 3e be 1b 1f 16 be b9 bb 31 3d d5 10 bf 3d
       -0.186442 -0.14660303 0.043391917 0.09329382
0003b0 70 bc ed 3c 3a ca be bd e7 8f 99 bd 21 44 a7 3c
       0.029020518 -0.093159154 -0.0749815 0.020418229
0003c0 fe ce 5b 3d c3 dd aa bb d1 fd ae bb 1c db d2 bc
       0.0536642 -0.0052144243 -0.005340316 -0.025739245
0003d0 57 fc cd bd 53 ae a1 3d cf 17 f5 bc 1f 18 74 bc
       -0.10057896 0.07894578 -0.02991858 -0.014898329
0003e0 c9 40 6e 3c 96 35 f2 3d bb 5a aa bc 78 07 f2 bd
       0.014541813 0.11826627 -0.020795217 -0.11817831
0003f0 89 d9 d1 ba c6 5b 1a 3e aa 39 a5 bc 2e c0 c6 bd
       -0.0016010265 0.15074071 -0.020169098 -0.09704624

c2.bias f4 [16]
000000 bf f6 46 3c 4e de 10 be 9e 44 09 bc 60 8b 02 be
       0.01214379 -0.14147303 -0.008378176 -0.1274848
000010 d0 63 dc bd f9 54 c0 bd ef 34 bf bc 5c 6f ad bd
       -0.10761225 -0.09391207 -0.02334067 -0.08468506
000020 aa 8d 38 bd c4 5a 18 be ca 26 e5 bd bc 16 05 3d
       -0.045056976 -0.14878374 -0.11189039 0.032492384
000030 fc 83 c6 3c 0c 7a 02 bc 84 5b 11 bd e6 6d 2b be
       0.024232857 -0.007963669 -0.035487667 -0.16741142

c3.weight f4 [120, 16, 5, 5]
000000 94 2a ca bb d3 8e 12 bd 70 ea a9 bd 94 78 03 bd
       -0.0061696265 -0.03578074 -0.082966685 -0.032097414
000010 47 77 49 bd 98 a2 16 bd d5 da 63 3c 43 9a dc bb
       -0.049186017 -0.036776155 0.013907154 -0.0067322566
000020 60 02 1f bd 3f 7c ea bb a5 d2 be bb ed 41 b8 3c
       -0.038820624 -0.0071559246 -0.0058234506 0.022492373
000030 90 0b 16 3b 6b 14 07 3d 7b 12 ab 3c 1d 54 4f bd
       0.0022895075 0.032978456 0.020882836 -0.050617326
000040 0a 00 d2 bd be 1f 87 bb 82 60 f5 3c a0 4a 87 bc
       -0.10253914 -0.004123657 0.029953245 -0.016515076
000050 bf 2b d1 bb f8 3f 77 3d b0 c0 fe 3d 78 90 45 3d
       -0.006383389 0.06036374 0.12439096 0.04823348
000060 9c 07 c5 bb e4 5b be 3d 47 2c cc 3d 30 4a 84 3c
       -0.00601287 0.092948705 0.09969383 0.016148657
000070 72 e1 47 3d c2 72 36 bd 25 33 7d bd 63 ef 9d bc
       0.048798986 -0.044543035 -0.061816353 -0.019279188
000080 7b 93 94 3c 24 c3 19 bd e9 05 15 bd 4b 91 94 3b
       0.01813673 -0.037539616 -0.03638259 0.004533922
000090 7f c7 15 bd ed b7 ac 3c 90 f2 3b bc 8e 67 dc bc
       -0.036567207 0.021083796 -0.011471406 -0.026904847
0000a0 94 54 ba 3d 72 9e d8 3c 0a f9 0b 3d ff b3 4a 3d
       0.09098163 0.02644274 0.03417305 0.049488064
0000b0 48 30 3c 3c 78 5c 37 3d a4 9e 9b bd 7b 3a 8b 3d
       0.0114861205 0.04476592 -0.07598618 0.06798264
0000c0 3e 52 36 3d cd cf 10 bc c7 b7 cb bd 39 54 05 bd
       0.044512026 -0.008838606 -0.09947162 -0.032551024
0000d0 0e 2c 4e bb 09 55 c0 3c 0b 99 b6 3d 12 b1 f2 bc
       -0.0031459364 0.023478048 0.089159094 -0.02962545
0000e0 15 f5 dd 3d 17 0c 76 bc d8 3c e0 3b 76 19 9e ba
       0.10837761 -0.015017531 0.0068431906 -0.0012062031
0000f0 b9 41 ac bc 75 7d 1a 3c f4 45 77 bd af d8 d2 bb
       -0.021027433 0.009429325 -0.060369447 -0.006434522
000100 61 22 07 3c ca 05 dc bc a7 63 07 3d 11 d3 c7 3c
       0.008247943 -0.02685823 0.03305402 0.024392636
000110 cd 58 83 3c ba 53 d8 bb b0 ba 60 3b 2a e1 2d 3c
       0.016033554 -0.006601778 0.0034290962 0.010612765
000120 4e e9 29 bd 50 95 86 bc ff ad 5c 3c 09 42 5b 3d
       -0.041482262 -0.01642862 0.013469218 0.053529773
000130 28 bb 70 3d 28 0a 99 3c b5 06 17 bd 57 00 5c bd
       0.058772236 0.0186816 -0.03687163 -0.05371126
000140 69 99 31 bd 85 4a 60 bd b4 91 2a bd b5 4b 9c bc
       -0.043359194 -0.054758567 -0.04164286 -0.019079069
000150 f7 71 98 3c 7a cd cb bd ec 07 af 3b 4d 12 20 bd
       0.01860903 -0.09951301 0.0053415205 -0.039079953
000160 99 88 13 3d d7 b0 b8 3b a9 3e 1f bd f7 78 84 3d
       0.03601894 0.0056363153 -0.038878117 0.06468385
000170 51 ad 1e bd f8 49 5f 3d 8b 73 75 bd 0e a8 52 3d
       -0.038739506 0.0545139 -0.059924643 0.0514298
000180 1b 34 0b 3d 1e 82 1a 3d 18 32 f8 3b 3b 6f f4 bc
       0.03398524 0.037721746 0.007574331 -0.029838195
000190 47 4b 11 3d 04 40 88 bc a8 de a9 3d b8 bc c0 bb
       0.03547218 -0.016632088 0.082944214 -0.005881872
0001a0 58 d7 4a bd fd 6f 74 bd af 4a c2 bc ae 4e ed bc
       -0.049521774 -0.059677113 -0.023717253 -0.028968181
0001b0 5d 36 3b 3d 2e 69 fd bb 66 5f c7 3c d5 e1 b3 bd
       0.04570614 -0.0077334857 0.024337482 -0.087833084
0001c0 8e 3f 24 bd 78 44 2a bd 1a 6e 4b bc ab eb c0 3c
       -0.040099673 -0.041569203 -0.012416387 0.023549875
0001d0 9c 3d 87 3c c9 61 a3 bd 35 d5 1b bd 9f 47 34 3c
       0.01650887 -0.079776354 -0.038045127 0.011003404
0001e0 3e 51 eb bc 72 3c 3f bd a3 98 4f bd 0a c8 db bb
       -0.028725263 -0.046688505 -0.050682675 -0.006707196
0001f0 26 80 be 3c e0 d0 e0 bc 58 63 1a 3c 5a f7 8c 3d
       0.023254465 -0.02744335 0.009423099 0.06883116
000200 6e 70 df bc 68 64 2c bd fa 96 f4 3b cd af a0 3c
       -0.02727529 -0.042087942 0.007464287 0.019615078
000210 74 88 b3 3c 86 a8 89 3c 7d 1a 2d bd 07 28 e3 3c
       0.021915652 0.016803991 -0.04226159 0.027729047
000220 ee 6d 2e bd b2 ca 83 bb 17 88 62 3c 3b 4f d9 3b
       -0.042585306 -0.004021966 0.013826392 0.0066317595
000230 42 f6 39 bd f9 e0 88 bb ee cb 03 bd 49 5f 41 bd
       -0.045400865 -0.0041772095 -0.032176904 -0.04721001
000240 9c 94 94 3c d7 c3 c2 bd e9 29 46 3c b1 fb 44 3d
       0.018137269 -0.0951001 0.012094953 0.048091594
000250 4b 69 35 3d 42 d2 2e 3d ca d1 18 bc a6 67 e4 3b
       0.04428987 0.042680986 -0.009327361 0.0069703637
000260 32 ba ab 3d 26 91 de bb 82 61 9a 3c 57 ef d9 bb
       0.08385123 -0.0067922054 0.018845323 -0.006650846
000270 3d 2b f8 bc f9 79 a5 3d 54 cb c6 bc 62 18 ee bb
       -0.030294055 0.08079905 -0.024266876 -0.0072660903
000280 16 6e 76 3d ff ad 53 39 50 7b be bd 8a 86 a0 bc
       0.06016358 0.00020187347 -0.09300864 -0.019595403
000290 12 c0 d9 bd 58 7b ec 3c 71 5e 8e 3d b6 a4 b5 bb
       -0.10632338 0.028867409 0.06951607 -0.0055433167
0002a0 0f c8 63 bd 22 6d 7c bd b9 f8 4d 3b 54 b9 81 bd
       -0.055610713 -0.061627515 0.0031428768 -0.06334177
0002b0 fe 39 36 bd ae ee 83 bd c4 5a 87 bd d7 81 13 bd
       -0.0444889 -0.06442009 -0.06609109 -0.036012497
0002c0 6d ee 1e 3b 0a 16 ef 3c 33 10 6c 3d d4 5b a0 3c
       0.0024251 0.029185314 0.057632636 0.019575037
0002d0 df f4 57 bc b8 c5 e4 3b 75 e5 7a 3c ab 9f fc bb
       -0.01318094 0.0069815777 0.015313496 -0.0077094636
0002e0 43 08 86 bd 07 e3 8c 3b 2c 82 c9 bc 99 e5 6c 3c
       -0.065445445 0.0042995247 -0.024598204 0.014459037
0002f0 20 90 6f bd 67 0e 11 bc 82 5c 8d bd 1d 04 67 bd
       -0.058487058 -0.008853531 -0.0690241 -0.056400407
000300 f7 8b e3 bd 5d 85 71 3b c0 84 a5 bc 01 d7 a3 bc
       -0.111106806 0.0036853172 -0.020204902 -0.019999983
000310 1a b2 18 bc de e0 9c bb 7e 4e c9 3b 55 b4 07 bd
       -0.0093198065 -0.0047875484 0.00614339 -0.033130962
000320 b2 ea 03 bd 76 ad f8 bc 97 c3 c1 ba 14 b5 66 bd
       -0.032206245 -0.03035615 -0.0014783022 -0.056325033
000330 67 15 14 3d 33 46 67 bd c1 54 9e 3c 19 c9 48 bc
       0.036153223 -0.05646343 0.019327523 -0.012254977
000340 cb 05 44 3d 62 4b a3 bc cf 24 dc 3c 66 3f b4 3d
       0.047857087 -0.019933406 0.02687302 0.08801155
000350 69 df 20 3d 22 07 55 3d a1 5b ba bb c6 7d 4b 3d
       0.03927556 0.052008756 -0.0056871925 0.049680494
000360 65 47 a2 3d 62 a3 55 3d a8 d7 14 bd bf c0 21 bd
       0.07923774 0.052157767 -0.03633848 -0.039490458
000370 52 05 32 3d 3c c4 4b bc bb 3a 60 bd 4c 38 29 bc
       0.043462105 -0.012436923 -0.05474351 -0.010328364
000380 61 fc b8 3c 02 28 90 bc 4b 93 d7 3d 7b ed f5 3d
       0.022581281 -0.017597202 0.10526141 0.120081864
000390 64 41 c2 3c 1c f4 2d 3d d8 dd ad ba da 19 a8 3d
       0.023712821 0.04246913 -0.0013264967 0.08208056
0003a0 ec 75 32 3d 7f 70 22 3d db 3c 0c bc 8e 35 81 ba
       0.04356949 0.039658066 -0.008559431 -0.000985788
0003b0 85 88 6e bc ff 71 50 3d 8f 79 aa bd ac f7 f2 bc
       -0.014558916 0.050889965 -0.08323967 -0.029659115
0003c0 d6 df 19 3c 56 2e 00 3d 35 2a c5 bc 49 bf bb bd
       0.009391746 0.03129419 -0.024067977 -0.09167344
0003d0 a2 1e 33 3b f2 54 6d 3d 1c 32 45 bd 13 03 85 bd
       0.002733149 0.05794234 -0.04814349 -0.06494727
0003e0 8f 34 2f bc fc 6f 79 bc d3 a8 c4 3c 8a 4a 62 bb
       -0.010693683 -0.015224453 0.024006283 -0.0034529292
0003f0 65 22 51 3c 4a b7 d7 3b 84 9a 83 bb 3e 61 c2 3d
       0.012764548 0.006583129 -0.0040162224 0.09491204

c3.bias f4 [120]
000000 cd 04 4a 3d 5a 5d 07 bc 1c e5 59 3c 92 17 fa bb
       0.049320985 -0.008262003 0.013299253 -0.0076322043
000010 6f a3 81 3c a4 a7 a7 3b 7d c9 01 3c 56 66 3f bd
       0.015825002 0.00511642 0.007921574 -0.046728455
000020 bf bb 3d 3d 0e 09 24 bd c1 8e fd 3a db 7c 3f 3d
       0.046321627 -0.040047698 0.0019344912 0.04674993
000030 92 74 85 bd 72 ba 3c bc e8 0d 1b bd 52 ac f2 bc
       -0.06516375 -0.011519061 -0.03785506 -0.029623184
000040 b8 a5 d1 bb be c6 96 3c 6e 65 a5 3c 0f ff 6c bd
       -0.006397929 0.018405315 0.020189967 -0.05786043
000050 29 de 2d 3d 00 9e 00 bd 9a 7f ee 3c b1 62 e9 bc
       0.042448197 -0.03140068 0.02911358 -0.028489443
000060 9e 99 50 3d 87 70 3a 3d 62 94 ca 3c d5 b0 d9 bc
       0.05092775 0.04551747 0.024728958 -0.026573578
000070 69 34 91 3d 97 87 79 bc f4 28 d4 bc 3f 10 06 3d
       0.070900746 -0.015230081 -0.025898434 0.032730337
000080 d6 0c 3a bd 11 46 48 3d 21 d1 f3 bb 0f 3e 3e 3c
       -0.045422398 0.048894946 -0.0074407016 0.011611476
000090 af 74 72 3c 70 9e 37 bc c7 05 89 3c 89 c1 f5 bc
       0.014798327 -0.011207208 0.016726388 -0.029999511
0000a0 ac 4a cb bc 46 61 83 3c 22 39 fa bc 2e a8 79 bd
       -0.02481588 0.016037595 -0.030544821 -0.060951404
0000b0 2a 5c 05 bc dd cf 0d 3d 2a ba 0a 3d f0 49 3b 3d
       -0.008139649 0.034622062 0.033868946 0.04572481
0000c0 93 f3 ac bc 20 49 e7 bc bb a4 44 3c 4a 06 a6 ba
       -0.021112239 -0.02823311 0.012002165 -0.0012666669
0000d0 e9 67 fc 3a 79 25 05 bc ee 20 0c 3c 9c 73 41 3d
       0.0019257042 -0.00812661 0.008552773 0.047229394
0000e0 17 17 97 3c eb e8 7e bd 2b 7a f5 3c 2d b7 79 3d
       0.018443627 -0.062233847 0.02996548 0.060965706
0000f0 64 0a bc bb 98 07 ec bb 0c cb 4d bd d0 e0 c3 3c
       -0.0057385433 -0.0072030537 -0.05024247 0.02391091
000100 eb 72 3e 39 61 0e dc 3c 17 19 9f 3b 19 12 ac bc
       0.00018162622 0.026862325 0.004855286 -0.021004723
000110 1e 80 31 bc b1 0f 2a bd 46 46 0d bd 44 bf fd bb
       -0.010833768 -0.04151887 -0.034490846 -0.007743748
000120 22 67 0f 3d f2 63 9a 3b 0b b6 bc bc 21 b8 65 3d
       0.035010464 0.0047116214 -0.023036024 0.056083802
000130 46 d0 64 bd 1a a5 2d 3d cb 55 15 bd 54 51 8d bc
       -0.055862688 0.04239378 -0.03645877 -0.017250694
000140 78 fa c7 3c ca be da 3b 6e 33 2c 3d c0 4e 19 3d
       0.024411425 0.006675576 0.042041235 0.037428617
000150 66 60 74 bd f2 36 0f 3d 67 b3 68 bb da 5f 68 bd
       -0.059662245 0.03496451 -0.0035507323 -0.056732036
000160 30 7e 45 bd c3 57 83 bd e7 ff cf 3b 5e 52 39 3d
       -0.048216045 -0.064132236 0.0063476446 0.045244567
000170 03 22 68 3d 0c 2f c1 3c ae ad 26 3d 7a 7f 90 3d
       0.05667306 0.023582004 0.040692978 0.07055564
000180 b3 69 6b bd 04 55 15 3d 44 47 1a bb 9a 57 85 bd
       -0.05747385 0.03645803 -0.0023541013 -0.06510849
000190 3e 2f 78 bd 6c 41 8a 3a 4a d9 8f bb 77 8a 04 bd
       -0.06059193 0.0010548062 -0.0043899165 -0.032358613
0001a0 44 ac 56 3d d2 25 59 3c 2e d8 e2 3b 3c 3c a2 bc
       0.05241038 0.013253646 0.0069227433 -0.019804113
0001b0 74 e5 e0 3a 06 2e 0d 3d 54 41 dd 3b 13 a9 89 3c
       0.0017158226 0.03446772 0.0067521725 0.016804254
0001c0 2d 30 6f 3d fd 08 bc bb 23 a2 3a bd a3 91 f6 bc
       0.058395553 -0.005738376 -0.045564782 -0.030098742
0001d0 44 48 14 3d 68 fd e4 3c 67 95 93 3c 4d 30 5b 3b
       0.03620173 0.027952865 0.018015577 0.0033445538

fc1.weight f4 [84, 120]
000000 f5 ad f6 3b e8 90 2d 3d ae f8 3a be c3 83 27 be
       0.0075280615 0.04237452 -0.18258926 -0.16358857
000010 76 51 ae bd ec 09 e7 3c 8e 4d 35 3e 6e a9 45 3d
       -0.08511631 0.028202973 0.17705366 0.048257284
000020 b5 b7 0f bd 9b a6 67 bd 4e 69 6d 3d a9 5c a0 bd
       -0.035087306 -0.05655537 0.057961755 -0.078301735
000030 8c d6 db 3c 6d 4d dc bd 4a 91 fd 3d 48 c1 b3 bd
       0.026835702 -0.10756955 0.12381227 -0.087771
000040 0a 2f ab 3d 48 4a 15 3e cf 53 7d bd de c3 ce 3b
       0.08358581 0.14579117 -0.061847504 0.0063099703
000050 4a c1 05 be e4 b4 e4 3b 4c ca 2e 3e d1 08 da bd
       -0.13062015 0.0069795717 0.17069358 -0.10646213
000060 da 6f 9f bd da 83 98 3c 2d 92 24 3e 67 29 44 3c
       -0.07785006 0.01861756 0.16071387 0.011972762
000070 1f 1e 28 bd 9a 3e 74 bb 88 58 2b bd d8 cf 4f bc
       -0.04104435 -0.0037268759 -0.041832477 -0.012683831
000080 e4 74 b3 3d 48 c9 1e bd 9d 62 a7 bd 51 c6 b4 3d
       0.087625295 -0.038766176 -0.08173106 0.08826888
000090 87 69 c8 3d d7 56 27 bd d0 da a3 3d 64 3a 06 be
       0.09785753 -0.0408543 0.080007195 -0.13108212
0000a0 30 97 60 3d 25 a5 ea bc ba a7 2a be 01 5d b0 3c
       0.054831684 -0.0286432 -0.16665545 0.021528723
0000b0 68 de 28 3b bc c6 91 3d 6c 48 e5 3d f9 8a b2 3c
       0.002576733 0.07117984 0.11195454 0.021794783
0000c0 4f ae dd 3d ae 7b 96 bd a3 11 0b 3e 7e bd 97 3d
       0.10824262 -0.07347809 0.13580947 0.0740919
0000d0 8a 7a 16 bd d3 35 68 3c 77 48 29 be 60 4e d4 3b
       -0.036737956 0.014172989 -0.1653155 0.0064790696
0000e0 42 67 63 3d e5 56 ce bc 1f 2d 67 bc e0 89 01 3b
       0.055518396 -0.025187919 -0.014109879 0.0019766018
0000f0 95 00 f4 3c 4c 41 53 bd 11 38 07 3e 59 30 d8 3d
       0.029785434 -0.051575944 0.13204981 0.105560966
000100 ae 5e 22 ba c5 1b 3f bd 46 b5 37 bc 63 d5 05 3d
       -0.0006193918 -0.046657342 -0.011212653 0.032674205
000110 69 5e a9 bd 20 1e a9 bd ae cd cf 3a b1 ad c7 3c
       -0.082699604 -0.08257699 0.0015854144 0.024374815
000120 8a 46 2f 3d fe 99 3e 3e 4e e7 01 3e 6f bb 8a be
       0.04279188 0.18613431 0.12685892 -0.27096125
000130 60 04 76 bd 67 a1 83 3b ff 25 de 3c 51 23 38 3d
       -0.060062766 0.0040170434 0.027117727 0.044955555
000140 14 75 03 be 03 b1 a0 bd af 92 be 3d c1 f2 4c 3c
       -0.1283763 -0.07846262 0.093053214 0.012509049
000150 4a 35 1b 3e f5 1f 9c bc 41 d6 8a bc af 2a 1e bd
       0.15157047 -0.019058207 -0.016947867 -0.038614925
000160 fb 4d 7f bd 41 09 ce 3d 40 29 a9 bc d2 1a f1 3c
       -0.062330227 0.10060359 -0.020649552 0.029431734
000170 3e 6c 26 3e a4 9d 0d 3d 52 82 d8 3c 56 ce 08 3d
       0.16252229 0.034574166 0.026429329 0.033399902
000180 84 a7 67 bc a0 4f 2a 3e 16 5f e6 bd cc 45 b6 3c
       -0.01413906 0.16631937 -0.11248605 0.022250079
000190 24 64 ea bd 0c 0b 46 3e fb 0a 60 be cc ac d1 bd
       -0.114448816 0.19340152 -0.21879189 -0.102380365
0001a0 dd 66 6a 3c 4d 28 66 bd 5c 04 05 be b3 30 53 be
       0.014306751 -0.056190778 -0.12989944 -0.20624046
0001b0 7b da bf 3b 19 34 ad bd 04 27 e3 3d 6a 8a 59 bd
       0.0058549023 -0.084572025 0.11091426 -0.053110518
0001c0 05 26 e7 bd ff c9 9d 3d 36 33 83 bc 8f 37 04 be
       -0.112865485 0.07704543 -0.01601563 -0.12911819
0001d0 2f 77 a2 bd 6c 6c 0c 3e 34 b6 9e 3d 35 03 42 3e
       -0.07932889 0.13713235 0.07749596 0.18946536
0001e0 d4 d7 3c 3e 45 8b 06 3e 4c 2d ee 3d 3f b7 04 3d
       0.18441707 0.13139065 0.116297334 0.03240132
0001f0 e8 3d 9d bd 4c 41 96 bc fc 13 80 bc 8b 98 a3 3d
       -0.07677823 -0.018341683 -0.01563453 0.0798808
000200 90 cf 61 be ea 4b 4c 3d aa f9 fb 3c 28 03 2f 3e
       -0.22051835 0.049877085 0.030758698 0.17091048
000210 12 1b 10 bc ad 5e a4 3d 5b 1d 02 be 80 5c db 3d
       -0.008795517 0.080258705 -0.1270651 0.10711002
000220 60 24 b3 bd 2e a0 30 be bd f3 04 3d 6d 48 9f 3d
       -0.08747172 -0.17248604 0.03245901 0.07777486
000230 8c e4 1f 3d da ed 89 3d 7b 55 1c bd e4 c0 b9 bd
       0.03903632 0.0673482 -0.038167458 -0.09069994
000240 29 a7 dd 3c 1d f3 7e 3e 52 4a 80 bd 5a 75 eb bd
       0.027057247 0.24897428 -0.062641755 -0.114969924
000250 4f 43 d6 bd 86 6d e0 3d 9f 5d 17 3d 52 92 94 bd
       -0.10462057 0.1095839 0.03695452 -0.07254471
000260 28 96 5f be 33 35 81 bd bc 25 f8 bd 81 1d 21 be
       -0.21834624 -0.06308975 -0.12116572 -0.15733911
000270 bb d6 34 3d ec 32 66 bd db 56 b8 bd 6a 10 bb 3d
       0.044150095 -0.056200907 -0.09000941 0.0913399
000280 72 55 2e bc ec 65 3d be 2b 4c a1 bd 40 57 ab bd
       -0.010640489 -0.18495911 -0.07875856 -0.08366251
000290 43 3e 0f bd 48 fd 20 be bf 31 82 be 07 54 09 3d
       -0.034971487 -0.15721619 -0.25428578 0.0335274
0002a0 21 5a 94 bd 6f 1e 15 bd 4a fd 31 be 6a 27 b8 3c
       -0.07243753 -0.036405977 -0.17381778 0.022479732
0002b0 96 fb 9c 3d 2f dc 86 bd a8 13 c5 bc d7 c9 c0 bd
       0.07665174 -0.065849654 -0.024057224 -0.09413498
0002c0 3c 17 8e 3d 94 93 0f be 4c f0 ac bc 81 31 d5 bd
       0.06938025 -0.1402114 -0.021110676 -0.10409833
0002d0 a9 5e 0f be 1e 2c 6d 3d a6 54 ce 3d d2 c1 cf bd
       -0.14000954 0.0579034 0.10074739 -0.1014439
0002e0 16 5c c7 bd 55 8b 12 be 16 02 77 bd 5a 6b cb 3d
       -0.09734361 -0.14310963 -0.060304724 0.09932585
0002f0 7b 5b eb 3d 04 71 e4 3d 2d e6 02 3e 00 97 f3 bb
       0.11492058 0.111543685 0.12783118 -0.007433772
000300 ba a5 54 3e d3 a7 30 bd 19 35 68 bd 1f 69 02 3e
       0.20766345 -0.0431288 -0.056691263 0.12735413
000310 0f e1 ae 3d 04 c7 35 3e 62 7c 8c 3d 68 70 ba 3d
       0.0853902 0.177517 0.06859662 0.09103471
000320 ec 09 aa bd 08 41 8a 3d 49 1d df bc 86 36 83 bc
       -0.08302674 0.06750685 -0.027235644 -0.01601721
000330 3e 25 61 bd 7d 88 ec bc 3d 02 b1 3d 58 e2 e6 bd
       -0.054967158 -0.028873676 0.08643005 -0.112736404
000340 0f 66 8f 3d 55 b5 05 be c2 d4 e5 3d 43 66 96 3d
       0.07001888 -0.13057454 0.11222221 0.073437236
000350 dc 94 02 be 90 62 b3 bd 9f fe a3 3c 80 1f f4 3c
       -0.12752098 -0.08759034 0.020018874 0.029800177
000360 58 ea 7a 3d b5 0f f8 3c 5b b4 bc bd 94 5e 5c bc
       0.061258644 0.030280927 -0.092140876 -0.013450284
000370 32 b4 df 3d 44 1d 9d bd 45 9d 2f 3d d3 52 72 bc
       0.109230414 -0.076715976 0.042874593 -0.014790255
000380 9c 4d 03 bd b3 03 96 bd d8 d4 44 bd 29 59 8b bd
       -0.032056436 -0.07324924 -0.048054546 -0.06804115
000390 e8 c3 2f bb 93 c0 a4 ba af 32 b2 bc 99 1c f4 3d
       -0.002681965 -0.0012569599 -0.021752683 0.11919517
0003a0 76 a9 80 bb 08 a2 b6 3d e4 a2 b5 bc a5 f1 30 3e
       -0.0039264513 0.08917624 -0.022172399 0.1727968
0003b0 2d 77 5f be 56 75 4b 3d 56 3d 07 3e 34 04 fd 3c
       -0.21822806 0.049672447 0.13206992 0.030885793
0003c0 ae dc 1d be 80 6a 5c 3d e8 e7 0e be 11 bf 27 bd
       -0.15416214 0.053812504 -0.13955653 -0.0409537
0003d0 86 f0 a5 3c bd 41 84 bb 53 a5 c3 3d 0e a2 2d be
       0.020256292 -0.004036157 0.095530175 -0.1695635
0003e0 fd 43 17 3e 05 d4 05 3e ca c6 32 3e 5f cc df bd
       0.14772029 0.1306916 0.17458645 -0.109276526
0003f0 d8 98 03 be 04 76 fb bd 54 c5 f8 3c c5 7c 14 be
       -0.12851274 -0.12278369 0.03036753 -0.14500721

fc1.bias f4 [84]
000000 c8 60 0a bd 6c 9a a4 bd 5d 7a 01 bb 5d 4d c4 3c
       -0.033783704 -0.08037266 -0.0019756772 0.023962671
000010 24 07 a2 3d 8c ad 5f bd a7 c5 2e bd 06 10 12 3b
       0.07911518 -0.054608867 -0.042668965 0.0022287383
000020 36 65 a3 3d 9b 4a 2f bd d0 db 47 3d ff a2 2d 3d
       0.07978289 -0.04279576 0.048793614 0.042391773
000030 c9 b3 82 3d da 3c 90 bc 21 40 55 3b 99 4d e8 bc
       0.063819475 -0.017607141 0.0032539445 -0.028357314
000040 d2 ab 95 3d bf 17 ac 3d 51 9f 22 bd d1 58 93 3d
       0.07308163 0.08402967 -0.039702717 0.07194675
000050 a2 12 c4 bd 4e ee f3 bd ce ba 7b 3d c0 bf 3f 3b
       -0.095738664 -0.119106874 0.061457448 0.002925858
000060 b3 90 bc bc 85 56 47 bc 3d f1 40 bd 80 12 e3 3d
       -0.023018217 -0.012166624 -0.047105063 0.11087513
000070 d2 e3 96 bb 16 3a 95 3d 33 19 2a 3d 96 d4 06 be
       -0.004604795 0.0728647 0.041527938 -0.13167033
000080 4d 37 86 bd b2 f0 2f bd b8 39 f5 3c a8 25 ae ba
       -0.065535165 -0.042954154 0.029934749 -0.0013286369
000090 c5 09 9e 3d bd b4 ef 3b 5d 02 4a 3d 55 e3 26 bd
       0.07716707 0.007315247 0.04931866 -0.040744144
0000a0 40 e9 a5 3d ff 57 0e 3d 40 21 cd 3c 57 b5 ff ba
       0.081011295 0.03475189 0.025040269 -0.0019509
0000b0 35 fb 20 3d 6d 4d ef 3c 2b df 88 3c cc b9 2e bd
       0.03930207 0.029211724 0.016707977 -0.04265766
0000c0 e7 97 55 bc 0a d0 d1 3c 7e 86 8d bc b2 e2 a0 bd
       -0.013036705 0.025611896 -0.017276045 -0.07855739
0000d0 a9 51 36 bc eb ac a7 3d f9 2e 0b 3e 10 86 1b 3d
       -0.011127868 0.08187278 0.13592137 0.03796965
0000e0 7e c6 54 3d a3 c1 75 bd 86 ec d4 3c 0f 54 c7 3d
       0.05194711 -0.05999912 0.02599169 0.0973283
0000f0 aa d8 0a 3d 4e b2 5e bd a3 91 98 39 f0 dd 97 3c
       0.033898033 -0.054369263 0.00029100207 0.018538445
000100 9e e4 b2 bb 6a b0 7d 3d 7f c3 30 3c 5d fd 26 3d
       -0.005459382 0.06193582 0.010788797 0.04076897
000110 35 30 27 bc 4b c6 be 3b a0 56 88 bd d0 df 99 bd
       -0.010204365 0.005821978 -0.066571474 -0.07513392
000120 25 ef b6 3d 77 59 e2 bc c0 33 8e bd 9e 26 69 bd
       0.08932332 -0.02763055 -0.06943464 -0.056921594
000130 b1 ef bb bd 64 3c 99 3d 1a 52 8b bc d8 d6 28 bb
       -0.09176577 0.07482222 -0.017006923 -0.0025762822
000140 be 51 6c 3d c4 62 da bc 45 47 81 bd 6c c4 95 bd
       0.057695143 -0.026658423 -0.06312422 -0.07312855

fc2.weight f4 [10, 84]
000000 9b c0 8d be 23 b7 7a 3e f6 cd 90 3e ac 65 8d 3e
       -0.2768601 0.24483924 0.28282136 0.27616632
000010 95 1f 9a be 61 62 c9 bd 99 81 75 3d 0d b3 5a be
       -0.3010222 -0.098332174 0.059938047 -0.21357365
000020 b6 76 88 be 10 d1 ce be e9 73 d8 3e 62 c0 02 3e
       -0.2665307 -0.40393877 0.42275932 0.127687
000030 81 2d e1 3d 50 9b 22 3e 9c 4c 9e be 1a bc de 3d
       0.10995007 0.1587956 -0.30917823 0.10875721
000040 72 94 34 3e cb 78 f4 bd 84 87 56 be d3 95 e3 3d
       0.17634752 -0.11937102 -0.20950133 0.11112561
000050 8d 14 65 be d1 d0 2c 3e 2e ae 8c 3c 09 41 14 3e
       -0.22371121 0.16876532 0.0171729 0.14477934
000060 e8 ba 89 be 42 1b 82 3e e9 12 62 3e 19 ae 29 3e
       -0.2690041 0.2541142 0.22077526 0.16570319
000070 26 8e 84 3e 46 42 84 3d 32 38 90 be 0c 5f 4b 3e
       0.258897 0.06457953 -0.28167874 0.19860476
000080 88 66 2a 3e 35 81 1f 3e a1 3b ba be 94 67 b4 3e
       0.16640675 0.15576632 -0.36373618 0.35235274
000090 f6 da d6 3e 32 6a d9 3d 5b 6f b5 3d a6 b5 b9 3e
       0.4196393 0.10615958 0.0885913 0.362714
0000a0 52 13 fa bd c2 de 4d be cd 1b 29 3e 30 a3 a1 3e
       -0.12210716 -0.20104507 0.16514511 0.31569815
0000b0 4c d5 a8 be 6c 95 9d be f3 4b f0 3d fc cf 0d bd
       -0.32975233 -0.30778062 0.11733236 -0.034622177
0000c0 5b cb 41 3e a8 e2 b2 be 6d 52 32 3e 5e 00 e2 3d
       0.1892523 -0.3493855 0.17414255 0.11035226
0000d0 8e e8 c1 be a9 67 fd 3d 6f de 50 bd 0d f8 20 3e
       -0.37872738 0.12373287 -0.05099338 0.15719624
0000e0 db 0d 79 be b8 2e ce bd b2 35 12 3e b8 55 2c be
       -0.24321692 -0.10067505 0.14278296 -0.16829574
0000f0 85 0f 8d be 6a 7e 83 be 3b ce 58 be 08 a5 5f be
       -0.27550903 -0.25682384 -0.2117242 -0.21840298
000100 e2 dc d5 3d 51 4f ec be cf 0f aa be b9 95 a4 be
       0.10442521 -0.46154264 -0.33215186 -0.3214548
000110 6c 74 2e 3e 0e d1 8f be e3 ef a2 3d 40 b1 76 be
       0.17036599 -0.28089184 0.07955911 -0.24091053
000120 2a 36 ba be f3 40 5a be 02 f2 36 be dd f0 8f be
       -0.3636945 -0.21313839 -0.17865756 -0.28113452
000130 18 d3 8d bd 4b 41 6c 3d 3b 1e 6a be 2c dc f7 3c
       -0.069250286 0.057679456 -0.22863095 0.030256353
000140 be ce 35 3e b4 9c 6e 3e 54 78 91 be 2b b5 78 bd
       0.17754647 0.23301965 -0.28412116 -0.06071965
000150 b6 77 fe 3d f9 d1 8e be 9a eb a5 be f2 2d 1c be
       0.12425177 -0.2789457 -0.32406312 -0.15251902
000160 ab 6b 01 bd 7e 92 80 be c6 65 96 3e fa c2 9c be
       -0.03159682 -0.25111765 0.29374522 -0.30617505
000170 f9 6f c5 3d aa 18 32 bd 1a 0d 8c 3e 6d 5b 5e be
       0.09640498 -0.043480553 0.27353746 -0.21714564
000180 4f c3 61 be 54 69 27 be 18 58 8b be 9a 10 90 3e
       -0.2204716 -0.16348773 -0.27215648 0.28137666
000190 e8 23 2d 3e 91 4c bb 3e f8 42 1d 3e d4 18 32 3e
       0.16908228 0.36581853 0.15357578 0.17392284
0001a0 a4 99 83 be 4f fc 0a be 51 1c 5e be 7f d6 d3 be
       -0.25703156 -0.1357281 -0.2169049 -0.41374585
0001b0 2a 46 7e 3e d8 ee 87 be 2d b2 01 3d 58 85 6b 3e
       0.24831453 -0.2654941 0.031664062 0.23000085
0001c0 68 a1 ba 3e 5f e3 b5 be 87 a1 8b 3e 16 5a 8f be
       0.36451268 -0.35525033 0.27271673 -0.27998418
0001d0 91 5c d3 3d a4 21 94 be 85 73 40 3e d1 83 23 be
       0.1032039 -0.28931916 0.18794067 -0.15968253
0001e0 4f a6 9a 3d 7b 46 a1 be 33 0f ad 3e b4 57 e9 3c
       0.07551252 -0.31499085 0.3380066 0.028484203
0001f0 fc 63 41 3e 6c d0 4d be 55 ae 0c be 6b a6 eb 3e
       0.18885797 -0.20099038 -0.13738377 0.46025404
000200 b5 11 6f 3e f6 6c 68 3e 07 23 25 be b8 9a 86 be
       0.23346598 0.22697815 -0.16126643 -0.26289916
000210 e2 ec 48 be 37 23 93 be ce 60 21 3e 20 97 41 be
       -0.19621614 -0.28737804 0.15759584 -0.18905306
000220 78 51 23 3e f8 bb 2b be 87 e1 64 be cc 76 4b 3e
       0.15949047 -0.16770923 -0.22351657 0.19869536
000230 b9 d9 b6 be 94 59 d0 bd 50 70 3a bc 43 0a 75 3e
       -0.35712984 -0.10173336 -0.011379316 0.23929696
000240 22 3f 91 3e 7a 96 e1 3d fb ea 5b bd f8 3b 47 3e
       0.2836848 0.11015029 -0.05369089 0.1945647
000250 db 4f 88 be 0e fe 8e be 62 45 8e be 1d 0a 97 3d
       -0.26623425 -0.27928203 -0.2778731 0.07374976
000260 01 a5 48 be a5 0a 82 3e 6c 60 c8 3e ed 2e 12 3e
       -0.19594194 0.25398746 0.39136064 0.14275713
000270 6e 0b 49 3e c2 17 96 3e 46 5e 79 3e 39 04 4a bd
       0.19633266 0.29315 0.24352369 -0.049320433
000280 06 3d 66 be 6a 5f 82 3e 06 15 a4 3e 05 f8 ad 3e
       -0.22484216 0.2546342 0.3204729 0.33978286
000290 a9 aa 8a be 22 7d 03 be c5 ff 42 be 6a 56 a3 be
       -0.27083328 -0.12840703 -0.19042881 -0.31901866
0002a0 c4 6d 86 3e 9d 81 c0 bd 07 d8 9e 3e a8 0f 68 3c
       0.2625562 -0.09399722 0.3102419 0.014163889
0002b0 85 e5 c4 be bf 84 05 3f c4 72 2d be 0a b0 b3 3e
       -0.3845636 0.5215568 -0.16938311 0.35095245
0002c0 ad 22 76 be 09 6d 95 be b1 ed 7e 3e ba 41 89 be
       -0.24036665 -0.2918475 0.2489536 -0.26807958
0002d0 2f fd dd 3e 44 ba 57 be 9d 3b 32 be 25 64 c8 be
       0.43357226 -0.21067148 -0.17405553 -0.39138904
0002e0 c4 a5 5b 3e 09 54 9a be f0 b0 3f 3e 68 e2 be be
       0.21449953 -0.3014224 0.1871984 -0.3728211
0002f0 0a 9e 93 3e 6a 8d 49 be 67 ee 9f 3d ae 0a 0a bd
       0.28831512 -0.19682851 0.078091435 -0.03370159
000300 ed 91 95 3e 50 fb b6 bd 69 c5 bd bd 37 4c 32 3e
       0.29212895 -0.08934653 -0.092661686 0.17411886
000310 30 de aa 3e 25 d6 03 be 49 58 47 bd 9e f0 27 3e
       0.3337264 -0.12874658 -0.04866818 0.16400382
000320 f8 fe 53 be b6 55 a8 3e 7f ae e3 be 14 6e 3d 3e
       -0.20702732 0.32877892 -0.44469067 0.18499023
000330 84 f3 7f be d8 72 19 be 31 ec 81 be aa 4c 95 be
       -0.24995238 -0.14985216 -0.25375512 -0.29160053
000340 00 fd cc 3e 93 c2 70 be b1 7a 56 3e fe 2e 67 be
       0.40036774 -0.23511724 0.2094524 -0.2257652
000350 2c ed 0f bc c8 03 81 3e b6 56 38 3e 2d 47 6e bd
       -0.0087845735 0.25198197 0.18001828 -0.058173347
000360 63 c6 a2 3e 5f 7a f6 bd 71 30 41 3e 39 f3 6c 3e
       0.31791982 -0.12035059 0.18866135 0.23139657
000370 95 41 53 3e ca a1 a9 3e b5 5d 87 3e ff 15 cd bd
       0.20630486 0.33131248 0.2643868 -0.10013961
000380 86 7e 87 3e d7 e8 25 be 1d 68 74 3e 21 dd 94 3e
       0.26463717 -0.16202103 0.23867841 0.29074958
000390 03 78 87 be e9 db 95 3e b4 3f 98 3d d9 d0 3e 3e
       -0.2645875 0.2926934 0.074340254 0.18634357
0003a0 a6 c5 6a be 5f ae 30 3d c3 83 84 be 4f 85 6c be
       -0.2292696 0.043135043 -0.25881776 -0.23097728
0003b0 f4 a6 3b 3d 0e b1 9e 3e 4e 1e c5 3d e3 e6 3d 3d
       0.045813516 0.30994457 0.09624921 0.04636277
0003c0 cc ee 84 be e2 d2 d4 3e 54 ae 15 be 7b 13 b3 be
       -0.25963438 0.4156714 -0.14617282 -0.349758
0003d0 d1 93 fa bd 50 d9 da be 7a a3 3d be 26 de 18 be
       -0.12235225 -0.4274392 -0.18519393 -0.14928493
0003e0 ca 60 8b be 72 da 8a 3e d5 28 5e 3e e3 c8 3b be
       -0.27222282 0.27119786 0.21695264 -0.18338351
0003f0 89 24 3d 3e be f2 2b 3e 9d 38 30 be 60 2c 8f bd
       0.18470968 0.16791818 -0.17209096 -0.06990886

fc2.bias f4 [10]
000000 0d 93 1b bd 61 50 88 3d 9d e6 d3 3d 66 40 13 3d
       -0.037982035 0.06655956 0.1034672 0.035950087
000010 e3 49 8d 3d 8f 58 e4 bc bd a9 e6 bd 29 18 dc bc
       0.068988584 -0.02787426 -0.11262844 -0.02686699
000020 fb 54 4e 3d c3 e0 1f bd
       0.050374012 -0.03903271
