models/lenet5_mnist_2146.pth (torch, 250917 bytes, 10 tensors)

c1.weight f4 [6, 1, 5, 5]
00000000: c02c adbd 0943 ee3d cd4d 92bc a02e b63d
00000010: f2c9 5dbd 8723 28be 1cde 35be e776 eb3d
00000020: 537b 523d 24e7 3bbe e34a cbbd 2ee6 74be
00000030: 698e 07be d7de 91be 7a1b 4dbe 0e08 2b3e
00000040: c145 9a3d 4549 033d 50f0 1dbe 34dc 19be
00000050: 63c5 a13d ca00 9b3d 1ca5 07be 1d40 abbd
00000060: 387c 473e ccfd 0abc df37 c93d 8ffe 583d
00000070: 930a 5dbe 6c7e 80be c271 89bd 3058 65be
00000080: 38f9 43be 827d b1bc 3bc7 ea3c 2df6 febd
00000090: 1333 f0bc 676a 4ebd b8d9 82bd 6dc8 cb3d
000000a0: af92 a23d f434 883d dce2 c73d bda5 823e
000000b0: 0b8f 3e3e d776 f93d 775c c63d 70a9 d33c
000000c0: 76b2 fd3d 07dc ab3d 7b00 19bc d108 c8bc
000000d0: 4d0c 8bbe 4ecb 47be 39f2 28be e433 3bbe
000000e0: 6339 7fbc 3d7c fcbd f78e 15be 9c1b 183d
000000f0: b3fa 503b 7ed0 1fbc 829d ec3c 1a36 3c3e
00000100: a899 09be 6b23 59bd 65f8 e5bd 6244 5e3e
00000110: e02c 493e 0555 10bc 15a2 c53d a2a6 803e
00000120: 5643 123e 4f07 6d3e cf36 c3bc 0411 c23d
00000130: b39a 19be ea26 1e3e 91e1 25be 17f4 3f3e
00000140: ab91 bfbd 22e6 233e 8db8 683d 4628 8c3e
00000150: 6d9e 3f3e 2245 a73d 6adb 6d3e 2137 93bd
00000160: 3036 513d 9139 793e 1137 7f3e f6a1 5b3d
00000170: 2dd1 633e e22a dabd 6498 d2bb 7e98 ad3d
00000180: a319 81bd a462 403e 950f d4b9 42a4 01be
00000190: 7bbf 10bd 94a2 183e 2c1b 5c3e d8e8 c1bc
000001a0: 7767 623e 706d b23d 6e26 03be 2688 dabd
000001b0: 2986 6abd ca6d 383e b4ee 9ebe b00b 39be
000001c0: 638c 043d 9aca 283d 4b94 a23e 2a92 cc3d
000001d0: c0f2 c03c f19d 543d e212 533e b93a b0bd
000001e0: d618 8cbd f301 dabd e63b 24be 3cd4 783e
000001f0: e13c 363e edbd 02be 8c55 cd3d 8ca9 6a3c
00000200: e5f8 16bd 5ee8 0fbd 8750 333d 20ff 91bd
00000210: f06e 603d e1d0 9ebd 2508 133e c942 3f3e
00000220: cca2 3f3d b89b 343e 0520 253e d9c1 8d3e
00000230: 87f3 ab3d 6ef6 4f3e a237 97bd f398 fe3d
00000240: d1ff 693e f737 1cbe d173 3a3e 35a4 06bc
00000250: c172 19be 5e07 02be
-0.08455801 0.1163388 -0.017859364 0.08895612 -0.05414767 -0.16419803 -0.17760509 0.11497288
0.051387142 -0.18349892 -0.09926393 -0.23915932 -0.13237919 -0.28490326 -0.20030013 0.16702291
0.07532836 0.032052297 -0.15423703 -0.15025407 0.07898977 0.0756851 -0.13246578 -0.08361838
0.1948098 -0.008483361 0.0982511 0.05297714 -0.21586065 -0.25096452 -0.06711151 -0.22396922
-0.19138038 -0.021666292 0.028659454 -0.12449298 -0.02932123 -0.050394442 -0.06389183 0.099503376
0.07938134 0.06650725 0.09760067 0.25517073 0.18609254 0.1218087 0.09685605 0.02583763
0.12387554 0.08391576 -0.009338493 -0.024418266 -0.27157822 -0.19511148 -0.1649865 -0.18281513
-0.015577647 -0.12328384 -0.14605318 0.037135705 0.003188771 -0.009754298 0.0288837 0.18380013
-0.13437521 -0.053012293 -0.11229018 0.21705773 0.19646025 -0.008809333 0.09650055 0.2512713
0.14283499 0.2314732 -0.023829846 0.09475902 -0.1500042 0.15444532 -0.16199328 0.18745457
-0.09353956 0.16005757 0.056816626 0.27374476 0.18712778 0.08167483 0.23228231 -0.071882494
0.051077068 0.24338366 0.2492335 0.053621255 0.22247763 -0.106527105 -0.006426858 0.08476351
-0.06303718 0.18787628 -0.000404474 -0.12660316 -0.03533886 0.14905769 0.2149474 -0.023670599
0.22109781 0.0871228 -0.12807629 -0.106704995 -0.05725685 0.18010631 -0.3104149 -0.18070865
0.032360446 0.04120884 0.31753764 0.09988816 0.023553252 0.051908437 0.20612672 -0.086049505
-0.068406746 -0.10644903 -0.16038474 0.24299711 0.17796661 -0.12767763 0.100260824 0.01432265
-0.036858458 -0.035133712 0.04377797 -0.07128739 0.0547933 -0.07754684 0.14358576 0.1867782
0.046786115 0.17637527 0.16125496 0.27686957 0.083960585 0.20308849 -0.07383658 0.124315165
0.22851492 -0.15255724 0.18208243 -0.008217861 -0.14985181 -0.12698123

c1.bias f4 [6]
00000000: ff35 2d3e d143 363e 3013 d1bd 7566 35be
00000010: 6fd5 53be 6c76 20be
0.16915129 0.17799307 -0.10208738 -0.17714866 -0.20686887 -0.15670174

c2.weight f4 [16, 6, 5, 5]
00000000: e19a 7bbc a9e6 c1bd c6b2 c4bd 8c10 79bd
00000010: 798f 7abd 88f7 1e3d 5803 093b 71f2 893c
00000020: 1c65 163c 06ca 583d 2200 9abd b9ef 9cbd
00000030: 5b56 aebd 1d88 0cbd 85d3 b5bd 6e4f 0cbd
00000040: 971c a03d 927b 9c3d 6ca0 673c 700e cebc
00000050: d66f e63d 44f9 513e 3b34 ae3d 2b5c f63d
00000060: 7d45 603d 9c71 f03c 0885 80bd d300 17bd
00000070: fdc3 56bd 1fb3 89bc cc13 bcbc bb9c 5bbd
00000080: 1d68 5fbd a39d d93c 001a 363d 4e33 45bd
00000090: c977 423d 763e bbbd eccb 06be b25f 663c
000000a0: 0211 28be 5046 2abe 822c d9bd 4f01 dbbd
000000b0: 0c45 ba3c 89fc 8bbd 34ac d43d 7c50 0d3d
000000c0: 5ab5 9c3d 43d6 99bd 32ab d23d 180a 21bc
000000d0: dc0d 9d3c 462e cd3d 1c82 50bb 8f0c 5bbb
000000e0: 2f59 a43d fdce c7bc c789 21bc 6e66 153e
000000f0: f8fe c33d 468c aabd 6a87 cdbd 9a78 8fbd
00000100: 0972 573d def5 b8bd c588 4ebc ad1e 0bbe
00000110: 9869 dbbd 5b6d bbbd ebea 46bd 5a70 043d
00000120: 0c54 023d d275 fd3d 0bf1 cf3c 0e5c 7d3d
00000130: c510 e63c fd06 b73c 09be 90bc 0b93 353d
00000140: a751 863d f84c 653a 3942 80bd 9dc1 303d
00000150: 87b6 233d b726 2c3d a9f6 c73c 246a a03d
00000160: d186 b83d 4378 c3bb c6b1 cf3d e761 713d
00000170: 1fdc 1f3d b99d 453c c4b8 da3c 59c0 9bbd
00000180: 9a2f 79bc b98c 1cbe 31bd 1fbe fa9b 993b
00000190: a79c 29bc 73dd 9f3d 13ac d23c fe37 353d
000001a0: 75a7 b4bd 1b25 0d3d 23ed 813c 635e 8b3d
000001b0: 6b14 893d 7b2d c43c 684c 0e3d 9846 56bb
000001c0: aa5c eeba a7ab 8d3d 2ccc c83d 9740 773d
000001d0: 801e 94bb f92c e33d db51 9c3d 3ce4 0ebd
000001e0: d0e5 b03d f03f 4d3d 17f3 983d 9631 01bd
000001f0: f2ac 0c3d cf39 f1bc 5baa 18bc 3889 8b3b
00000200: 8c79 b5bd 8fa2 81bd f374 a13c 6536 973d
00000210: 9ee5 af3d b1e2 863c 3e93 ad3d baa9 f6bc
00000220: f4cd 483d ce2c 9a3d 1602 053e 534a 6b3d
00000230: 698a 5fbd 389a dfbd 43fd 0bbe 0ba5 d8bd
00000240: e1d5 243b 619e e0bc 88c8 17be 5306 0dbe
00000250: 5bee a8bb 70bf aabc 2146 59bc 6d0e 21bc
00000260: ea24 64bd b5df 1fbc 1d27 fe3b d2c1 cdbc
00000270: f903 5abd 7739 c7bd afd8 833c fd72 4dbd
00000280: 30fc 533d 6e5e cb3d e774 083e 889a 803d
00000290: 1db7 8e3d 7965 8fbd f4e0 b7bd 1479 cd3d
000002a0: 8559 fe3d 58ad 083e 16a0 72bd 591f dfbd
000002b0: 7e8c cabd b6b6 91bd cdb5 38bc ecc5 1dbd
000002c0: da8a b33d 0b22 9b3d b9b4 643d 5183 513c
000002d0: cec6 c9bd 8010 5abd 2376 313d 697a cbbd
000002e0: c66a a5bd 446d 713b 9ef8 943d a9b7 07bd
000002f0: cd76 07be b17e 9fbd 56bc 57bd 12a8 e43c
00000300: b0ee c63c 2a4a 5fbc 886b 653d 96f4 60bd
00000310: 852c c73c 473f ce3d fd8c 68bd ce46 d5ba
00000320: 520b e3bc 474f bd3d 3d14 123d 66e0 313d
00000330: 3589 1f3d b90a c7bc d606 063d 1070 47bd
00000340: 5ef9 01be 8b66 a6bd f155 8f3d aa50 2b3e
00000350: bfa8 833d 098f 50bd 7a01 abbc b143 7a3d
00000360: 7b76 e6bc 1d30 913d 977f d13d bc9f da3d
00000370: c561 373d a3f2 a13d dd0c 65bc 8ebb 373d
00000380: 61e6 403d e143 aa3c d4f3 7f3d 84d0 793d
00000390: 5dca 2dbd fca9 fe3c 29ed 623d ec49 bf3b
000003a0: ebe2 353b f226 4f3d b829 dc3d 6e81 193d
000003b0: 812e 033d 1384 f33c efb9 93bd 2b1d 6bbd
000003c0: 5404 d63d 0c3b 383d c0bb 033c a053 3cbd
000003d0: eb65 89bd 3799 8e3d eea5 813c 078f e43c
000003e0: 8fca 933d 2e12 e13c 76f0 a4bc 23f5 ee3c
000003f0: 2026 fb3c 2e23 cbbb 24c2 963d c32b 2b3d
-0.01535675 -0.09467823 -0.09604411 -0.060806796 -0.061171982 0.038810283 0.0020906534 0.016839238
0.00917938 0.05292704 -0.075195566 -0.07662911 -0.08512565 -0.034309495 -0.08878235 -0.034255438
0.07817953 0.07640757 0.014137369 -0.025153369 0.112518 0.20505244 0.08506056 0.120292984
0.05475377 0.029351048 -0.06275374 -0.03686602 -0.052433003 -0.016809044 -0.022958659 -0.053616267
-0.05454265 0.026564425 0.04445839 -0.04814463 0.047477517 -0.09142773 -0.13163728 0.0140609015
-0.16412738 -0.16628385 -0.10604192 -0.10693609 0.022738002 -0.06835277 0.10384408 0.034500584
0.076517776 -0.0751157 0.10286559 -0.009829067 0.019171648 0.100185916 -0.0031815832 -0.0033424234
0.08024823 -0.024390692 -0.009859509 0.14589855 0.09570116 -0.08327536 -0.10035594 -0.07005425
0.052598987 -0.090312704 -0.012605851 -0.1358592 -0.107135 -0.09151717 -0.04856388 0.03233371
0.031818435 0.12375988 0.025383493 0.06185537 0.028084168 0.0223422 -0.01766874 0.044329684
0.06558543 0.0008747126 -0.06262631 0.043153394 0.039968994 0.04202911 0.024409609 0.07832745
0.09010089 -0.005965264 0.101413295 0.058931258 0.039028283 0.01206153 0.026699431 -0.07605047
-0.015209103 -0.15288056 -0.15599515 0.0046877833 -0.01035229 0.0780591 0.025716817 0.04424285
-0.088210024 0.034459215 0.015860146 0.06805112 0.066933475 0.023947468 0.034740835 -0.0032695886
-0.0018185575 0.06917506 0.09804568 0.060364332 -0.0045202374 0.11092562 0.076328 -0.03488563
0.08637583 0.050109804 0.07468241 -0.03154143 0.03434462 -0.02944651 -0.00931796 0.004258301
-0.08861074 -0.06329834 0.019709086 0.07383422 0.08588718 0.016465517 0.0847535 -0.030110229
0.049024537 0.07528077 0.12989077 0.057443928 -0.054575358 -0.10918087 -0.1367083 -0.105783544
0.0025151896 -0.027419271 -0.1482259 -0.13771944 -0.0051553673 -0.020843238 -0.013261349 -0.0098300995
-0.055699266 -0.009757926 0.0077561275 -0.025116835 -0.053226445 -0.097277574 0.016094534 -0.05015849
0.051754177 0.099301204 0.13325845 0.062794745 0.0696852 -0.07001776 -0.08978453 0.100328594
0.12419418 0.13347375 -0.0592347 -0.10894651 -0.09890078 -0.071149275 -0.011273813 -0.03851883
0.08766718 0.075748526 0.055836413 0.012787656 -0.09852372 -0.053238392 0.043325555 -0.09935457
-0.08077006 0.003683881 0.072739825 -0.033134136 -0.13228913 -0.07787836 -0.052669846 0.027912173
0.024283737 -0.013628522 0.056010753 -0.054920755 0.02431322 0.10070663 -0.056775082 -0.0016271712
-0.027715359 0.092436366 0.035663832 0.043426894 0.03894921 -0.024297105 0.032721363 -0.048690856
-0.12692782 -0.08125027 0.06998814 0.1672999 0.0642867 -0.05091766 -0.020874728 0.06109971
-0.028132668 0.07089255 0.10229414 0.10674998 0.044770975 0.079076074 -0.013980118 0.0448566
0.047094706 0.02078432 0.062488392 0.06098987 -0.042429317 0.031086914 0.055401955 0.0058376696
0.0027753662 0.05057425 0.10750145 0.03747695 0.03202677 0.029726064 -0.072131984 -0.057400864
0.10450044 0.044978186 0.008040369 -0.04597819 -0.067088924 0.06962817 0.015826192 0.027900232
0.07216369 0.027474489 -0.020134192 0.029169625 0.030657828 -0.006199262 0.07361248 0.04178978

c2.bias f4 [16]
00000000: 802d f9bd d69e bf3c 6019 17be a051 8dbd
00000010: 1250 7abd 3d11 39bd 17bf efb9 8193 2d3d
00000020: 29ce adbd 7f7b f03c 1a8b dc3c f13e bcbd
00000030: c15e 09be c5e7 dbbb ffdc 2cbd 965b c03c
-0.121668816 0.023391169 -0.14755774 -0.06900334 -0.061111517 -0.045182455 -0.00045728005 0.042377
-0.084865876 0.029355763 0.026921798 -0.091916926 -0.13415052 -0.0067109787 -0.042202946 0.023481172

c3.weight f4 [120, 16, 5, 5]
00000000: 7499 4ebd 5661 71bc 3a86 74bd a6fd 833c
00000010: f1d1 b1bc abbb 2b3d 5f16 613d 32f9 abbd
00000020: a95a cbbb 08d9 53bb 6d95 acbd 9972 d9bc
00000030: 5c5d 64bd 2c7f 5f3d 3285 a33d bf74 b2bd
00000040: 4c9a 50bc 7551 463b 4f49 98bc 5d0a 563d
00000050: d6c5 483d 2fe9 acbb 5d7d 4d3c ef72 bf3b
00000060: 4984 1e3d c9e5 3dbd 0511 763d ba10 d1bc
00000070: c628 133c 3b55 35bd 2f8e 363d e030 c9bd
00000080: 5c23 30bd 9cbf 04bd 26e5 ea3b 7d5e e9bc
00000090: 6dbf e6bb b7b9 d43b 201a 393c 1336 a0bd
000000a0: 31fc 02be 0458 b4bc 1d66 1ebd 4a07 90bd
000000b0: 001f 40bc 8e7f 56bb e5ce 813d b28b fbbc
000000c0: 1668 323d dbb9 7bbd feef e7bc 7f2a 1ebd
000000d0: cc78 92bc f5a7 95bd 03db e43c 167c bbbc
000000e0: 050d 91bc 543e 2b3d f382 ab3b 0873 c23c
000000f0: 515c f2bd 2481 8fbc d8f5 6a3b 78db 293d
00000100: c93f f73c c8ac ecbc 6ef7 8a3c e466 1cbc
00000110: 5670 553c 2b41 c23c 7bba 663c f1dd 893d
00000120: 1694 4cbc 35e6 d43c febe 0dbd 7efb cfba
00000130: caae db3b dfa1 363c cf76 61bc 08d1 28bc
00000140: 6529 94bd 8685 d83c 6dc3 89bd 11f7 08bd
00000150: 21df 053b db2e b6bd b32e 5b3d 6eec 8abc
00000160: a507 f23a 0328 063b c90e 51bc c369 f5bb
00000170: c0d3 46bd 73d0 853c 0582 3c3d aaf1 753d
00000180: 4e2a a5bc e21c 903d c78d 893d e7d1 9f3c
00000190: ffbc 043b a347 c73d fe8f 963c 08e6 d93d
000001a0: ecd9 6b3d 3d3b 363d 0a10 713d d295 39bd
000001b0: 8146 803d 2e51 74bd a8f1 6ebb 9ffd 5bbd
000001c0: fc98 cabc 39cf 053d 61f2 f8bc 19ce e53c
000001d0: 0c78 073d 6d5a 803d ecec 723c 3005 023e
000001e0: 754e 263d df0f 6a3d dcfd 04bd 81f7 b8bc
000001f0: 6773 133d 4a13 91bc af4b a2bd 4557 d13a
00000200: 6334 9ebc cfb2 90bd 95c1 113c 60fe 83bd
00000210: 14be 0f3d 1291 883b f9aa 15bd 0b5c cbbd
00000220: 3836 46bd 6049 703d f8a8 18bd 93ee 3fbc
00000230: 827d 0ebd 76c9 d93a 1563 22bd e8e0 c13c
00000240: 47c7 d0bc c6af 36bd 54b6 88bd a7cb babd
00000250: 4d61 30bd 45b1 2f3d 11bb d43b 0908 c83c
00000260: ecaf 9d3d 07be 463d 014b 3cbd e05a 113d
00000270: 27b7 d2bc ee94 9b3b 1327 3ebc 8ead f1bc
00000280: cde4 ebba d97e df3c a02a ef3c ce10 e93c
00000290: 4e21 c53c 62f8 a0bc 6492 a0bc cbaa 1dbc
000002a0: 4ffa 003c 469a 2a3c 471a 95bd c063 cd3c
000002b0: 29fe 91bb 8e0b 15bd 4ee6 5abb cc79 19bd
000002c0: 1af3 cf3d be84 c73d 7c39 eb3c 87b1 8d3c
000002d0: c636 6e3c 9743 a43d 978e 093d 8320 d0bc
000002e0: 2ea4 bf3c abe5 9b3d eb74 9d3c 88a8 a03b
000002f0: a8fa 83bd 4a20 04bd 633e cabc 223a 4e3d
00000300: 71a2 e1bb e1aa 733c 16f3 09bc 2edc 5cbd
00000310: ce66 053d edce 103d c0fc ad3c 3ac8 3b3c
00000320: 43b6 7bbc 6c9c 463d 1530 b7bb df0c 83bd
00000330: bcaf af3c f88c 27bc 08c9 d6bc 30d4 c13d
00000340: 7d5d a6bd 4cbe 94bc 549d 09bd fe97 6a3d
00000350: eebc 0c3e 1894 39bd 814b bc3d 2334 d33c
00000360: b787 023d 557c a6bd b108 63bd 01c5 4bbd
00000370: f4c6 85bd 8ff1 aebc d61a fdbd 374c a6bd
00000380: 6cac 64bc dfe8 23bd 848c c83a b6cd 783d
00000390: 422b 073e 09f8 053d e44b babc 3be5 3cba
000003a0: 5e81 c43b d388 cc3c b092 ddbc 7771 07bc
000003b0: 2f83 bcba 86d3 3abc 7feb fa3c 6823 843b
000003c0: 9688 65bc 0808 3abd a79a dfbb 0070 573c
000003d0: fbd9 a63d f97f 4a3d 99c7 3c3d 48aa 623d
000003e0: a329 e33c d839 23bc 60f5 49bd ca8d a0bd
000003f0: ea09 97bc dbbc e33c c388 cd3d 88a5 613d
-0.050439313 -0.014732679 -0.05969832 0.01611216 -0.021706553 0.04192702 0.054952975 -0.083971396
-0.006205876 -0.0032325406 -0.08426938 -0.026543902 -0.055753097 0.05456464 0.07984389 -0.08713674
-0.0127321 0.0030260955 -0.018589644 0.052255977 0.049016796 -0.005276821 0.012542096 0.0058425586
0.038700376 -0.04636172 0.060074825 -0.025520671 0.008981889 -0.044270735 0.04456919 -0.09823775
-0.04300247 -0.032409295 0.00716843 -0.028487438 -0.0070418627 0.0064918655 0.011297733 -0.07822814
-0.12791516 -0.022014625 -0.0386716 -0.0703264 -0.011726141 -0.0032729837 0.0633829 -0.03070626
0.043556295 -0.061456542 -0.02831268 -0.038614746 -0.017879866 -0.07307426 0.027936464 -0.022886317
-0.017706404 0.041807488 0.005234116 0.023736492 -0.11834014 -0.017517634 0.00358521 0.041469067
0.030181782 -0.028890982 0.016963687 -0.009546015 0.013027271 0.023712715 0.014082546 0.06731785
-0.012486478 0.025988678 -0.034605972 -0.0015867797 0.006704186 0.0111469915 -0.013761236 -0.010303743
-0.07234458 0.026430856 -0.06726728 -0.033438746 0.0020427185 -0.08895656 0.053511333 -0.016958442
0.0018465413 0.0020470626 -0.012759873 -0.0074894144 -0.048541784 0.016334748 0.046022434 0.060044922
-0.020161774 0.07036759 0.06716495 0.019509269 0.0020254252 0.097304605 0.018379208 0.10639578
0.057580873 0.044490088 0.058853187 -0.045308895 0.062634476 -0.05964773 -0.0036459956 -0.05370867
-0.024731152 0.032668326 -0.030389013 0.028052377 0.03307347 0.06267247 0.014826994 0.12697291
0.040602166 0.057144042 -0.03246866 -0.022578957 0.035998728 -0.017709393 -0.07924592 0.0015971443
-0.01931209 -0.07065355 0.008896251 -0.064450026 0.035093382 0.0041676844 -0.036540005 -0.09929665
-0.04839155 0.058663726 -0.037270516 -0.011714595 -0.034787662 0.0016615826 -0.039645273 0.023666814
-0.025485648 -0.044601224 -0.06675401 -0.09120875 -0.043061543 0.042893667 0.0064920266 0.024417894
0.0769957 0.048521068 -0.045969967 0.035487056 -0.0257221 0.0047479784 -0.011605996 -0.029501703
-0.0017997265 0.027282165 0.02919513 0.028450396 0.024063732 -0.019649688 -0.019601054 -0.00962324
0.007872178 0.010412758 -0.07280403 0.025071979 -0.004455347 -0.036387973 -0.0033401432 -0.03746967
0.1015379 0.097421154 0.028713934 0.017296566 0.014539426 0.08020704 0.03358325 -0.025406128
0.023393717 0.07612165 0.01922079 0.004902903 -0.06444293 -0.032257356 -0.024687951 0.05034841
-0.0068858196 0.014872284 -0.008419773 -0.053920917 0.032568745 0.03535359 0.021238685 0.011461312
-0.015363279 0.04848902 -0.0055904486 -0.06398939 0.021446101 -0.010226481 -0.026218906 0.094643
-0.081233 -0.018157147 -0.033597305 0.057273857 0.13743946 -0.04530725 0.09194089 0.025781697
0.03186771 -0.08129183 -0.05542821 -0.049748424 -0.06532088 -0.021355418 -0.12358634 -0.081200056
-0.013957124 -0.040017005 0.0015300666 0.060743056 0.13200095 0.032707248 -0.022741266 -0.0007205789
0.005996867 0.024967587 -0.027047485 -0.008266798 -0.0014382357 -0.01140297 0.030629871 0.004032541
-0.014009615 -0.045417815 -0.006823856 0.0131492615 0.08147045 0.04943845 0.04608879 0.055338174
0.027729815 -0.0099625215 -0.049306273 -0.07839544 -0.018437345 0.027800014 0.10035851 0.055089504

c3.bias f4 [120]
00000000: 1e96 b5bc d40c ec3b 02e2 0abd fc20 86bc
00000010: 74d4 40bd ff26 13bc 43ae 8c3d 5a67 52bd
00000020: cf78 9a3c 16b1 4cbd 88f8 e33c 7dae d23b
00000030: 6f4b 9c3c f319 45bd 04d0 693d 593c f73c
00000040: 36d9 54bd 7bcd f0bb 1605 0eb8 02b9 5bbc
00000050: fdb7 47bc 7fb5 52bd f9c5 c1bc e864 1fbb
00000060: ae3b 13bc 7890 ad3b 4abc 25bd 61dc 51bd
00000070: 2237 62bd 634c a43c 2558 62bd c332 c7bc
00000080: 9865 2ebb 060d 21bc abe7 123d 6c4f e83b
00000090: 94d3 2abd 9a20 c63c ac29 1ebd e5e5 22bd
000000a0: 992f 193d 0049 07bd c6ee 1dbd e33d 34bc
000000b0: ad0d 54bc 6a1b 2ebc 111c f5bc 3475 143d
000000c0: 37d2 253b 3f00 e0bc 60e2 1ebd b5e9 90bc
000000d0: c81b 703b f713 95bb f364 913c 43b0 5a3c
000000e0: d598 f9bc 4b57 adbc 01cb 963b 8d68 3dbd
000000f0: 801b 1e3d 1b5f 27bd e55c 123d 0c58 f6bc
00000100: f1ab 0dbd 1ce0 debc c790 263d b895 17bb
00000110: b0ae c63c 266c d63c c430 9b3b da78 943c
00000120: ff3b e13c ea64 193c 1b84 aebc 337b b2bc
00000130: af4c a2bc 7b76 ae3c 0ab1 da3c 2d76 98bc
00000140: 6b3e 08bb 35a6 1a3d 587e b53b 6a35 273d
00000150: 3c62 4fbd 4151 3ebc bfed 6e3d af03 1d3d
00000160: a1c9 4e3d aa4b 533d 6148 133d 7ae3 843c
00000170: e6b3 8fbc 4337 11bd ad1f 163d 4726 a1ba
00000180: cd7a f5bc 893c 183d 3dcc 963b f93f 583d
00000190: 51d8 223d 995a 983c 0e01 59bc a951 9ebc
000001a0: 76d1 7abc b486 10bb a7a5 5d3c 6f90 41bd
000001b0: 34e1 923c 1e0b f33c f4b9 a53c 0530 313c
000001c0: 9f4d cc3c 62c8 81bd af2e cc3c 1472 083c
000001d0: 07c4 0dbd dce1 2d3d f92d 22bd 77a9 263d
-0.022166308 0.0072036777 -0.033906944 -0.01637315 -0.04707761 -0.008981465 0.06869175 -0.051368095
0.018856434 -0.04997357 0.02782847 0.006429492 0.019078938 -0.04812045 0.057083145 0.030180143
-0.05196496 -0.007348714 -3.3860175e-05 -0.0134108085 -0.012189862 -0.05144262 -0.023653971 -0.002432162
-0.008986397 0.005296763 -0.04046277 -0.05123556 -0.05522836 0.020055955 -0.055259842 -0.024316197
-0.0026610848 -0.009829765 0.035865467 0.007089546 -0.041705683 0.024185468 -0.03861396 -0.039770026
0.03739891 -0.033028603 -0.03855779 -0.011001083 -0.012942714 -0.010626653 -0.02992061 0.036244586
0.00253023 -0.027343867 -0.038790107 -0.017689565 0.0036637653 -0.004549499 0.017748332 0.013347688
-0.030468384 -0.021159789 0.0046018367 -0.046242286 0.038600445 -0.040862184 0.035733122 -0.03007128
-0.034587804 -0.027206473 0.040665414 -0.002313001 0.02425322 0.026174616 0.004736038 0.018124033
0.027494429 0.009362439 -0.021303227 -0.021787262 -0.019811956 0.02129673 0.026695747 -0.018611038
-0.0020789157 0.037756164 0.005538743 0.040822424 -0.050630793 -0.011616052 0.0583322 0.03833359
0.050485257 0.05158583 0.035957698 0.01622175 -0.017541837 -0.035453092 0.036651302 -0.0012294733
-0.029965783 0.037167106 0.004601984 0.052795384 0.039757077 0.018597888 -0.01324488 -0.019326048
-0.015308728 -0.0022052946 0.013528264 -0.047256883 0.01792965 0.029668387 0.02023027 0.010814671
0.024939356 -0.06337048 0.024924604 0.00832798 -0.034610774 0.042451724 -0.039594624 0.040688958

fc1.weight f4 [84, 120]
00000000: 2983 dabd b836 2abd cd7f 32bd 061e 10be
00000010: 83ed fd3d deee 80bd 72a0 a63c a8f2 843c
00000020: 0ae4 203d 6c25 58bd b639 a9bc bcfe 13bc
00000030: c10d 06be 2efb 7d3d dfe3 ae3d c95d b0bd
00000040: 045b 6c3d cc1d c4bd 079f ad3d 07c8 743d
00000050: 735e 2cbd c4c9 8abd 4a35 42bb 605b 533d
00000060: 3b2d 97bd a095 d53c af7f 1dbc 85e9 e6bd
00000070: 228c 503e d413 873d 5061 a33d 08c2 d73d
00000080: 17ac eabd 1563 383c 810e 8d3d 91fe ffbd
00000090: f637 de3d 4dda c53c cb74 f03d eb53 0d3d
000000a0: 7320 703d 7a2d 8f3d 095d f13c 9043 70bd
000000b0: 1b11 22bd 6f06 b83a 0c09 acbc 3000 abbd
000000c0: 0c48 49be 96fe 023d b6dd 243e c6c1 3f3e
000000d0: b85a 23bd fef0 023c 8540 2dbe 8dfb 163e
000000e0: 68d2 343d 44ca a93d e61e d2bd 7e86 dcbb
000000f0: 1448 b23d 6ca1 66bd 7a9a 92bc c4ff 523c
00000100: a7c3 32bc 7f8d 4cbe 6a52 1abe c3c3 4b3d
00000110: b147 f3bd 7d4b fabc af88 123c 29b3 32bd
00000120: 53df 21bd 64a1 acbd 4379 533e 7092 1fbd
00000130: aa8b 3bbd 1099 1f3d 5346 ab3d 6908 413d
00000140: 0d1b 853d a562 53bd 1b80 a3bd dc03 debd
00000150: fb1f db3d 0d3a 4cbc 198e e5bd 772e 023d
00000160: ebab 5bbd 0fcd 923c 6bf3 ce3d 2264 9d3c
00000170: dc0f c4bd 9793 b6bd 5d3d 3e3e 53f9 99bd
00000180: 4075 a5bd 89e8 ee3d d3f3 043e d82b 1f3e
00000190: ecee 1abe 9867 ebbd 1891 1fbd f91e 8e3b
000001a0: d1ec b4bd ac2a 733d bec5 013e 9a17 cc3c
000001b0: 3dfd 47bc ead6 bebd f636 a23d d3fa 263e
000001c0: 405e 55bd de3b 4f3e 33f4 053c 2699 d1bd
000001d0: a853 c03b aedc bebd 5cf0 fbbd efea 29bc
000001e0: 074d 833d 7b4b 013d b7a6 e93c 31c8 abbc
000001f0: 97a8 b43d ea2d aa3c e95e 22be d909 afbd
00000200: 5d24 35be 7ee4 89bd 0230 a8bd 1b8f 963b
00000210: a3bc 96bd 52f3 473d 9d3b 82bd 7e1c 3dbe
00000220: 2062 bbbd 08ff 2cbc a47d d73d 9f87 583d
00000230: 6ee0 3b3e 11e4 39bd e76e dd3d 4eed b43d
00000240: e6e3 32bd c6ac 893c 1b3b 53bd b4aa e8bd
00000250: adf9 53be 6d0c 8b3d 76e6 313c 12a7 fabc
00000260: c94f 7bbd 9e15 753b 5864 9c3d 0bd6 103d
00000270: 822b b23d bd83 d53c 4396 11be 3615 ad3d
00000280: 1ec1 3c3e 9fe2 18be 92f7 13bc f8e8 b7bb
00000290: 76ad c1bd 79f6 b4b9 d73f 25bd d352 f3bb
000002a0: 6146 b0bc 08d6 12bd 3bf9 993d 5fbe 1a3d
000002b0: ba56 b4bc e13a 613c 0e06 d0bc efc1 28bd
000002c0: 573f 4fbd 1c18 303e 5d02 29bc 2d47 313e
000002d0: d661 a63d 471b 50bc f825 9e3c 1794 dd3d
000002e0: fa80 863d b51e 703d 4ae8 08be 4798 ec3d
000002f0: f7d2 883d 8831 9e3b 2800 893d 876f c9bd
00000300: 35ea 823c f401 183d 0255 02bd fa5b b9bd
00000310: e51c b33d f5d6 6dbd 29d1 ce3d 9f00 1a3e
00000320: 00c1 ae3d b855 f1bd cb6a de3d 48f1 9a3d
00000330: 0c2d 64bc d4ae e63c f419 11be 7413 fc3d
00000340: 554f c3bd d207 64bc 7f23 a73d e402 ab3d
00000350: d403 98bd 80cd ffbc 7344 08be 0474 f23d
00000360: 4e09 053e 1181 e3bd 3895 6b3d 2904 093e
00000370: 5a49 1dbe 4cf5 493d a813 dfbc 8c28 0d3b
00000380: be02 b4bc 3229 003e 002b 183d 2e65 203e
00000390: 1fe3 bebd 1545 bdbd d462 8d3d 47b9 acbc
000003a0: 2324 883d bf71 fcbc a20a f5b9 e787 e1ba
000003b0: b588 233c 103e 8ebc d281 b2bd 5dd3 1cbb
000003c0: 666a a9bd e35b 39bd 7f2a 2abc 68d1 7ebd
000003d0: 6c5c 7b3c 1f22 89bd 1e67 e8bd dcb0 c8bd
000003e0: 10fa 88bd 38de 4a3c 0652 b33d a45e c0bd
000003f0: 950b f8bb 0230 073e f9bf 053e 084b e1bd
-0.10669548 -0.04155609 -0.04357891 -0.14073953 0.123988174 -0.0629556 0.020340178 0.016228989
0.039279975 -0.052770063 -0.020657402 -0.009032901 -0.13091184 0.06200712 0.08539557 -0.08611638
0.057703987 -0.09575996 0.08477598 0.059761073 -0.04208226 -0.06776765 -0.0029633814 0.051600814
-0.07381674 0.026072323 -0.009612962 -0.11275009 0.20365956 0.06595579 0.07977545 0.105350554
-0.11458605 0.011254092 0.06887532 -0.124997266 0.108505175 0.024151945 0.117410265 0.03450386
0.058624696 0.06991096 0.029463308 -0.058658183 -0.039567094 0.0014040003 -0.021000408 -0.08349645
-0.1965639 0.031981073 0.16100201 0.18726262 -0.039881438 0.007992027 -0.16919143 0.14744397
0.04414597 0.08290532 -0.102598 -0.0067299 0.08705154 -0.056306288 -0.017895926 0.012878362
-0.010910905 -0.19975851 -0.15070501 0.04974724 -0.118789084 -0.030553574 0.008943721 -0.04362789
-0.03951962 -0.0842922 0.20651726 -0.038958013 -0.04578749 0.03896433 0.08363023 0.04712716
0.064993 -0.051607747 -0.079834186 -0.1084058 0.10699459 -0.012465012 -0.112087436 0.031782594
-0.05363075 0.017920045 0.10105022 0.019212786 -0.095733374 -0.08914869 0.18578096 -0.07518258
-0.08079004 0.11665446 0.12983637 0.15544069 -0.15130204 -0.11494368 -0.03895673 0.0043371883
-0.08834232 0.059366867 0.12673089 0.024913598 -0.012206373 -0.09318335 0.07920639 0.1630662
-0.052091837 0.20237681 0.008175897 -0.10234289 0.0058693476 -0.09319435 -0.12301704 -0.010370954
0.06411176 0.031566124 0.028521879 -0.020969482 0.088212185 0.020773847 -0.15856518 -0.085468
-0.17689653 -0.067330346 -0.08212282 0.004594696 -0.07360198 0.048816033 -0.063590266 -0.184679
-0.09149575 -0.010558851 0.10522011 0.052863713 0.18347332 -0.045383517 0.108121686 0.08834325
-0.043674372 0.016806018 -0.05157004 -0.11360684 -0.20700713 0.067894794 0.010858169 -0.030597243
-0.061355386 0.0037396918 0.076363266 0.035360377 0.08699705 0.026063794 -0.14217477 0.08451311
0.18433043 -0.14930199 -0.009031193 -0.005612489 -0.09456913 -0.00034515912 -0.040344086 -0.007425645
-0.021517934 -0.035848647 0.0751824 0.03777921 -0.02201401 0.013746948 -0.025393512 -0.041200574
-0.050597515 0.17196697 -0.010315505 0.17312308 0.081241295 -0.012701816 0.019305214 0.108192615
0.06567569 0.058623035 -0.13369861 0.11552482 0.06680863 0.004827682 0.06689483 -0.09835725
0.01598082 0.037111238 -0.03181935 -0.09050746 0.087457456 -0.058066327 0.10098488 0.150393
0.085329056 -0.11783928 0.10860213 0.07565552 -0.013926756 0.028159536 -0.14170057 0.12308398
-0.09536616 -0.01391788 0.08161067 0.08350161 -0.07422605 -0.03122592 -0.13307361 0.118385345
0.1299183 -0.11108602 0.057515353 0.13380493 -0.15360013 0.0493062 -0.027231053 0.002153906
-0.021973964 0.12515715 0.037150383 0.15663597 -0.09320664 -0.09241692 0.069036156 -0.02108444
0.066475175 -0.030815957 -0.00046737964 -0.001720664 0.009981324 -0.017363578 -0.087161675 -0.0023929693
-0.08272247 -0.045253646 -0.010386108 -0.062211424 0.015341859 -0.06695961 -0.11347793 -0.09799358
-0.06688321 0.012382083 0.08755879 -0.09393051 -0.00756974 0.13201907 0.13061513 -0.11000639

fc1.bias f4 [84]
00000000: 692f 703d 95a2 eab9 a450 5a3d 1a21 89bd
00000010: 1e14 a83c 7390 173c e1ed b23b 3f91 493d
00000020: 58ad 343c 2521 7d3d 280b 8cbd 2a87 8d3d
00000030: fbd6 d53c 3751 d53a 3b8e 82bd b7a1 8bbd
00000040: f9d8 46bd aa6f 1dbc fe9c 563d e2f0 69bd
00000050: 4d62 42bd 5ca8 273d 1252 dfbc fc87 7a3d
00000060: a842 0ebc 3c96 40bc 3aee 08ba b4da 9b3c
00000070: 25e4 36bc 5099 733d b3d8 e6bb 5647 47bd
00000080: 723f 13bd 385a 03be 206c 5dbd a243 7a39
00000090: 2b96 21bd 1322 85bd 498d 6e3c a3a4 03bd
000000a0: 7944 a0bd 27df d2bc 04e6 5ebd ea59 bcbd
000000b0: ed62 263c fece cb3d 4c30 293d ca3e 583d
000000c0: 9d56 0cbd b3e1 973d b7c8 05bd d54a 38bc
000000d0: 2f7c d0bb 4b78 14bd e3e8 85bc c04d 00bd
000000e0: 0fd5 69bd 9998 4e3d 99bc dc3d 1972 823c
000000f0: bfaf 973d 17fb 99bd d45e 163d 0853 3bbc
00000100: 1681 81bd 8b3d ce3d b264 5a3c 5600 53bd
00000110: 0867 afbc 4d9c f03b 0b7e e0bd 6275 e1bc
00000120: 9d1d 643d 830f 373d 78fb 22bd bcda 51bd
00000130: 7160 13bb ccf6 a13c 0355 4bbd 19cd d1bc
00000140: 2b04 88bd a713 1abe 80e0 0abd a4a2 493d
0.058638964 -0.0004475309 0.05329956 -0.06695767 0.020517405 0.009250748 0.0054604863 0.049210783
0.0110276565 0.061799187 -0.068380654 0.06910546 0.026103487 0.0016274814 -0.063747846 -0.06817954
-0.048546765 -0.009609142 0.052395813 -0.05711449 -0.04745703 0.040932044 -0.027260814 0.06116484
-0.008682884 -0.011754569 -0.0005223487 0.019025184 -0.011162792 0.059472382 -0.0070448755 -0.048652016
-0.035949178 -0.12827384 -0.054058194 0.00023867053 -0.039449852 -0.0650064 0.014560052 -0.03213943
-0.0782556 -0.025741173 -0.05441858 -0.09196837 0.010155422 0.0995159 0.041305825 0.052794255
-0.03426229 0.074160956 -0.03266212 -0.01124831 -0.00636246 -0.036247533 -0.0163464 -0.03132415
-0.057087954 0.050438497 0.1077816 0.015923547 0.07406568 -0.07518595 0.03671153 -0.01143337
-0.06323449 0.10070332 0.013329672 -0.051513992 -0.021411434 0.0073428513 -0.10961541 -0.027521793
0.055692304 0.044692528 -0.0397906 -0.051233992 -0.0022487903 0.019771002 -0.04964162 -0.025610493
-0.0664142 -0.1504656 -0.033905506 0.04922737

fc2.weight f4 [10, 84]
00000000: 7318 40be 2068 89be f4e7 abbe 2754 b239
00000010: a2ae 853e bec6 05be 2c50 103e e0b5 503e
00000020: 692a 173e 52d4 513c 3142 1e3d 9d6b 373e
00000030: 5dc2 113e ff37 6d3e 64d5 1fbd 61ec f5bd
00000040: a621 6dbe 2673 36be 535d 5ebe e390 4c3e
00000050: e42e 73be cda5 03be 31cc 3ebe c398 15be
00000060: 463e 71be ad5c 4abe ce85 9f3d 3cbf b6bd
00000070: 999e 81be e669 9ebe e47e 1cbe 8655 8ebe
00000080: 1faf 2bbe 57b9 34be c673 1d3e 564f 8f3e
00000090: 7600 54be fb54 68be a487 80be 7e27 e7bd
000000a0: dcf3 8e3d 033b 143e 453a 873b 9d9c 23be
000000b0: aadf 28be 60ec d0bd 62a5 79be ecfd 673e
000000c0: c61c 80bd ded3 393e dee6 2ebe c8e5 1dbe
000000d0: 267e 643e 32a0 a03d 138f 463d adbe 4b3e
000000e0: 5a36 84bd ce49 0abe 8ffa acbe 12c0 9bbd
000000f0: 8b4a 2bbe 472f 45be f474 5d3e 9d26 50be
00000100: 9948 093e 0557 1dbe de8a 673d 2688 1dbe
00000110: 6310 00be 1f4c 653e 96e7 73bd 8604 4fbe
00000120: a84f 423e 48af 873d 1586 f93d a131 21be
00000130: af2b 24be 2d92 773d 84ce 113e fa42 7d3e
00000140: 1209 493e ba37 31be a1f8 ceba 39f7 e53d
00000150: d1bc 38be b456 3a3e 3ec3 9cbc 7f7e 4c3e
00000160: c2f4 9bbc 6f6d 55be dddf 58be bc22 213e
00000170: 47be 473e 1348 3cbe 9545 0b3e a418 4a3e
00000180: 05d2 03be cbfc d4bd d083 083e b6eb 5c3e
00000190: f4b8 0d3e da18 293d dc7c 743e 3f08 1ebd
000001a0: 6a9a ffbd e079 8d3e 2132 453e 8bee 753d
000001b0: d250 af3e d40a 213e 2296 213e 1784 323e
000001c0: 66f1 653e 7c7d c93d 50da 6d3e 3b1b 653d
000001d0: 9fa0 b6bd c19d 22bd 1f6e 90be ee00 78bd
000001e0: 2200 293d 67d4 533e 7bfe 95be 4d3f 973e
000001f0: a774 f3bb 8e6b 493e 7cd2 9a3d a362 6cbe
00000200: 18c9 6abe c6ef 443e 95fe 29be 7bbe 983e
00000210: 6524 38bd cf8b a93d 8ce6 293e 1d9c 84be
00000220: 3580 943e d3dd 94bc a186 44be b6e0 e6bd
00000230: db14 1f3d 3fec 0a3e 40a2 47bd 67d0 1bbe
00000240: 663f d53d c0f5 4b3e 2643 38be 0a65 6ebe
00000250: 95b1 84be 8093 983e fd39 b03e 71ca d6bd
00000260: 2b70 8b3e c252 9c3e ec13 6a3e 98d6 84be
00000270: b09e 5e3e b508 56be 05e9 9fbe 319a 043e
00000280: eace b53d cbdf 90be 1b88 7abe 00c4 a33e
00000290: 0cb6 43be 90a5 88be 6537 9ebe 6425 24be
000002a0: 619f b0be 14ec 54bd a81d e13d 243f ac3d
000002b0: e088 a93e 3182 2b3e daca 50be 4957 043e
000002c0: fe7d 9c3d 2993 49be 2756 03be c325 97be
000002d0: 89d9 ca3c daa5 833e 4936 a5bd 7896 433e
000002e0: 3398 833d 91bb 843d d97d be3d a74f 433e
000002f0: 1f5f 063e c2c2 82be 6158 16be 039b 7e3e
00000300: f9b1 22be b4b4 3a3d 81e8 6ebe 3c69 99be
00000310: 69ff 4c3e b073 103e e491 2c3e 7026 1e3e
00000320: b13a e6bd c3b7 c53d e6fe 2e3e 279d ed3d
00000330: 4f88 033e 6611 a3bd e89b 953d df28 9b3e
00000340: 1548 383d c3f2 6d3c 0419 6cbe 09ff d53d
00000350: e1a6 22be c1a1 16be 5442 783e 19da 753e
00000360: 6c1d 5c3e 5da0 f53b 66e8 40bc f0f1 713e
00000370: 32e1 9e3e 3b9b 67be dc14 b3bd 66c9 2f3e
00000380: 68ab 94bd 3be5 96be 525c 723e cf83 4ebe
00000390: 6289 483e 5bfb 423e 1ffc b13c 199e 1bbe
000003a0: 993a 093e 96c8 2d3e 22b9 fdbd e40b 6cbe
000003b0: 0215 9abe b5d0 8c3e da8c efbd 82fb f8bd
000003c0: d1f7 d13d 0719 cc3d 0c7f 9cbe 1d3b 3bbe
000003d0: cfc0 253e 383e 8ebe 1f61 043e c59a 89be
000003e0: b5aa 853e ce94 6a3e 776a 393e bac8 6dbe
000003f0: 96c2 0b3e 529a 733d 9362 b8bd 16c4 19be
-0.18759327 -0.26837254 -0.33575404 0.00034013504 0.26109797 -0.13064095 0.14093083 0.2038188
0.14762272 0.012806969 0.038637344 0.17912145 0.142343 0.23165892 -0.039021865 -0.12007976
-0.23157367 -0.17817363 -0.21715288 0.19977145 -0.23748356 -0.12856217 -0.1863258 -0.14609055
-0.23558912 -0.19761916 0.07789193 -0.08923194 -0.25316313 -0.3094017 -0.1528278 -0.27799624
-0.16766022 -0.17648827 0.15376195 0.27990216 -0.20703301 -0.22688667 -0.25103486 -0.112868294
0.06980106 0.14475636 0.0041268193 -0.15977712 -0.16491571 -0.10201335 -0.24379495 0.22655457
-0.06255488 0.18147227 -0.17080256 -0.15419686 0.22313747 0.07843055 0.04847629 0.19896956
-0.06455679 -0.13504717 -0.3378491 -0.07604994 -0.16727655 -0.19256316 0.21626645 -0.2032723
0.134066 -0.15365227 0.05652892 -0.15383968 -0.12506251 0.22392319 -0.05954703 -0.2021657
0.18975699 0.06625229 0.12183777 -0.15741588 -0.16032289 0.06044214 0.14238936 0.24732581
0.19632366 -0.17306414 -0.001579065 0.112287946 -0.18040778 0.18197137 -0.019136067 0.1997013
-0.019037608 -0.20842527 -0.21179147 0.15735906 0.19506179 -0.18386869 0.13600762 0.19735962
-0.12873085 -0.10399779 0.13331532 0.21574292 0.13840085 0.041283466 0.23875755 -0.038582083
-0.12480624 0.27632046 0.19257404 0.060041945 0.34241349 0.15726787 0.15779927 0.17433201
0.22455367 0.09838387 0.23227811 0.055934172 -0.08917355 -0.039701227 -0.28209016 -0.06054776
0.041259892 0.20686494 -0.29295716 0.29540482 -0.0074296775 0.19669935 0.07559678 -0.23084502
-0.22928274 0.19232091 -0.16601022 0.29832825 -0.044956584 0.082786195 0.16591853 -0.25900355
0.29004064 -0.01817218 -0.19191982 -0.11273329 0.03883825 0.13566683 -0.048738718 -0.15216218
0.10412483 0.19917965 -0.17994365 -0.23280731 -0.25916734 0.29800034 0.34419242 -0.104878314
0.27234015 0.3053189 0.22859162 -0.25944972 0.21740222 -0.20901759 -0.31232467 0.12949444
0.08877356 -0.2829574 -0.24465983 0.31985474 -0.19112414 -0.26688814 -0.30901638 -0.16029888
-0.34496596 -0.051982954 0.109919846 0.084104806 0.3311224 0.16748883 -0.20389882 0.12923922
0.076412186 -0.19685043 -0.12825833 -0.29520997 0.024761932 0.25712472 -0.08066995 0.19100368
0.06425514 0.06481088 0.09301347 0.19073354 0.13122223 -0.25539213 -0.14682151 0.2486382
-0.15888204 0.04558249 -0.2333088 -0.299631 0.20019306 0.14106631 0.16852528 0.1544435
-0.11241663 0.096541904 0.17089424 0.1160224 0.12844966 -0.07962303 0.073051274 0.3030462
0.044990618 0.014523211 -0.23056418 0.10449035 -0.15883972 -0.14710142 0.24244052 0.24008979
0.21495599 0.0074959234 -0.011774158 0.23627448 0.31031185 -0.2261781 -0.08744213 0.17166671
-0.07259256 -0.29471764 0.2366803 -0.20167468 0.19583657 0.19041197 0.021726666 -0.15197028
0.1340126 0.16971049 -0.12388827 -0.23051411 -0.30094153 0.2750298 -0.11696787 -0.12157346
0.10252345 0.09965711 -0.3056568 -0.18284269 0.16186832 -0.27781844 0.12927674 -0.26875892
0.26106802 0.22908327 0.1810702 -0.23221102 0.13648447 0.059473343 -0.090031765 -0.15016207

fc2.bias f4 [10]
00000000: 724a b2bd 44e8 40bd fe91 ec3d afc3 26bd
00000010: aa84 cd3c 82c5 ff3c a723 91bd 8a5c b53d
00000020: f1ae 003c c579 9f3d
-0.087056056 -0.047096506 0.11551283 -0.040713962 0.025087673 0.031222109 -0.07086878 0.08855541
0.007854209 0.077868976
