models/lenet5_mnist_2103.pth (torch, 250917 bytes, 10 tensors)

c1.weight f4 [6, 1, 5, 5]
000000 fd f4 ca 3d 77 35 40 3d 92 b7 56 3e 6a db 9d 3d
       0.09910009 0.046925988 0.20968464 0.077078655
000010 07 91 f8 bd 9f e3 3e be c1 20 6c 3d e2 3b 74 3e
       -0.12137037 -0.18641518 0.057648424 0.23850968
000020 63 d5 92 3d ea 17 80 3e 97 ba 03 3d 10 1f d0 3d
       0.071696065 0.25018245 0.032160368 0.10162175
000030 ea ba 39 3e 07 39 3f 3e 52 0e 2a 3c 1e 16 13 3e
       0.18137708 0.18674098 0.010379391 0.14363906
000040 5d 54 43 3e ec 25 94 3e e0 25 2d 3e 9c f0 ce 3d
       0.19075151 0.28935182 0.1690898 0.10104486
000050 b4 00 2e bd 47 38 16 3d f2 e0 79 3e bc 01 88 3c
       -0.04248114 0.036674764 0.24402216 0.01660239
000060 74 86 66 be 8f e1 60 3e 68 b6 04 bd e7 eb 33 3e
       -0.22512227 0.21961044 -0.03240052 0.17570458
000070 ae 3e 2c 3e 7d 06 54 3e 93 dd 3e bd 96 01 2a 3e
       0.16820785 0.207056 -0.04659803 0.16602167
000080 4a 5d d3 bd c4 6f 1c 3e 3f d7 b8 3d 3a 81 c5 bd
       -0.10320528 0.1527701 0.0902543 -0.09643789
000090 49 16 bf bd 3e c1 5f 3e 1a b8 37 be f7 02 5d bd
       -0.093304224 0.2185106 -0.17941323 -0.053957906
0000a0 ff 31 3b bd 03 e8 9a 3b 3c e4 37 be e2 97 05 3d
       -0.045701977 0.004727365 -0.17958158 0.03261555
0000b0 14 cf 31 bd 5f 2d 84 bd c3 63 46 be 56 e1 d3 3c
       -0.043410376 -0.06453966 -0.19373994 0.025864284
0000c0 99 87 75 be dc 94 ab bd 2c ad a2 bd a5 68 ce bc
       -0.23977508 -0.08378002 -0.07943186 -0.025196383
0000d0 9c fe 8a bd b3 85 2a 3e 07 05 78 3d 71 00 a8 bd
       -0.06786844 0.16652565 0.06055167 -0.08203209
0000e0 3a a8 af 3d c2 76 c4 3d 4d 8b 48 3d 4a a2 e7 3d
       0.085770085 0.09592964 0.048960973 0.11310251
0000f0 94 a6 73 be b4 5c 8d be 29 8a fb bd 70 3c 22 be
       -0.23794013 -0.2760979 -0.12282211 -0.15843368
000100 af ee d5 3d 7d 62 8d bd df 58 f9 bd 86 49 3b be
       0.10445916 -0.06903551 -0.12175154 -0.18289766
000110 3a 4e 85 be 0b 6a 5c 3d d5 0c 97 bc a0 b8 bf 3c
       -0.26036245 0.053812068 -0.018438736 0.023403466
000120 57 14 d4 bd 6f 69 82 be a0 ed 30 be 3d 5b 30 be
       -0.10355442 -0.25471064 -0.17278147 -0.17222305
000130 db 84 19 be 5d 8e 5c be 44 45 8c 3d f9 eb 8b ba
       -0.14992087 -0.21538682 0.06849149 -0.0010675184
000140 74 60 13 be bc 61 a0 be 7d ed d5 bd b5 9b b0 3d
       -0.14392263 -0.31324565 -0.10445688 0.08623449
000150 fc 90 0f bd 60 8c f4 bd a0 1d 74 bd 98 0b f0 3c
       -0.035050377 -0.11940837 -0.059598565 0.029302403
000160 96 79 db 3d 80 c6 78 3c 07 c7 11 3e 36 21 32 3e
       0.1071655 0.015184045 0.14236079 0.17395481
000170 93 8e 44 bd ba b8 e0 3c 00 23 2d 3e fe a1 a4 3d
       -0.047987532 0.027431834 0.16907883 0.0803871
000180 14 60 c1 3d ff a2 0f 3d cb ec 00 3d 27 e8 9a bd
       0.094421536 0.035067555 0.031475823 -0.07563811
000190 09 6a 8e 3d 89 57 8d 3d f6 a8 af 3d c4 bf 27 3c
       0.06953818 0.06901462 0.085771486 0.010238592
0001a0 41 ed 41 3e 12 b6 cd bd 06 a0 81 3d 7a e8 97 3c
       0.18938161 -0.10044493 0.0632935 0.01854347
0001b0 9f 08 a3 bc fe 59 2c 3e e3 47 5b 3c 9e 5c 82 3e
       -0.019901572 0.16831204 0.013383838 0.25461286
0001c0 e9 7b 38 3e 44 03 40 3e a4 72 45 be bb db 1c 3e
       0.18016018 0.18751246 -0.19282013 0.15318196
0001d0 90 d3 88 3e 23 70 99 bd 80 81 e9 3d 79 ed 9f 3d
       0.2672391 -0.074920915 0.11401653 0.07808966
0001e0 0d de 9c 3d 1d 7a 3a 3d ff 13 1b be 89 a1 7b be
       0.0765954 0.045526613 -0.15144347 -0.2457334
0001f0 1d 08 8e be 24 44 85 be e1 ae 01 be 55 ac 46 3d
       -0.27740565 -0.2602855 -0.12664367 0.048504192
000200 61 83 79 bd da 59 65 bd 62 1d b3 bd d7 95 dd bd
       -0.06091631 -0.055993892 -0.08745839 -0.10819595
000210 b0 85 d1 3d 01 81 75 bd 35 d5 5f 3b cc 08 2e 3e
       0.10230577 -0.05993748 0.003415418 0.16995543
000220 44 2c 8f 3d b4 f9 07 be 4c c2 d0 3d 35 5a 13 3e
       0.06990865 -0.13278848 0.10193309 0.1438988
000230 55 67 08 3e 1d bf 9a 3e 6f 77 fe bb 64 0c 40 3e
       0.13320668 0.30223933 -0.0077657024 0.18754727
000240 ac 00 5d 3e b4 3d 85 3e e1 56 41 bd 30 f9 04 3e
       0.21582288 0.26023638 -0.047201995 0.12985682
000250 de 1e b4 3c 8e 19 11 3e
       0.021987375 0.14169905

c1.bias f4 [6]
000000 84 b3 4f 3d 1a 57 e5 3d 45 23 1a bd 40 3f b8 3d
       0.05070831 0.11198254 -0.037631292 0.08996439
000010 40 1e 8e bd 85 fe 98 3d
       -0.069393635 0.07470421

c2.weight f4 [16, 6, 5, 5]
000000 58 ca be bc 12 b2 37 bc e1 6f ca bd 82 e7 d3 bd
       -0.023289844 -0.011211889 -0.098846205 -0.10346891
000010 74 e0 0f bd 1d 21 0a bd 8c 36 66 bd 28 1e fb 3c
       -0.035126165 -0.033722986 -0.056204364 0.030654028
000020 9a f6 b5 3c fe 90 e5 3c 0b 8e cb bb bc 18 04 3e
       0.022212315 0.02802324 -0.006212001 0.1290006
000030 50 89 c0 3c 10 90 bc 3d 6a fb eb 3d 83 6e 33 bc
       0.023502976 0.09207165 0.11522563 -0.010951641
000040 8c a5 ef 3d ec c8 89 3d 54 a9 89 3d 85 fd 7a 3d
       0.117014974 0.06727776 0.0672175 0.06127693
000050 fe cf 18 bd cd e5 47 bd 07 a3 42 3c 60 dc 5a 3d
       -0.03730773 -0.04880314 0.011879689 0.053432822
000060 a4 2a 1d bd fd bc ec bd a1 ca 96 bc 3c 24 c7 3a
       -0.038370743 -0.11559484 -0.018407168 0.0015193294
000070 cd 8e aa 3d e9 57 21 3b a9 5b 8f bd a6 5d e7 bd
       0.08328018 0.002461905 -0.06999905 -0.11297159
000080 f2 97 e6 bd 8a b8 20 be 41 08 81 bd d8 00 8d bd
       -0.1125945 -0.15695396 -0.063004024 -0.068849266
000090 0f 11 5d 3c 85 60 07 be f5 bf 33 bd e9 d9 8f 3d
       0.013492837 -0.13220413 -0.043884236 0.07023985
0000a0 ad c9 17 3e b1 88 3f 3e 11 d8 bc 3d bc e1 4a bd
       0.14823027 0.18704487 0.09220899 -0.049531683
0000b0 a6 4b 65 bd e9 ca 6d 3d 6a d6 82 3d 5c 9b 2d 3d
       -0.055980347 0.05805484 0.063885525 0.04238449
0000c0 0c ee ad bc 4a 26 53 bd 68 5f 58 bd ed ff 47 3d
       -0.021231674 -0.051550187 -0.05282536 0.048828054
0000d0 6c 7b c3 3d a9 31 de 3c e7 ae 57 bd 86 38 ba bd
       0.09545025 0.02712329 -0.052657034 -0.09092812
0000e0 b0 ee e0 bd f7 0b fb bd c6 7a 03 be 22 7b 0a be
       -0.10983026 -0.122581415 -0.12839803 -0.13523534
0000f0 7d 1e 93 bd ef 93 9f bc f0 05 c9 bc 43 5d 60 3d
       -0.071835496 -0.01947972 -0.024538964 0.05477644
000100 9a 8d 8c 3d 59 ce 02 3d fc 90 e7 3c ea 1f bd 3c
       0.06862946 0.03193507 0.028267376 0.023086507
000110 5f 83 be bc d2 45 06 3d 7c ab 0a 3e 01 74 8b 3d
       -0.023256002 0.03278143 0.13541979 0.06809235
000120 c9 30 96 bc 36 51 d0 bc b3 36 08 be 60 e0 55 3b
       -0.01833381 -0.02542935 -0.13302116 0.0032634959
000130 79 de 86 bd 45 7c d0 bd 72 48 43 bc 45 3c 80 bd
       -0.06585402 -0.101799525 -0.011919128 -0.062614955
000140 f9 be ab bc 15 1e c5 3c 7e 63 2a 3d 32 cb 43 3d
       -0.020965086 0.024062196 0.04159879 0.047801204
000150 18 da 81 3d 94 ba 66 bb 71 dc 01 bd 53 c6 29 3d
       0.06340426 -0.0035206424 -0.03170437 0.041448902
000160 f3 be 0e 3a dd a2 ee bd 9a ea db bc 35 f2 16 be
       0.0005445324 -0.116521575 -0.026845265 -0.14740832
000170 3e 22 69 be ed af 05 be fb 58 b8 39 a0 a0 6f bd
       -0.22766969 -0.13055392 0.0003516151 -0.058502793
000180 0d a1 8d bb 04 72 be bd f1 6e 76 bd b0 cc f0 3c
       -0.0043221773 -0.092990905 -0.060164396 0.029394478
000190 97 6a d1 bc e2 dd af 3c fb ed 16 bd 0f 78 67 bd
       -0.025563521 0.021468107 -0.03684805 -0.05651098
0001a0 c1 cb 8a bd 9c 62 c7 bd 61 48 0d be 0a e4 45 bd
       -0.06777144 -0.09735605 -0.13797142 -0.048313178
0001b0 db 16 a1 bc 95 dc ba bc 7d 35 ae 3d 53 16 fb 3d
       -0.019664219 -0.02281026 0.08506296 0.122601174
0001c0 1a 7f 00 3d ab 46 b3 3d 62 00 b5 3d 3f 0f eb 3d
       0.031371213 0.08753713 0.08837964 0.11477517
0001d0 ec 5b be 3d e1 5e 9a 3d 96 6b 66 3d 4e c6 71 bc
       0.092948765 0.07537628 0.056254946 -0.014756752
0001e0 d6 6b 06 be ac 39 ab bc 3c 3b 13 bc f7 3e 87 bd
       -0.13127074 -0.020901524 -0.008986291 -0.066038065
0001f0 5c cf 61 bd 9e 9c e9 3c 5a 01 d5 bd 33 ce 1e be
       -0.055129394 0.028517064 -0.104006484 -0.15508346
000200 a4 0c da bd 3d fe 41 3d 9a fa 21 bd 1c 9a dd 3c
       -0.10646942 0.0473616 -0.039545633 0.027051024
000210 24 c6 56 3d d1 fa 2f bd 11 b4 6b bd d7 f2 3a 3c
       0.052435055 -0.042963807 -0.05754477 0.011410437
000220 7d 73 41 bd c9 49 35 bd cd db 85 3d 91 b4 8e bc
       -0.04722928 -0.04425982 0.06536064 -0.017420085
000230 d0 59 28 be 9f 44 24 be 6b 1e e6 bd 12 95 17 bd
       -0.16440511 -0.16041802 -0.112362705 -0.0370074
000240 5c e2 1c bd f7 24 29 be 5f 5f 04 bd 53 7f d2 bd
       -0.03830181 -0.16518007 -0.032317515 -0.102781914
000250 cd 2d 59 bc a4 75 29 3d de b0 73 bb 66 d2 0f bd
       -0.013255549 0.041371956 -0.0037184278 -0.03511276
000260 4d 9a ca 3c 17 1e 0f bd bf 80 8e bd a0 be e5 bd
       0.02473178 -0.034940805 -0.0695815 -0.112179995
000270 78 bf 37 bc 8e 66 6b bd 8e 7e d9 bb 38 ba 26 bc
       -0.011215083 -0.05747085 -0.006637401 -0.010176234
000280 f9 37 15 bd 58 83 52 bc 6b b1 85 3c d0 64 4d 3c
       -0.036430333 -0.012848698 0.016319951 0.012536243
000290 87 3a fe 3d 83 81 8a 3d 5d a3 43 3d 4a 17 72 3d
       0.12413507 0.06762984 0.047763217 0.05910424
0002a0 2d 7a 66 3d 75 5f 01 3e 2a 66 0f 3c 11 3e 49 bc
       0.05626886 0.1263407 0.008752385 -0.012282864
0002b0 8d e6 d5 bd 7d 20 8f bc 6a 4c e1 bc 3f ac c6 bd
       -0.10444365 -0.017471546 -0.027502257 -0.09700822
0002c0 c9 80 81 bc f4 a3 23 3d 80 dc 9f 3c 1c 52 0c bd
       -0.01580848 0.03995128 0.019514322 -0.034257993
0002d0 4c e2 85 bd 57 f5 55 bd f8 2b 50 bd 92 48 24 bd
       -0.06537303 -0.052235927 -0.050823182 -0.04010827
0002e0 6d fe aa bd 27 82 c0 3c b8 32 c5 bd 1a 80 07 be
       -0.08349309 0.023499561 -0.096288145 -0.1323246
0002f0 c5 51 86 bd ab 9b 90 bd bf 4d f2 bc a6 7b 4a 3d
       -0.06558565 -0.07060941 -0.029578088 0.049434327
000300 09 13 26 3e 59 ab b6 3d 3d 4e a1 3d e2 c3 ce bc
       0.16218199 0.08919401 0.07876251 -0.025239889
000310 4a 94 bf bc 16 c7 3d 3d 2a 5b 00 3d d2 d0 d7 3d
       -0.02338614 0.04633244 0.03133694 0.10537876
000320 ad 6a 90 bc 65 33 ec bd 05 68 66 bd ce ca 9c bc
       -0.017628992 -0.1153324 -0.056251545 -0.019139674
000330 4b 46 d3 3c 61 4f 42 bc 76 5d cb 3c de 19 8c bd
       0.025790354 -0.011859746 0.02482484 -0.06840871
000340 dc 88 98 bd ad 0b 87 bb a5 d5 28 3d d0 18 22 bc
       -0.07447979 -0.004121265 0.041219372 -0.009893611
000350 91 e6 51 bd f8 79 a3 bd cf a6 d2 3c 84 65 88 3d
       -0.051245276 -0.07982248 0.025714306 0.066599876
000360 e9 72 ce 3b 3c 2d 07 3d 1d bb ef 3d 71 72 7b 3d
       0.0063003195 0.033002123 0.11705611 0.061388437
000370 d4 70 07 3d c6 9e b3 3d f2 46 8c 3d ff e6 07 3d
       0.033066586 0.08770518 0.06849469 0.03317928
000380 fd fa c5 bc 41 ae 6a 3c 7e a9 6f 3d 13 93 f5 bd
       -0.024167532 0.014323772 0.05851125 -0.11990943
000390 86 27 c9 bd 1f 37 e3 bc 93 91 87 bd 1a 9d 95 3c
       -0.098219916 -0.027736245 -0.06619563 0.018263388
0003a0 00 e9 06 be fe 1c be bd 94 46 5a bd c2 59 67 bd
       -0.1317482 -0.092828736 -0.053289965 -0.056482084
0003b0 b6 90 90 bb bf f3 31 bc d3 b0 42 3d 35 e8 ea bb
       -0.004411782 -0.010861336 0.047531914 -0.0071687945
0003c0 9a 55 1a be ec e3 e3 bd 44 90 79 bd 0a b7 00 be
       -0.15071717 -0.11127457 -0.060928598 -0.12569824
0003d0 5c ab d5 bd bc 19 93 bd 96 71 09 be 56 db 3d be
       -0.10433075 -0.07182643 -0.13422236 -0.18540701
0003e0 55 8d d1 bb 83 c2 19 bd 38 43 de bd c2 cf c2 bd
       -0.006395022 -0.037539016 -0.10852665 -0.09512283
0003f0 5b 00 8b 3d 09 e4 4c 3d 07 1e 63 bd 19 ba 6e bd
       0.06787177 0.05002216 -0.05544856 -0.058282945

c2.bias f4 [16]
000000 59 65 aa bc c1 db e4 bd 74 c6 e2 bc ef 28 04 be
       -0.02080028 -0.11174727 -0.02768252 -0.1290624
000010 c6 af 31 bc 5d 30 ef bc bd f8 c8 bc 06 a4 83 bd
       -0.01084513 -0.029197866 -0.02453267 -0.06427769
000020 84 11 36 3b f3 d2 ca bd 87 10 07 be 35 4d 06 bd
       0.0027781436 -0.099035166 -0.13189898 -0.032788474
000030 26 7e 7d 3d bf 13 bb bd ad 25 dd bd 50 bc cc bd
       0.061887883 -0.09134626 -0.10798202 -0.09996855

c3.weight f4 [120, 16, 5, 5]
000000 9b b4 62 3d c3 07 14 3b 67 36 60 3d 8c 45 00 3d
       0.05534802 0.0022587634 0.054739382 0.031316325
000010 c6 9b 74 3c 91 fc 1e bd b8 b5 5d bd 0d d2 81 b9
       0.014929717 -0.038815085 -0.05412838 -0.00024761297
000020 24 4e 38 bd 0a fb a4 bd 7a 7b 04 3d 3a eb c5 3c
       -0.044996396 -0.080556944 0.03234432 0.024160016
000030 5f 2d ba 3d c4 8f d3 3c fb 71 89 3d 30 38 1a 3e
       0.09090685 0.025825389 0.06711193 0.15060496
000040 92 23 de 3d 76 87 90 3d 7e ab 88 3d e5 aa 38 3d
       0.10846628 0.07057087 0.066733345 0.045084853
000050 95 30 9e 3d ce ac 06 3d 05 c3 20 bd d6 57 28 bd
       0.0772411 0.032879643 -0.039248485 -0.041099392
000060 28 1e 01 3d d9 5c 96 3c 95 e0 ce 3c 7d 6d a6 bc
       0.0315229 0.01835482 0.025253573 -0.02031588
000070 8a e0 cf 39 be 7e 0f bd f2 51 88 bd 59 52 26 3d
       0.0003964941 -0.03503298 -0.06656255 0.040605877
000080 f9 f7 78 3b 49 47 38 3d 38 2e 98 3c db 90 2a 3d
       0.00379896 0.044989858 0.018576726 0.04164205
000090 67 01 ee bc a1 81 b0 3b 3c 4f a8 3c 65 6a 89 bd
       -0.029053403 0.0053865467 0.020545594 -0.06709746
0000a0 59 24 f9 3c ad 9c 0c 3c 56 6b f2 3c 0b 5c b2 bd
       0.03041284 0.008582276 0.029592197 -0.08708962
0000b0 46 46 47 bd e8 5d 21 3d fe c0 91 3d 53 cf 5a bb
       -0.048651002 0.039396197 0.071168885 -0.0033387735
0000c0 d1 a0 e3 bc e1 37 1c bd 9d eb 1c bc 1b 89 29 3d
       -0.027786644 -0.038139228 -0.009577659 0.04139052
0000d0 76 92 03 bd 42 02 7c bc 07 91 4e 3d a3 f5 0b 3d
       -0.032122098 -0.015381398 0.050431278 0.034169804
0000e0 db a8 52 3d ac ec cb bc 39 16 07 bd 52 11 9a bd
       0.051430564 -0.024893127 -0.032980178 -0.07522835
0000f0 c8 30 c2 3d 77 a0 e0 3d 27 31 f2 3c 92 3e bf 3c
       0.094819605 0.10968106 0.029564453 0.023345266
000100 41 09 da 3c 12 d4 01 3e 53 0e 39 3d 72 03 35 3d
       0.02661574 0.12678555 0.045179676 0.04419274
000110 e1 c9 08 3e e6 ab 0a 3d b1 20 32 3d 4f a0 a1 3d
       0.1335826 0.03385534 0.04348821 0.078919046
000120 30 e4 39 3b ea 9f 6e 3c 15 fd 0d 3d e0 90 46 bc
       0.002836477 0.014564494 0.034665186 -0.012119502
000130 5d 42 29 bd 66 95 14 bd da ca ab 3b 9b 26 f9 3c
       -0.041323055 -0.03627529 0.0052426877 0.030413916
000140 38 03 e1 3c e3 fe ae 3c ad 3a bb bd f3 a5 fc bc
       0.027467355 0.021361774 -0.09142051 -0.03084085
000150 45 56 8c 3d 9b ad 7b 3c 05 94 30 bd 2b 40 8f bc
       0.06852392 0.015361215 -0.043109912 -0.017486652
000160 fb 9e b2 3c c5 02 97 3d 8d 6f c6 3c 01 43 b0 3c
       0.021804323 0.07373575 0.024223113 0.021516325
000170 e7 c3 b1 3c 10 c5 98 b8 1b b6 f3 3b 89 ef a0 3d
       0.021699859 -7.2846306e-05 0.00743748 0.07858188
000180 f6 7e d2 3c 51 f5 59 3d a7 6f 31 b9 3e 86 bb bc
       0.025695305 0.053212468 -0.00016921629 -0.02289116
000190 c3 2d 3f bd 3a 7d f3 bc f8 8f a4 bd 80 ed a3 bc
       -0.0466745 -0.029722799 -0.08035272 -0.02001071
0001a0 c3 40 bf bc cf 08 55 bb 80 00 bc 3c fb 27 4b bd
       -0.02334631 -0.003250647 0.022949457 -0.049598675
0001b0 72 ca 36 3d e9 18 8c 3d 17 88 50 3d c5 00 94 3d
       0.04462666 0.06840689 0.050911035 0.07226709
0001c0 9f bc 05 3d 80 a5 d7 3c fd ef e2 bc 79 6a 47 3d
       0.032650586 0.026324034 -0.027702326 0.048685525
0001d0 8b e5 2e bb fd 95 21 bd 77 a6 de 3a 36 ec 6f 3c
       -0.0026687111 -0.03944968 0.0016986866 0.014643719
0001e0 63 58 e8 3c 47 d3 4a 3d 44 3f 3e bd 8b 42 84 3d
       0.028362459 0.049517896 -0.046447054 0.064580046
0001f0 b3 29 65 3d 5d a1 1a bd 9d fd 68 3c c9 f1 cc 3c
       0.05594797 -0.037751544 0.014220622 0.025017636
000200 43 66 a8 3c ab a3 05 bd ae 61 ff 3b c8 bf 0c bc
       0.020556575 -0.03262679 0.0077936267 -0.008590646
000210 1c b9 0c bd 93 cb ca bd 5e 8e 93 bd f7 75 e6 bb
       -0.03435622 -0.0990211 -0.07204889 -0.0070331055
000220 63 e3 f6 bc 7b d6 d6 bc fc 37 a4 3c bd f5 4f 3d
       -0.030137723 -0.02622532 0.020046227 0.050771464
000230 a8 c4 59 bd 90 29 bc bc 34 ab c1 3c ea a9 d0 3c
       -0.05316606 -0.022969037 0.023641206 0.025471646
000240 05 27 7f bc 0e d6 43 3c ef 58 29 bd cb 44 89 ba
       -0.015573268 0.01195289 -0.04134458 -0.0010472772
000250 97 a2 86 bc 27 6d 17 bd 50 2e 61 3d ad 8b 70 3c
       -0.01643495 -0.03696933 0.054975808 0.014681739
000260 b6 d6 7e bd a9 48 66 bd 8f ae 89 bd a0 fd 73 bc
       -0.062216483 -0.056221638 -0.067227475 -0.014892012
000270 02 ac 58 bd 88 42 54 bc 67 62 91 bd d9 84 4c 3d
       -0.052898414 -0.012955315 -0.07098847 0.04993138
000280 45 83 3a bc 93 d4 7a bd cf e8 70 3d 3b 89 09 ba
       -0.011383836 -0.061237883 0.058815774 -0.0005246584
000290 6f 21 44 bc f9 3b 99 3d 89 84 9d 3c 89 92 40 bd
       -0.011970862 0.07482142 0.019228237 -0.047014747
0002a0 b3 87 b9 bc 02 23 81 3d 05 94 ee bc 9f 02 55 3c
       -0.022647714 0.06305505 -0.029123316 0.013001113
0002b0 2c 1e 2f 3d 69 55 95 bb 99 f7 8a 3c fb 3e 99 bc
       0.042753384 -0.004557301 0.016963767 -0.01870679
0002c0 71 6b f8 bc e4 24 db ba f3 03 b8 bc f6 7a 15 3c
       -0.03032467 -0.0016719368 -0.02246282 0.009123554
0002d0 93 2d 25 3b 7c 19 00 3d d7 26 78 bb ad 05 21 3b
       0.0025204166 0.031274304 -0.0037864947 0.0024570033
0002e0 75 71 ec bc b1 1d 88 3d 90 3e 59 3c c4 88 73 3d
       -0.028862694 0.06646288 0.013259545 0.0594566
0002f0 cf f8 6b 3d 91 12 8c 3d ba 42 d3 3d 5c bd 40 3d
       0.05761033 0.06839479 0.103154615 0.047055587
000300 af 1b 1c 3d fa 3a f5 3c 56 d7 23 3d e3 2f 90 3d
       0.03811234 0.029935349 0.040000282 0.07040384
000310 70 3b f8 3c 0b 10 67 bd 36 53 a8 bd 19 47 c3 3c
       0.03030178 -0.056411784 -0.08218996 0.023837613
000320 c6 7b 07 3d 9a e4 b0 3b e1 ed 5d bd bf f4 2c bc
       0.033077024 0.005398345 -0.054181937 -0.010556399
000330 46 2e e5 3c 83 e3 a7 bb d6 a7 35 bd 98 97 87 bc
       0.027976166 -0.005123557 -0.044349514 -0.016551778
000340 5d bf 59 3d ff 27 a7 bd f0 97 45 3c 6f d2 0a bd
       0.053161014 -0.081619255 0.0120601505 -0.03389209
000350 18 07 96 bc df 03 2f 3d b8 60 fd bc 29 0c 33 3c
       -0.01831393 0.0427283 -0.030929908 0.010928192
000360 ae 89 82 3c 4e eb fb 3b fa 41 7e 3c 4c b7 cf 3c
       0.015934791 0.0076879626 0.01551866 0.025355957
000370 d5 27 7b bd b2 13 0b bb c0 e7 01 3c bd af fa 3c
       -0.061317284 -0.0021221456 0.007928789 0.030601377
000380 6c e7 82 bd cd d8 b9 bc 76 30 a6 3c 1d 96 84 bd
       -0.063917965 -0.022686386 0.02028678 -0.06473944
000390 11 59 f0 bb 68 89 06 bc 77 e0 1c bc b4 30 20 3d
       -0.0073348363 -0.008211471 -0.009575001 0.039108947
0003a0 f9 0c cd bd cd cd 63 bd 6f 95 43 bd 7a 53 5f 3d
       -0.1001224 -0.05561619 -0.047749933 0.05452297
0003b0 64 84 b8 bd 72 1d 9d 3c c1 34 2a 3c c3 f5 49 bd
       -0.090096265 0.01917908 0.010388554 -0.049306642
0003c0 d7 d3 ec bc 1f 28 80 bd 75 51 d4 bc b3 c9 00 bb
       -0.028909607 -0.062576525 -0.025917748 -0.0019651472
0003d0 fd 42 14 bd 6b cf 84 bb 31 6b 2d bb 5e 73 30 3c
       -0.036196698 -0.0040530465 -0.0026461596 0.010769693
0003e0 fe ff 93 3a 98 ec 5e bd b2 67 7c bd 47 9c 03 3d
       0.0011291502 -0.054424852 -0.06162233 0.03213146
0003f0 b9 4e 12 3d d3 72 1e bd 20 33 8b 3d b5 3c 60 3b
       0.035719607 -0.038683724 0.06796861 0.0034215872

c3.bias f4 [120]
000000 8a 31 20 ba 43 9a 1b bc 86 e7 94 3a ce d2 83 bc
       -0.00061108975 -0.009497228 0.0011360503 -0.01609173
000010 a7 b9 83 bc 01 74 5f bd ce 69 d7 3c 91 32 b8 3c
       -0.016079737 -0.05455399 0.026295569 0.02248505
000020 d6 f9 ec bc 06 b0 42 bd 85 59 26 bc 67 ee 36 bc
       -0.028927725 -0.04753115 -0.010153179 -0.011165238
000030 b8 84 1c bd 10 20 2f bd cd 0b d9 3c 4e 2e d0 bc
       -0.038212508 -0.042755187 0.026494885 -0.025412705
000040 c4 f7 29 bd 68 4c 55 bb 36 60 e3 3c 52 0f 09 3d
       -0.041496053 -0.0032546762 0.027755838 0.033461876
000050 dd 99 3f 3d 69 8c 0a 3a a4 5f 3c bd 7f 0b ce bc
       0.046777595 0.0005285205 -0.045989648 -0.025151966
000060 fa 11 da bc 0f ca 1b bc de 8d 5e bc f1 5b 93 bc
       -0.0266199 -0.009508624 -0.013583628 -0.017988177
000070 0a 9b 9d bc 28 b2 a7 3c 38 06 ed bc b4 4d 3c bd
       -0.019238967 0.020470694 -0.02893363 -0.04597254
000080 88 e6 a4 3c 95 80 b4 3c 73 f7 25 3d 71 1f cc bc
       0.020129457 0.022033969 0.04051919 -0.024917336
000090 70 76 86 3c d2 c8 82 bc 6f b3 12 bd 01 7c b2 3c
       0.016413897 -0.0159649 -0.035815652 0.021787645
0000a0 b0 86 3b bd e1 c5 bb bc 5e ef d8 bc 03 b5 84 bc
       -0.045782745 -0.022921504 -0.026481327 -0.016199594
0000b0 be 96 42 3d ba bd 6a 3c e3 f6 2b bd 76 93 4e 3d
       0.04750704 0.014327461 -0.041983496 0.0504336
0000c0 fe 5f b5 3c 09 a3 ba bc 18 6e 2c bd 80 1a 8d 3b
       0.0221405 -0.02278282 -0.04209718 0.0043061376
0000d0 17 92 04 bd 0a 52 5b 3c 8e cd 22 bc da 15 e0 bc
       -0.032365885 0.013386259 -0.009936703 -0.02735417
0000e0 0e ee 7d bc c0 a4 dc bb 5f b9 11 3d c4 d1 d7 bc
       -0.015498651 -0.006733507 0.035577174 -0.026345141
0000f0 59 a9 ea 3c 3f ce d6 3c 21 37 3e 3d 20 4f 89 3c
       0.028645204 0.026221393 0.046439294 0.016761363
000100 f9 cd 0a bd e3 f9 31 bd ab 6e f2 3c b8 df ce 3c
       -0.033887837 -0.0434512 0.029593786 0.025253162
000110 46 15 7d bd 5b 75 ea bc db 8b 86 3c 19 ca 2f 3c
       -0.061787866 -0.028620413 0.01642411 0.010729336
000120 91 5e ea bc bc 56 2e 3d dd e2 93 3b 13 72 9e 3c
       -0.028609546 0.042563185 0.004513128 0.019341504
000130 f5 e6 18 3c 79 b2 a2 bb b9 4d 20 3d 6a d6 b2 ba
       0.009332408 -0.0049651233 0.039136622 -0.0013644223
000140 3a a7 c8 bc a0 37 42 bd 16 f9 d1 bc b7 cf 8f bc
       -0.024493802 -0.04741633 -0.025631469 -0.0175551
000150 02 a1 4e 3b 1a fc 45 3d 5b b2 38 3c 52 d8 6a 3d
       0.0031529074 0.048336126 0.011272992 0.057335205
000160 9c 48 48 bc e9 eb a0 bc c3 23 24 bd 88 06 ef bc
       -0.012224343 -0.01964374 -0.040073168 -0.029177919
000170 d1 6c 09 bd 97 cd f3 bb 8c 36 70 3d 38 69 19 3d
       -0.03355104 -0.0074402797 0.05864577 0.03745386
000180 f2 c9 d4 bb a4 bf 05 3d 5d 09 ae bc eb 0b 5d bc
       -0.0064938003 0.032653466 -0.0212447 -0.013491611
000190 58 ac 52 3d c0 9e c6 bc 05 eb a7 bb 86 76 6c bd
       0.05143389 -0.02424562 -0.005124452 -0.05773022
0001a0 ea 53 4b bd ad b6 74 ba ea 4c e2 3b 6f d4 1a bd
       -0.049640574 -0.0009335082 0.0069061415 -0.03780025
0001b0 c9 92 98 bc 0a 40 bd 3c 21 d1 e0 3c 42 9b 8f bc
       -0.01862468 0.023101825 0.02744347 -0.017530087
0001c0 2e 87 26 3d d0 e6 ac 3c 22 14 44 bd 9f 2d 65 3b
       0.04065626 0.021106154 -0.047870763 0.003496982
0001d0 9a 28 1c 3d 99 2e ec 3c 01 e7 0f bd 9f 11 3e bd
       0.03812466 0.028830813 -0.035132412 -0.046403524

fc1.weight f4 [84, 120]
000000 05 87 f8 bd e7 17 3e be 95 b4 99 bd 4b e8 32 bc
       -0.12135128 -0.18563806 -0.075051464 -0.010919641
000010 a6 80 72 3d 4c b4 cf 3d f1 f8 fa 3d 27 a6 14 be
       0.05920472 0.10141811 0.12254513 -0.14516507
000020 78 1a 0c 3d c0 49 2f bd b0 0f 33 3d 04 22 c2 bd
       0.03420493 -0.042794943 0.043716133 -0.09479144
000030 28 cf 23 bd 1d e1 9d 3d 07 16 81 bd 72 92 58 be
       -0.03999248 0.077089526 -0.063030295 -0.21149614
000040 34 82 c9 3d a0 3d d5 3c 36 b0 2d be 59 6d 7b bc
       0.098392874 0.026030362 -0.1696175 -0.015345895
000050 6f cb 92 3d 9a cd b9 3c f0 05 24 bd 62 66 2a 3d
       0.07167708 0.022681046 -0.040044725 0.041601546
000060 e0 49 02 be 5b e8 58 bd 95 80 2b bd f0 a9 86 3c
       -0.12723494 -0.052955966 -0.041870672 0.016438454
000070 1a 1b ed bd f5 c4 e2 bc 9b c4 ea bc 9f a8 fc 3d
       -0.11577435 -0.027681807 -0.028658202 0.123368494
000080 e6 3e 11 3d 27 ec 09 be af 61 9b 3d c9 d3 7c bd
       0.035460375 -0.13468991 0.07586991 -0.06172541
000090 ee 0f 31 be a8 84 eb bd e9 9c 1c 3e 90 c3 03 be
       -0.17291233 -0.114999115 0.15294231 -0.1286757
0000a0 67 21 91 3d 97 31 65 bd 0d e1 ab bd 01 b3 48 bd
       0.07086449 -0.055955496 -0.083925344 -0.048998836
0000b0 70 7d 57 3c 74 79 45 bd f4 f3 09 be 1e 1d dc 3b
       0.013152465 -0.04821153 -0.13471967 0.006717338
0000c0 0e 86 91 bd 87 eb d6 3d ca 5d d5 3d 56 52 3b bc
       -0.07105647 0.10494142 0.104182795 -0.011433205
0000d0 d3 2a ea 3d f2 e7 06 be b2 ec 1a 3c 41 84 d4 bd
       0.11433949 -0.13174418 0.009455847 -0.10376788
0000e0 e7 45 b0 3d ca 07 8f bc 3b 15 26 3e ea 09 d6 3c
       0.08607083 -0.017459769 0.16219036 0.026127774
0000f0 7b b7 d8 3d a0 87 d0 bd d9 36 a1 3d 41 ac d5 3d
       0.10581871 -0.101821184 0.078717895 0.104332455
000100 90 43 e9 3c 33 e6 c2 bd 74 2b b4 bc 58 0b 38 bd
       0.0284746 -0.09516563 -0.021993376 -0.044932693
000110 3e 97 03 3b 1d bf ca 3d 71 68 95 bb 2b 15 4f bc
       0.002007916 0.09899733 -0.0045595695 -0.012639324
000120 98 54 48 bc 25 98 4e bd 44 f0 4a bd 1f 2a 0d 3c
       -0.0122272 -0.050438065 -0.04954554 0.0086159995
000130 40 03 80 3d a6 26 06 3e 65 db 2d 3d 93 81 24 be
       0.0625062 0.1310068 0.04244556 -0.16065054
000140 62 95 a3 3d 6d 72 e3 bd 9e c6 e5 3b 56 1a ba bd
       0.07987477 -0.11105809 0.0070122024 -0.090870544
000150 b2 e2 06 be 73 e8 08 3e c8 a6 f2 bc 77 75 e1 bd
       -0.13172415 0.13369922 -0.029620543 -0.11008733
000160 4b 8d ed bc 1e e2 13 be cb 20 40 be 6e 72 3e 3d
       -0.028998038 -0.14441726 -0.1876251 0.046495847
000170 61 3a af bd ac ce ca bd 1f 2a e1 3c 33 87 87 bc
       -0.08556057 -0.09902701 0.027485905 -0.01654396
000180 92 fd 09 be 7e 8e 26 be 63 8d db 3c 17 55 36 bd
       -0.13475636 -0.16265294 0.026800817 -0.04451474
000190 52 1c c2 3d dc b0 f5 bd c7 d1 b1 bd 19 dd 2d 3e
       0.09478058 -0.11996624 -0.0868259 0.16978873
0001a0 87 48 b5 3d 27 ea b3 3d 3b b3 29 3e e4 a8 a7 bd
       0.08851724 0.087848954 0.16572277 -0.0818651
0001b0 44 15 ff 3d f3 e9 9b bd 1a e2 a2 ba 5d 64 94 bc
       0.12455228 -0.07612982 -0.0012427003 -0.018114263
0001c0 7b 30 b8 3d a5 57 22 be 5e 4c a0 bd 29 ca a6 bd
       0.08993622 -0.15853746 -0.07827066 -0.08144028
0001d0 12 c9 b1 bd 57 c5 cf 3d aa 5d 2a 3e 1e 75 48 3d
       -0.08680929 0.101450615 0.16637293 0.048939817
0001e0 9b 0c 05 be ac 90 9e 3d b2 3c 91 3a 97 96 28 3d
       -0.1299309 0.07742438 0.0011080711 0.04115924
0001f0 84 44 f9 bc 0e e1 86 bd 25 e8 e8 bd a0 b5 40 3d
       -0.030428179 -0.065858945 -0.11372403 0.04704821
000200 cc c6 c4 bd a4 6b ad 3d d7 af b1 bd 94 08 1e 3e
       -0.0960823 0.084677964 -0.08676117 0.1543296
000210 44 a2 84 bd 5d a6 7d bc d8 03 25 3d ab 79 50 3c
       -0.06476262 -0.015481559 0.04028687 0.01272432
000220 73 8d 17 3e 49 96 02 be 88 ac a0 3c 7e e1 f1 bd
       0.14800052 -0.12752642 0.01961352 -0.11810587
000230 4f 83 cc 3d 00 ef 3c 3d 8c f9 e3 3c 45 c4 93 3d
       0.099859826 0.046126366 0.027828954 0.0721517
000240 5c 14 bb 3c 13 b8 ab bd 3a 3f 77 bd 89 36 7b bc
       0.022836857 -0.08384719 -0.060363032 -0.015332826
000250 9b 36 3b 3c ce 3d 1f be bd 90 17 3e f1 ce dd bd
       0.011426593 -0.1555092 0.14801307 -0.108304866
000260 67 7d 17 3b e2 a7 4f bd 63 b5 8a 3c 6f 83 e4 3c
       0.0023115517 -0.050697215 0.016932195 0.027894704
000270 2b 0c ae 3d 93 42 27 3c 4d 19 09 3d d6 f7 36 be
       0.084984146 0.010208744 0.033471394 -0.1786798
000280 f0 d9 29 bd 62 d0 8c bd db a3 cc bd 52 35 85 3d
       -0.041467607 -0.06875683 -0.099921905 0.06504311
000290 e7 7a 37 bd b4 75 0e bd fd 71 6c bd 41 93 07 3d
       -0.044794943 -0.03478022 -0.057725895 0.033099417
0002a0 9c a0 ca 3d 8b 9c ad 3d 8e 99 21 be 19 e3 8f 3d
       0.09893915 0.08477124 -0.15781233 0.07025737
0002b0 c6 e4 15 be b0 47 87 bd de ea a5 bc b1 8a 54 be
       -0.14638051 -0.0660547 -0.020253595 -0.20756032
0002c0 ba e3 9b bc 1f 23 22 bd 78 51 2e bd 08 eb 57 bd
       -0.019029487 -0.039584275 -0.042558163 -0.052714378
0002d0 09 17 8e 3c b5 b5 6c 3a 83 36 f0 3c f6 63 57 3d
       0.017344968 0.0009029762 0.029322868 0.052585565
0002e0 4e 04 59 3d fb 19 7a bd a8 cd da 39 f1 7b de bd
       0.05298262 -0.061059933 0.00041733426 -0.10863484
0002f0 32 e5 fc bc 79 fc ae 3d 9a 40 08 bd 25 c1 17 3c
       -0.030871008 0.08544249 -0.033264734 0.009262358
000300 9a 28 aa 3d 17 1c 27 be 77 05 ee bd f1 67 c8 3d
       0.083085254 -0.16319309 -0.11622136 0.0978545
000310 14 99 dd bd a6 5b fe bc 8f 70 ef 3d 89 2a c2 bd
       -0.10820213 -0.03104956 0.11691391 -0.09480769
000320 e9 8d 76 bd f4 d8 e3 3c 52 58 c9 3d f7 e3 b7 bd
       -0.06019393 0.027813412 0.09831299 -0.08979028
000330 f2 e2 de 3d 08 05 23 3d 25 71 d0 3c 4e b1 3b 3e
       0.1088313 0.03979972 0.025444577 0.18329355
000340 a5 22 ef bd 20 c5 f9 3b ed 88 1d 3d 5c ea 7d 3d
       -0.1167653 0.007622376 0.03846066 0.06199108
000350 d3 c0 4f be 22 14 6c bd 2a 99 c0 3d 9c cb e3 bc
       -0.202884 -0.057636388 0.09404214 -0.02780705
000360 89 c3 ce bc c2 aa 2e be 2f 40 5c 3d 2c 4d ab 3d
       -0.025239723 -0.17057326 0.053772148 0.08364329
000370 0f 82 f3 bd d2 dd 5d bd 62 84 c5 3d d1 f7 5d 3d
       -0.11890041 -0.054166622 0.09644391 0.054191414
000380 58 da 84 3d 39 21 c7 3d f8 d4 07 bd c5 0d 10 be
       0.06486958 0.097231336 -0.033162087 -0.14067753
000390 60 3f e9 bc 2c f4 23 bb 72 af 04 bd 92 83 05 3e
       -0.028472602 -0.0025017364 -0.03239388 0.13038471
0003a0 be ee f4 3c 97 30 16 3d 7a be 62 3d e4 ac 5a 3d
       0.029898997 0.036667433 0.055357434 0.053387538
0003b0 bd ef 9f bc ae 6d 8f 3d 91 30 9a bd 4e 74 55 3b
       -0.019523496 0.070033416 -0.075287946 0.0032570544
0003c0 b1 07 83 bd b0 8a 92 3d 8b c5 a6 bd db 2c cb bd
       -0.063979514 0.07155359 -0.08143147 -0.09920665
0003d0 4e f8 8c ba 85 d5 13 bd 83 37 40 be 5b ce 52 3e
       -0.0010755153 -0.0360923 -0.18771176 0.20586531
0003e0 05 de 9f 3d 09 e0 40 3e c3 eb b2 bd 70 49 f4 bc
       0.07806019 0.18835463 -0.08736374 -0.029820174
0003f0 3c db 54 3d 38 f4 d3 bc b2 ea 22 3c 79 3c 89 bd
       0.05196689 -0.025873289 0.009943651 -0.06700987

fc1.bias f4 [84]
000000 c6 1a 55 3d f6 92 ec 3c b0 4b 56 bd 8a a3 f6 3c
       0.052027486 0.02887867 -0.052318275 0.030107278
000010 8a fc 6f 3c d0 cc b6 bd 28 4e b2 3d e0 f7 e5 bd
       0.014647612 -0.08925784 0.08706313 -0.11228919
000020 2a d9 f8 bc 2b ae 2d bc 94 4e da 3d 35 27 81 3d
       -0.03037699 -0.010600607 0.10659519 0.06306306
000030 da c0 44 bd 0e 92 df 3c f6 d1 fd 3c ba 42 b1 bd
       -0.04803548 0.027291324 0.030983906 -0.08655305
000040 fb 56 37 bc e9 67 5a 3d fc 27 79 bb 4d bf fa 3c
       -0.011190171 0.053321753 -0.0038018217 0.030608797
000050 3b fd a2 bd f1 e9 de 3b 5c 58 a0 3d 24 76 cb bd
       -0.07958456 0.0068027903 0.07829353 -0.09934643
000060 35 a2 87 bb 29 c4 a1 3c 56 64 d3 bc a0 c8 23 bd
       -0.0041392096 0.019746857 -0.02580468 -0.039986253
000070 2d 82 c9 3b 94 c1 e9 3c 51 b5 69 bd bb 36 af bd
       0.0061495514 0.028534688 -0.057057682 -0.08555361
000080 e6 f8 1f 3d 00 cd aa 3d bb 3e 67 3d d6 12 d2 3d
       0.039055727 0.08339882 0.05645631 0.10257499
000090 d4 98 b9 bd 85 91 49 bd a5 74 78 bc 99 36 81 bc
       -0.09062353 -0.049211044 -0.015164529 -0.015773105
0000a0 ed 40 17 3d ed 50 4b 3c 22 7b 63 3d 27 40 b1 bd
       0.036927152 0.012409431 0.05553735 -0.08654814
0000b0 ff 07 c2 bc 5a bc 6d 3d 28 3b bf bc 5b 6a d2 bb
       -0.023685453 0.058040954 -0.023343638 -0.00642137
0000c0 e2 81 d7 3b c3 fe 1f 3d 51 22 99 3d 1a 38 41 3b
       0.0065767625 0.03906132 0.074772485 0.0029482902
0000d0 e0 17 99 3d 30 af 37 3d 45 92 da 3c b3 d4 37 3d
       0.07475257 0.044844806 0.026681075 0.04488058
0000e0 0b 40 67 bd 08 84 d6 3d 8b 5a 94 3a 78 b5 d1 bc
       -0.05645756 0.10474402 0.0011318488 -0.025599226
0000f0 76 29 4c 3d 43 0b 19 3b a7 0b 62 3d 6a 60 4c bc
       0.049844228 0.002335266 0.055186894 -0.012474159
000100 9a ad 87 bc 18 37 e6 3c 6c f9 62 3c 99 f4 25 3c
       -0.016562272 0.028102443 0.013853412 0.010129117
000110 65 34 27 bd 9b 31 ad bd f6 bd 91 bc 6e 93 1f 3d
       -0.04082145 -0.08456727 -0.017790776 0.03895896
000120 61 25 2f 3d 08 05 60 bd c5 a2 06 bd 19 52 f3 3b
       0.042760257 -0.0546923 -0.032870073 0.0074255583
000130 3f 42 ad bd e5 dd 3d 3c 14 73 44 3d c9 67 ba 3d
       -0.08459901 0.011588548 0.04796131 0.09101827
000140 86 60 67 3d d8 fb 8c bd f1 57 95 3d 70 c6 53 3c
       0.056488536 -0.06883973 0.07292164 0.012925729

fc2.weight f4 [10, 84]
000000 43 71 5b 3e 7b ad 83 3e 3c 72 7b 3d 11 06 59 3e
       0.21429925 0.25718293 0.06138824 0.2119372
000010 ae 16 5d 3e 30 46 83 bc cf 98 8f 3d 25 7c 6a be
       0.21590683 -0.016024679 0.07011568 -0.2289892
000020 0d f0 86 be 0e d0 65 be a5 e7 cc bc d4 94 9f be
       -0.2635502 -0.22442648 -0.0250128 -0.31168234
000030 83 3e 15 3e 85 58 53 3e 3a 74 11 3e 0d eb 5d be
       0.14574628 0.20639236 0.14204493 -0.21671696
000040 bd 44 c3 3d 84 fd 83 be a1 09 63 3e dd 4a 5d bc
       0.09534595 -0.25779355 0.22171642 -0.013506618
000050 25 b3 68 be ba 5c 3c 3e 4a 05 fb bd 62 f5 53 be
       -0.22724588 0.18394747 -0.12256868 -0.20699075
000060 8d 47 aa be 1f 65 6d be 28 12 4e be 5a 3a 1c be
       -0.33257714 -0.23183106 -0.20124114 -0.15256634
000070 1a 3c 7e be e4 f7 94 bd 7d 40 e9 bd 7f 85 85 3e
       -0.24827614 -0.07273844 -0.11389253 0.26078412
000080 57 1a 89 be af 11 1a bd 26 ff 84 bc d1 ef 5c 3e
       -0.26777908 -0.03761452 -0.016234946 0.21575858
000090 d7 60 19 3e 04 81 4b 3c bc 65 7c be cf d7 1a be
       0.14978348 0.012420896 -0.24648184 -0.15121387
0000a0 1e ae 24 be c7 c0 21 3e c6 71 6b 3e 7b 85 a8 be
       -0.16082045 0.15796195 0.2299262 -0.32914338
0000b0 e5 df 40 3e c3 72 dd bd 9f 7f 27 be 23 5e 96 be
       0.18835409 -0.10812905 -0.16357277 -0.29368696
0000c0 bf 38 db 3d c9 f8 9e bd 59 07 a3 bd 6c bb 17 be
       0.10704183 -0.07762296 -0.07960386 -0.1481759
0000d0 86 61 1d 3e fb ec 0a be 66 55 68 3e dc 85 5e bd
       0.15369233 -0.13566963 0.22688827 -0.054326877
0000e0 c8 0c 88 bd b2 29 07 be fb 5f 1e 3e 6b 28 6e 3e
       -0.06643063 -0.13199499 0.15466301 0.23257606
0000f0 89 47 7c be 45 fc 7c 3e 9b c8 70 bd ad 46 3f 3e
       -0.24636663 0.24705608 -0.058785062 0.18679304
000100 f3 d3 7e be a7 1a 9e bd b9 43 67 3e 90 7e 18 bb
       -0.2488554 -0.07719927 0.22584428 -0.0023268797
000110 49 ad 90 3e 83 06 8f 3e 07 3c ee bd 2d 19 2c 3e
       0.28257206 0.27934656 -0.11632543 0.16806479
000120 7f 72 fd bd f9 b1 d7 bd c9 b0 fd 3d 21 27 c5 3e
       -0.12375354 -0.105319925 0.12387235 0.38506415
000130 7b d4 1f be 43 31 5d be b5 49 2b be e3 3f 05 be
       -0.15608399 -0.21600823 -0.16727336 -0.13012652
000140 97 c3 80 be 9a 9c 57 bd e2 63 26 bd 23 5a 67 3d
       -0.25149223 -0.05263958 -0.0406226 0.056482445
000150 8d b5 08 be 2c fe 45 3e f0 1c d0 bd 57 ec f5 bd
       -0.13350506 0.1933524 -0.101617694 -0.12007969
000160 aa fa 0c 3e f1 ef 2c be 8b 32 21 3e ee c5 5e be
       0.13767496 -0.16888405 0.15741937 -0.21755192
000170 6d 97 16 3e ec a8 60 3e 14 d2 91 3e 54 56 81 3d
       0.14706202 0.21939439 0.2848059 0.06315294
000180 03 b8 41 be 87 bd 11 3e aa d2 0e be f3 98 66 be
       -0.18917851 0.14232455 -0.1394755 -0.22519283
000190 dd 8f 12 3e a0 83 00 3e f0 2d f8 3d fb b9 06 be
       0.14312692 0.12550211 0.12118137 -0.13156883
0001a0 73 62 23 be 94 25 7a be dc b7 b3 3e 50 04 42 be
       -0.15955524 -0.24428397 0.3510121 -0.18946958
0001b0 c4 c5 62 bd c6 d6 c7 3d c4 16 7d 3e 81 a8 9d 3e
       -0.055364385 0.09757762 0.24715716 0.3079262
0001c0 5e 1b 41 3e 79 6c 36 be c5 e7 33 be ad 7e 0c be
       0.18858096 -0.17814817 -0.17568882 -0.13720198
0001d0 9c 32 a1 be 20 a5 9a be 73 a7 b4 3e 4d 3f 3e 3e
       -0.31483924 -0.30204105 0.35284004 0.18578835
0001e0 f9 5e 47 be cd f0 26 3e 93 6b 29 3e b5 9f 02 be
       -0.19469823 0.16302796 0.16544943 -0.12756236
0001f0 97 30 d6 3c 61 c8 2a be 7d 84 13 bd 8a d2 4c be
       0.026146216 -0.16678001 -0.036015023 -0.2000219
000200 2b a8 a5 be 25 20 3e be c0 83 6a 3e c5 dc b7 3d
       -0.32354864 -0.1856695 0.22901821 0.08977655
000210 25 e2 b4 be 22 f1 5e 3e 98 e4 8f 3e 2f c0 75 be
       -0.35328785 0.21771672 0.2810409 -0.23999093
000220 e4 98 39 be 33 f0 e8 3d 95 d9 9e bd cf 2d 7c 3e
       -0.1812473 0.11373939 -0.07756344 0.2462685
000230 72 8e ba 3d 67 63 3d 3e 89 41 68 3e f6 c6 45 be
       0.091092005 0.1849495 0.2268125 -0.19314179
000240 54 69 41 3e 4e 3e 72 be 49 f9 40 3e 95 c2 51 be
       0.18887836 -0.2365658 0.18845095 -0.20484383
000250 92 b4 ce 3c a7 52 12 3e 9c 98 40 bc c1 90 83 3e
       0.025232587 0.14289342 -0.011755135 0.25696376
000260 e9 08 dd 3c 23 3e 5c 3e fc 00 75 3e 77 35 17 bc
       0.026981788 0.21508078 0.23926157 -0.009229056
000270 04 0f 48 be 19 48 65 3e a0 dd 43 be ff 4f 77 bd
       -0.19536978 0.22390784 -0.19127512 -0.060379025
000280 90 e1 6e 3e 49 9b 2b be 88 6b 2a be 09 09 ab 3e
       0.23328233 -0.16758455 -0.16642582 0.3340533
000290 57 b2 f1 3d 85 24 a2 be c2 f9 5f be e2 64 1d be
       0.11801594 -0.31668487 -0.21872619 -0.15370515
0002a0 d1 85 95 3e aa 0a 28 3c d1 33 ba 3d dc ad 8a 3e
       0.29203656 0.010256449 0.090919144 0.2708577
0002b0 8d 4b 49 3e 07 2e 46 3e e7 c1 a5 3d f2 1f 80 3e
       0.19657727 0.19353496 0.080936246 0.25024372
0002c0 9d f6 35 be 1f 00 3d be 9a 89 3f bc 2a 8c e7 3c
       -0.17769857 -0.18457077 -0.011690522 0.028265078
0002d0 47 af 48 be b7 a8 83 be d3 ac 41 be 5d 80 52 bd
       -0.19598113 -0.25714657 -0.18913583 -0.051391948
0002e0 6c 08 84 3e b8 ce 9a be b9 15 1a be 59 5c 71 3e
       0.25787675 -0.3023584 -0.15047349 0.23570384
0002f0 a4 02 79 be 3d 90 85 be 85 14 95 3e 33 2c 27 be
       -0.24317414 -0.26086608 0.29117218 -0.16325454
000300 38 e7 6c 3e 70 cd 89 3e 10 41 7c 3e c1 2c ce bc
       0.23135078 0.2691455 0.24634194 -0.025167825
000310 ca 27 92 bd 04 74 df bd 3d d3 f0 bd 1a 80 55 be
       -0.071364954 -0.109108 -0.117590405 -0.20849648
000320 69 f8 65 3e 8a ae c1 3d 37 d4 90 3e 49 90 92 3e
       0.22458042 0.09457119 0.28286907 0.28625706
000330 b0 37 94 3e 32 9e de 3d 81 0c 88 3d f8 62 9c 3c
       0.28948736 0.10870017 0.0664301 0.01909016
000340 e7 0d ab 3d e1 ed 8d 3d b6 96 e1 bd 12 a2 ef 3c
       0.08352261 0.069301374 -0.11015074 0.029252086
000350 3e f4 86 be 96 ca ca bc f4 3d 89 be 5c 3e 4e 3e
       -0.26358217 -0.024754804 -0.2680508 0.20140976
000360 e8 64 73 bc 40 b8 80 3e 3f f3 72 3e fb df c5 3d
       -0.014855601 0.25140572 0.23725604 0.096618615
000370 a6 41 7b 3c 6d a3 c0 bd c2 b4 6e 3e 3a a5 e0 bd
       0.015335476 -0.09406171 0.23311141 -0.109690145
000380 5e 4e 2b be 31 1e 83 3d df 9e 71 be 75 10 05 be
       -0.16729113 0.06402243 -0.23595761 -0.12994559
000390 a6 6b a3 be f6 32 5f 3e 0e 0e 4a be 0b f8 80 3e
       -0.31918067 0.21796784 -0.19731924 0.25189242
0003a0 28 22 7c be 4e 59 0e be af 6d 6e 3e bb af 0e be
       -0.24622405 -0.13901255 0.23284028 -0.13934223
0003b0 6f b9 29 bd d1 d7 0a be 9f 5e 3c 3e 50 45 65 3e
       -0.04143661 -0.1355889 0.1839547 0.22389722
0003c0 f4 5c 50 be 46 a3 51 be 33 22 10 3e 7b 57 2c be
       -0.20347959 -0.2047244 0.14075546 -0.16830246
0003d0 6b 11 4f 3e 41 d1 43 3e b5 ed 01 3d b1 bf 96 3e
       0.20221488 0.19122793 0.031720836 0.29443124
0003e0 ae 05 08 be a2 e6 46 3e ca 71 58 3e 6e e0 90 bc
       -0.13283417 0.19423917 0.21137157 -0.017685141
0003f0 38 0c 7b be 5f 84 31 3e 18 ef 0b 3e ab b8 8c 3e
       -0.2451638 0.17335652 0.13665426 0.2748464

fc2.bias f4 [10]
000000 fe 3c 21 bd be 11 9d 3d 3b af df 3b e9 cd 9e bc
       -0.039364807 0.076694 0.006826309 -0.019385295
000010 39 91 c9 3d 79 ad 62 bd d8 22 0d bd 37 03 16 bd
       0.09842152 -0.055341218 -0.034457058 -0.03662416
000020 16 19 d8 bc 61 d6 2a 3c
       -0.02637915 0.0104270885
