models/lenet5_mnist_2138.pth (torch, 250917 bytes, 10 tensors)

c1.weight f4 [6, 1, 5, 5]
0	0x3d744130	0.05963248
1	0x3c905147	0.017616881
2	0xbddebc51	-0.10875762
3	0x3dde1ef2	0.10845746
4	0x3e4acc40	0.19804478
5	0xbdc7d772	-0.0975789
6	0xbe8402f2	-0.25783497
7	0xbe94f6e9	-0.29094627
8	0xbe861beb	-0.26193175
9	0xbe40a06c	-0.18811196
10	0x3c0252ed	0.007954341
11	0xbc8c57a0	-0.017131627
12	0xbe2e5344	-0.17023951
13	0xbe940393	-0.28908977
14	0xbe9a355c	-0.30118835
15	0xbd94da4e	-0.07268201
16	0xbda3a7c6	-0.079909846
17	0x3e0e2230	0.13880229
18	0xbd9937e2	-0.07481362
19	0xbe9b4aed	-0.303306
20	0xbd4243b9	-0.047427867
21	0x3d87880a	0.06617744
22	0xbc04824c	-0.008087706
23	0x3cfe9b37	0.031079872
24	0xbe049b0c	-0.1294977
25	0xbe3051a2	-0.1721864
26	0x3d884904	0.066545516
27	0xbd610bb8	-0.054942816
28	0xbd09a941	-0.03360868
29	0xbe82759b	-0.2548035
30	0xbbd7be68	-0.0065839775
31	0x3de88a21	0.11354471
32	0xbdf419a1	-0.11918951
33	0xbe0b6508	-0.13612759
34	0xbd5aff38	-0.05346605
35	0x3db79160	0.08963275
36	0x3da15e74	0.07879344
37	0x3dba0089	0.09082133
38	0xbe204e47	-0.1565486
39	0xbde41487	-0.11136728
40	0x3e821e3f	0.254137
41	0x3e3092e0	0.17243528
42	0x3e8fd88b	0.28094897
43	0xbe1123bc	-0.14173788
44	0xbd9fb687	-0.07798486
45	0x3de2a0f9	0.11065859
46	0x3d006b8c	0.031352565
47	0x3e28b276	0.16474327
48	0xbe0d5b03	-0.1380425
49	0x3d480326	0.048831128
50	0xbe6198ad	-0.22030897
51	0xbe39f45c	-0.18159622
52	0x3c38576b	0.011251311
53	0xbd6fd019	-0.058548067
54	0xbe8169a2	-0.25275904
55	0x3e09a41f	0.13441513
56	0xbd9c6211	-0.07635892
57	0x3c82d3ad	0.015970076
58	0x3dddee99	0.108365245
59	0xbe415804	-0.18881232
60	0x3de5039e	0.111823305
61	0x3b936afb	0.004498837
62	0xbdbddd99	-0.09270782
63	0x3dbc7fd1	0.092040665
64	0x3e6162ad	0.22010298
65	0x3e0110d2	0.12604073
66	0xbdcaaf92	-0.09896769
67	0xbb296777	-0.0025849023
68	0x3e8be750	0.27324915
69	0x3e9be251	0.30446103
70	0x3d659dd2	0.056058712
71	0x3d519652	0.051168747
72	0x3d59202f	0.05300921
73	0x3e1bef55	0.15228017
74	0x3dacc78f	0.084365
75	0xbc491686	-0.012273436
76	0x3df8ec2d	0.12154422
77	0x3d8e89cf	0.06959879
78	0xbb8a2497	-0.0042157876
79	0x3d83871e	0.06422256
80	0x3dc335ee	0.09531771
81	0x3e811454	0.25210822
82	0xbc124361	-0.008927197
83	0x3e7c9b7d	0.24668689
84	0x3d6fe004	0.058563247
85	0x3e2ebb46	0.17063627
86	0xbd080827	-0.0332109
87	0x3dc28258	0.09497517
88	0xbdd91d98	-0.10601348
89	0x3dcd7083	0.100312255
90	0x3df1c5cb	0.11805304
91	0xbe488f3d	-0.19585891
92	0xbe006a93	-0.12540655
93	0xbe8ec200	-0.27882385
94	0xbe5d0c9d	-0.21586843
95	0xbe5b35bd	-0.21407218
96	0xbe7acb46	-0.24491605
97	0x3d6cf33e	0.05784916
98	0xbcf46461	-0.02983302
99	0xbd4fea4b	-0.05076055
100	0xbd336655	-0.043798763
101	0x3da42122	0.08014132
102	0xbd2fe38b	-0.04294161
103	0x3e33652a	0.1751906
104	0x3ddca6b1	0.10773981
105	0x3bfb915f	0.0076772417
106	0xbe615252	-0.22004059
107	0x3da1b4a2	0.07895781
108	0xbda0d1fd	-0.07852552
109	0x3c690892	0.014223235
110	0xbe3cb592	-0.18428639
111	0xbe6a22ec	-0.22864884
112	0xbde76460	-0.11298442
113	0x3e327f75	0.17431433
114	0xbd2ddb18	-0.042445272
115	0xbd99b6da	-0.07505579
116	0xbeacdffb	-0.33764634
117	0x3c638217	0.013885996
118	0xbc3be2d5	-0.011467655
119	0x3d99412b	0.07483133
120	0xbe7fbc64	-0.24974209
121	0xbe00804c	-0.12548941
122	0x3d72d291	0.059282843
123	0xbd638aeb	-0.055552404
124	0x3ded50ee	0.11587702
125	0x3e0b2f5a	0.13592282
126	0xbe383ab5	-0.17991145
127	0xbba1657a	-0.004925427
128	0x3cc1783b	0.0236169
129	0xbe050993	-0.12991934
130	0x3d2fedd4	0.04295142
131	0xbc8a563f	-0.016886828
132	0xbe825709	-0.25457028
133	0x3d0158d0	0.03157884
134	0xbb61ccf5	-0.003445444
135	0xbde42ded	-0.11141572
136	0xbe2f7e11	-0.17137934
137	0x3dec3cd3	0.11535039
138	0xbc988421	-0.018617691
139	0x3a93508f	0.0011239218
140	0xbe88fc6b	-0.2675508
141	0x3dd6e785	0.104933776
142	0x3e102b7b	0.14079086
143	0x3da90b44	0.08254102
144	0xbc641681	-0.013921381
145	0xbddedc4a	-0.108818606
146	0xbc4ccb87	-0.012499697
147	0x3e435f7d	0.19079395
148	0x3e7f16fd	0.24911113
149	0x3e6fb4fb	0.23408882

c1.bias f4 [6]
0	0x3da62bad	0.08113799
1	0xbe448e2c	-0.1919486
2	0xbe88dbbb	-0.2673014
3	0xbe071584	-0.13191801
4	0x3e893f3a	0.2680605
5	0xbc2a4ffa	-0.010395044

c2.weight f4 [16, 6, 5, 5]
0	0xbcab837d	-0.020936722
1	0xbd9fcd69	-0.07802851
2	0x3c500fb3	0.0126990555
3	0x3d824219	0.063602634
4	0xbdf2d329	-0.11856682
5	0xbdec22c7	-0.11530071
6	0xbd4291a8	-0.04750219
7	0x3d790cbe	0.060803168
8	0x3cc434a6	0.023950886
9	0xbde6de10	-0.11272824
10	0xbd01e97f	-0.03171682
11	0x3caf8646	0.021426331
12	0x3d870e94	0.065945774
13	0xbdb42f94	-0.08798137
14	0xbdc197f4	-0.09452811
15	0x3c6245b9	0.0138105685
16	0xbc5e04e9	-0.013550975
17	0xbd0a69f8	-0.033792466
18	0xbddf30fc	-0.10898015
19	0x3cbc1625	0.022959778
20	0xbd59907f	-0.053116318
21	0xbd2c8e90	-0.042128146
22	0xbd87ddb9	-0.06634087
23	0xbd230be0	-0.039806247
24	0x3c23c8fb	0.009996648
25	0x3bf88d7b	0.007585225
26	0x3d3be3d7	0.045871582
27	0x3d88537f	0.066565506
28	0xbd373ea5	-0.044737477
29	0xbdcbeaaa	-0.09956868
30	0xbd962e97	-0.07333105
31	0x3d82dcdf	0.06389784
32	0x3cc13818	0.023586318
33	0xbe351b9b	-0.17686312
34	0xbde4fdfb	-0.111812554
35	0x3b831ade	0.0040010056
36	0x3d1bab81	0.038005356
37	0xbdec87b8	-0.11549324
38	0xbdc671a3	-0.09689643
39	0x39c0ac4f	0.00036749474
40	0x3cc716c7	0.024302853
41	0xbd81f38e	-0.063452825
42	0xbd60e2a6	-0.05490365
43	0xbd5d369e	-0.054007165
44	0x3d778b56	0.060435615
45	0x3da0263a	0.07819791
46	0xbd587eaf	-0.05285519
47	0xbbccec13	-0.006253728
48	0xbca1b927	-0.019741608
49	0xbc2f461c	-0.010697868
50	0x3bd0e538	0.0063749813
51	0x3d926711	0.071485646
52	0xbccbf925	-0.024899075
53	0xbe1caa76	-0.152994
54	0xbb8ea33c	-0.004352955
55	0x3cf15432	0.029459093
56	0xbe18eb37	-0.14933477
57	0xbe0c95f9	-0.13729085
58	0xbd0112d1	-0.031512085
59	0xbd93d11c	-0.07217619
60	0xbe15c685	-0.1462651
61	0xbe19d3fe	-0.15022275
62	0x3d0b07eb	0.033943098
63	0x3d1100e6	0.035401247
64	0xbb9bf595	-0.0047595003
65	0xbe0111f0	-0.12604499
66	0xbd49ff47	-0.049315717
67	0xbd3fd19e	-0.046830766
68	0x3cf92de4	0.03041739
69	0x3cea0f71	0.028571816
70	0x3ce313c9	0.027719395
71	0xbcd21d94	-0.02564887
72	0xbd1df76e	-0.038566045
73	0x3d26152d	0.04054754
74	0x3c99759e	0.018732842
75	0xbd1e6866	-0.03867378
76	0xbc61b9e4	-0.01377723
77	0x3d8b8795	0.068129696
78	0xbbe1591f	-0.006877079
79	0x3c343529	0.0109990025
80	0xbdae938b	-0.08524235
81	0x3d4f07a2	0.05054439
82	0x3d4d1334	0.05006714
83	0xbd2e9406	-0.042621635
84	0xbe3ebdfd	-0.18627162
85	0xbd19f441	-0.037586454
86	0x3da16369	0.07880289
87	0xbcf96b32	-0.030446623
88	0xbe664863	-0.22488551
89	0xbc99c06c	-0.018768512
90	0x3d1cd1df	0.038286086
91	0x3cf8d9d1	0.0303773
92	0xbe27c528	-0.16383803
93	0xbdd079ee	-0.10179506
94	0x3c21f6e8	0.009885527
95	0x3ada643f	0.0016661956
96	0xbdab12a4	-0.08353165
97	0xbdb5b465	-0.08872298
98	0xbd8f6127	-0.07000952
99	0xbd0a021c	-0.033693418
100	0xbd9ae69c	-0.075635165
101	0xbdd9acd7	-0.1062867
102	0xbd9d4df8	-0.07680887
103	0xbcf3d276	-0.029763442
104	0x3cf04a0c	0.029332183
105	0xbcabf560	-0.020991027
106	0xbd94b001	-0.072601326
107	0x3d9ba55e	0.07599901
108	0x3dcc0138	0.0996117
109	0x3d6fb8a9	0.058525715
110	0xbdef46ca	-0.11683424
111	0xbd7618d6	-0.06008228
112	0x3d8767e4	0.066116124
113	0x3d284732	0.041083522
114	0x3bea79c0	0.007155627
115	0xbd267621	-0.04064
116	0xbd97e206	-0.074161574
117	0xbabbcd50	-0.0014328156
118	0x3d8034de	0.062600836
119	0xbe01c736	-0.12673649
120	0xbe1bf2dd	-0.15229364
121	0xbcb330f8	-0.021873936
122	0xbc17febd	-0.009277043
123	0xbde5d42c	-0.11222109
124	0xbd94a3d7	-0.072578125
125	0x3d8cf6d1	0.06883014
126	0xbdc62485	-0.09674934
127	0xbe0660ab	-0.13122813
128	0xbd5346c3	-0.051581156
129	0x3d10336b	0.035205286
130	0x3d1e2014	0.03860481
131	0xbe669f0e	-0.22521612
132	0xbda16210	-0.07880032
133	0x3d160674	0.036627248
134	0x3d85e62a	0.06538041
135	0xbd948b73	-0.0725316
136	0xbdf31f17	-0.11871164
137	0x3d0e76a4	0.034781113
138	0x3cd4600e	0.025924709
139	0xbd141fe8	-0.03616324
140	0xbdc333ef	-0.0953139
141	0xbdda4dae	-0.106593475
142	0xbc585c47	-0.013205594
143	0x3d53a3cf	0.051669892
144	0xbe197d99	-0.14989318
145	0xbe0e0576	-0.1386927
146	0xbd8f07e3	-0.06983926
147	0xbd03669a	-0.03208027
148	0xbe081f70	-0.13293242
149	0xbdfb6405	-0.122749366
150	0x3d74a00b	0.05972294
151	0x3d1caa4e	0.038248353
152	0xbd272584	-0.040807262
153	0xbdbc538c	-0.09195623
154	0xbdf10281	-0.11768056
155	0x3d075257	0.03303751
156	0x3d658209	0.056032214
157	0x3cc1c9c6	0.023655783
158	0xbd6adb3a	-0.057337977
159	0xbe18fc1e	-0.14939925
160	0x3c556b3a	0.013026053
161	0xbccbd8de	-0.024883684
162	0xbd64e494	-0.05588205
163	0xbdab61c8	-0.0836826
164	0xbd8d6619	-0.06904239
165	0x3d1bbccb	0.038021844
166	0xbb1d0860	-0.002396129
167	0xbc773353	-0.01508792
168	0xbda66000	-0.08123779
169	0xbd99951a	-0.07499142
170	0x3d26492c	0.040597126
171	0xbd69bdc3	-0.057065737
172	0xbd839417	-0.0642473
173	0xbd60fc7f	-0.0549283
174	0xbda2d967	-0.079516225
175	0xbc9f234d	-0.019426012
176	0x3d28bba1	0.041194562
177	0xbdfaf270	-0.122532725
178	0xbe04d4ce	-0.12971804
179	0xbd41596d	-0.047204424
180	0xbd823017	-0.06356829
181	0xbce05b8e	-0.027387407
182	0xbe13a477	-0.14418207
183	0xbd3d7d36	-0.04626199
184	0x3db58daa	0.08864911
185	0xbc4c1e7b	-0.012458439
186	0xbde002bf	-0.10938024
187	0x3c2bb212	0.010479467
188	0xbd1d845b	-0.038456302
189	0x3d8778c5	0.06614832
190	0x3b23fd5d	0.0025022842
191	0xbc8871f7	-0.016655905
192	0x3db691f5	0.08914558
193	0xbd47d0e6	-0.048783205
194	0x3c42f361	0.011898846
195	0x3d0850bc	0.03328012
196	0x3dbaa29f	0.09113049
197	0x3d99ed8a	0.0751601
198	0x3d5e3813	0.054252695
199	0x3c86cf3b	0.016456237
200	0xbd8ca6f7	-0.068677835
201	0xbbb57cbc	-0.005538551
202	0xbd3e41de	-0.046449535
203	0x3d78d6f6	0.060751878
204	0x3e136620	0.14394426
205	0xbdcf2176	-0.10113804
206	0xbd955b80	-0.07292843
207	0xbd37dd75	-0.044888932
208	0x3e07cbf5	0.13261397
209	0x3d49e3f7	0.04928967
210	0xbdcb54ca	-0.099282816
211	0x3d184a6c	0.03718035
212	0xbbaa054f	-0.005188621
213	0x3e06d6b4	0.1316784
214	0x3dcba147	0.099428706
215	0x3d05aa46	0.03263309
216	0x3ce611e0	0.028084695
217	0x3d99aa1c	0.07503149
218	0x3d4e8b94	0.05042608
219	0xbd0fcd7c	-0.035108075
220	0x3d033327	0.032031205
221	0x3d4497d6	0.047996365
222	0x3bb82224	0.0056193043
223	0xbd118ec4	-0.035536543
224	0xbccfb215	-0.02535347
225	0xbdc4af0a	-0.096036986
226	0xbc72412d	-0.014786047
227	0xbd48977e	-0.0489726
228	0xbe1167c2	-0.14199737
229	0x3d144235	0.036195952
230	0x3db1c8eb	0.086809
231	0x3c853f28	0.016265467
232	0x3beea574	0.007282907
233	0xbe333389	-0.17500128
234	0xbcd163c9	-0.025560277
235	0x3de68b1c	0.11257002
236	0xbd8b258b	-0.0679427
237	0xbdaf6a81	-0.08565236
238	0xbda456da	-0.08024378
239	0x3de3bcc8	0.111199915
240	0x3d2dde17	0.04244813
241	0xbe0e4e23	-0.13896994
242	0xbda71c01	-0.08159638
243	0x3de8aaa0	0.11360669
244	0x3d33f6e7	0.043936636
245	0xbd3d7b69	-0.04626027
246	0xbce887cc	-0.028385065
247	0x3d8095c6	0.06278567
248	0x3d88fe11	0.06689084
249	0x39b14310	0.00033810036
250	0x3d5f3fea	0.054504313
251	0x3cbf243c	0.023332708
252	0x3d9186f4	0.071058184
253	0x3d228b1e	0.039683454
254	0xbc5bfd95	-0.013427158
255	0x3d378af9	0.04481027

c2.bias f4 [16]
0	0xbd961cfa	-0.073297456
1	0xbdb92488	-0.09040171
2	0xbddd7af3	-0.10814466
3	0xbd6abd36	-0.05730935
4	0xbdecd493	-0.11563983
5	0xbd7eff37	-0.06225511
6	0xbc9804a7	-0.018556906
7	0xbdb08c16	-0.08620469
8	0xbddc8c97	-0.10769003
9	0xbd772afe	-0.060343735
10	0xbd78fef6	-0.060790025
11	0xbdf55aeb	-0.11980232
12	0xbda4b6de	-0.08042692
13	0xbe0e6f42	-0.13909629
14	0xbe09d9d9	-0.13462009
15	0xbe192451	-0.1495526

c3.weight f4 [120, 16, 5, 5]
0	0xbcb81b46	-0.022473942
1	0x3cb4cf49	0.022071498
2	0x3dae8507	0.08521467
3	0x3d9bd1c2	0.076083675
4	0xbd1853f9	-0.037189458
5	0x3ae8c934	0.0017760159
6	0x3dd882ff	0.105718605
7	0x3d7259d2	0.05916769
8	0x3d90c74b	0.07069262
9	0x3d9dd0db	0.07705852
10	0x3d03a95e	0.032143943
11	0x3cc8cd1b	0.024511864
12	0x3bfd9409	0.0077385944
13	0xba8d7aab	-0.0010794004
14	0x3c13dcb5	0.009024789
15	0xbb7b3735	-0.0038332467
16	0xbb14c630	-0.0022701137
17	0xbd9c7530	-0.07639539
18	0xbc5942a2	-0.013260515
19	0xbd6c49ba	-0.0576875
20	0xbc364d6f	-0.01112686
21	0x3cbaf1c6	0.022820365
22	0x3d85b001	0.06527711
23	0xbc4ada5b	-0.012381162
24	0xbd5bd879	-0.05367324
25	0xbd93bb00	-0.07213402
26	0xbcdfed05	-0.0273347
27	0x3d222d73	0.039594125
28	0xbd35d2ca	-0.044390477
29	0xba5e7e22	-0.0008487423
30	0x3bdbc677	0.0067070085
31	0xbc2651ad	-0.010151309
32	0x3c760b4b	0.015017341
33	0x3ccf1e53	0.025283014
34	0x3bc8ada4	0.006124215
35	0xbba1819a	-0.00492878
36	0xbd134e32	-0.035963245
37	0xbd008373	-0.03137536
38	0x3d7b3b15	0.061335642
39	0xbc23f839	-0.010007911
40	0xbd7391eb	-0.05946533
41	0xbda86138	-0.08221668
42	0xbd75316c	-0.059861585
43	0xbd3c23d0	-0.04593259
44	0xbcfbb2b7	-0.030724866
45	0x3b0dfe63	0.002166652
46	0xbd0d3b12	-0.034480162
47	0xbd2180dd	-0.039429534
48	0x3a8a0cb8	0.0010532355
49	0xbcbe2a51	-0.023213537
50	0xbceb571d	-0.028728062
51	0x3c0804ca	0.008301923
52	0xbd692ede	-0.05692946
53	0x3cd1c91a	0.025608588
54	0xbd9162e3	-0.07098939
55	0x3bdf0782	0.006806315
56	0x390656a2	0.00012811509
57	0xbd51ddfe	-0.0512371
58	0xbdb3df86	-0.08782868
59	0x3bccd441	0.0062508886
60	0x3d0e7bb3	0.034785938
61	0x3db98f56	0.09060542
62	0x3d0a7097	0.03379878
63	0x3d9c48ea	0.07631095
64	0x3d3745e5	0.04474439
65	0xbd60914b	-0.054826062
66	0xbc59ecab	-0.013301055
67	0xbda3f892	-0.080063954
68	0xbd232a97	-0.03983554
69	0x3d983934	0.07432786
70	0xbd457a3c	-0.048212275
71	0xbd317970	-0.043328702
72	0xbd95d70a	-0.07316406
73	0xbdca556e	-0.09879576
74	0xbae4c604	-0.0017454033
75	0x38bb37e9	8.927269e-05
76	0x3cdb0985	0.026737938
77	0x3ca241c0	0.019806743
78	0xbc1997c4	-0.009374563
79	0xbd081d2a	-0.033230938
80	0xbdd112b5	-0.10208646
81	0xbd6496bd	-0.055807818
82	0x3d6be891	0.05759484
83	0xbc568326	-0.013092792
84	0xbcf33806	-0.0296898
85	0xbdbb93fc	-0.09159085
86	0x3ca044dc	0.019564085
87	0xbc2c05ff	-0.010499476
88	0xbc6fc14c	-0.014633488
89	0x3bf8149b	0.0075708157
90	0xbd5377ac	-0.0516278
91	0x3d2fd582	0.042928226
92	0x3b557bd9	0.003257504
93	0xbd5349b7	-0.05158397
94	0xbd35e276	-0.044405423
95	0xbc0e05df	-0.008668392
96	0xba239b09	-0.00062410586
97	0x3c3f037b	0.011658545
98	0xbd9c2b4c	-0.07625446
99	0x3c90aa8a	0.017659444
100	0x3c1d6e0e	0.009608759
101	0xbd4a7408	-0.049427062
102	0x3ce07aa7	0.027402235
103	0x3ca17158	0.019707367
104	0x3cfeaad9	0.031087326
105	0xbc7f2a57	-0.015574059
106	0xbcc4912c	-0.023995005
107	0xbc8d361d	-0.017237717
108	0xbd732f95	-0.05937155
109	0x3b1e3e79	0.0024146123
110	0x3b5ac9fc	0.0033384552
111	0x3cdcbd05	0.0269456
112	0xbcfedd7f	-0.031111477
113	0xbc2d6d2f	-0.010585113
114	0x3d164e96	0.03669604
115	0xbbcf5169	-0.0063268435
116	0xbcc10f5e	-0.023566898
117	0x3cb209fa	0.021733273
118	0x3d163a76	0.036676846
119	0x3c59d806	0.013296133
120	0xbd78d571	-0.06075043
121	0xbd8d6bac	-0.069053024
122	0x3782daf5	1.5599167e-05
123	0x3c17cd59	0.009265267
124	0x3bc7b20a	0.006094222
125	0xbcd14f26	-0.025550436
126	0x3c09e8c3	0.008417311
127	0x3d1aebed	0.037822653
128	0xbc51225b	-0.012764539
129	0x3c81a463	0.015825456
130	0xbd8c8c16	-0.06862657
131	0xbd7d248a	-0.061802424
132	0xbda871bd	-0.08224819
133	0xbd0022b7	-0.031283107
134	0xbc831452	-0.0160009
135	0xbd27f033	-0.041000556
136	0xbcc0d987	-0.023541225
137	0xbd9d7c28	-0.076896966
138	0x3c82c251	0.015961798
139	0x3c2189df	0.009859531
140	0x3dae22bb	0.08502718
141	0x3d59033a	0.052981593
142	0x3cfd75db	0.030939987
143	0x3cdaefef	0.026725737
144	0x3bcad244	0.0061896164
145	0xbce45915	-0.027874509
146	0xbc97352e	-0.018457975
147	0xbd6b559b	-0.057454687
148	0xbca6bb09	-0.020352857
149	0xbce621c9	-0.028092282
150	0xbc1ecf5e	-0.009692995
151	0x3ced3141	0.02895415
152	0xbd39a373	-0.045321893
153	0xbd0ac24d	-0.033876706
154	0x3d1d07aa	0.038337387
155	0xbda8e889	-0.082474776
156	0xbd583880	-0.052788258
157	0xbd190ad6	-0.03736385
158	0x3d1838c5	0.037163515
159	0x3c7fbcdc	0.015608992
160	0xbd8133b8	-0.06308693
161	0xbd4298df	-0.04750907
162	0xbd6934c9	-0.056935105
163	0xbdacc8ef	-0.084367625
164	0x3b9453b1	0.0045265784
165	0x3d7289e2	0.059213527
166	0x3db0617d	0.086123444
167	0x3c8ba424	0.017046042
168	0x3b7bae2a	0.003840337
169	0x3d380701	0.044928554
170	0xbcf1896b	-0.029484471
171	0xbc8312d3	-0.016000187
172	0x3d2cc7f3	0.042182874
173	0x3d69410c	0.0569468
174	0xbc444544	-0.011979405
175	0xbd5feba4	-0.054668084
176	0x3d77670a	0.060401
177	0xbc8c7a47	-0.01714815
178	0xbd8cc3c6	-0.06873278
179	0x3ab1b3ab	0.0013557574
180	0xbd7afee4	-0.06127824
181	0xbd08b731	-0.03337783
182	0xbd830c6f	-0.06398856
183	0x3d8b96e1	0.06815887
184	0x3d64141b	0.055683237
185	0xbd9f15e5	-0.07767848
186	0xbdb832e8	-0.089940846
187	0xbc6f73bf	-0.014614998
188	0x3cb8e9ee	0.022572484
189	0xbba5b730	-0.005057238
190	0xbce19c99	-0.027540492
191	0xbdba666e	-0.09101568
192	0x3d4e0770	0.05030006
193	0xbd3f1d01	-0.04665852
194	0xbbba3eb2	-0.0056837434
195	0xbcda02c5	-0.026612649
196	0xbcfc3447	-0.030786647
197	0xbd2b289d	-0.04178678
198	0x3c7f9b90	0.015601054
199	0xbd8bc114	-0.06823936
200	0xbd085bf5	-0.033290822
201	0xbc0cbc1c	-0.008589771
202	0xbc7fa90a	-0.015604267
203	0xbd483aa0	-0.048884034
204	0xbd510d7a	-0.051038243
205	0x3d886827	0.066604905
206	0x3ad40f50	0.001617888
207	0xbc3300e8	-0.010925509
208	0xbd92058c	-0.07129964
209	0xbc62ea45	-0.0138497995
210	0x3d81062c	0.06300005
211	0x3d98c47e	0.07459353
212	0x3c904d1b	0.017614892
213	0x3d72aeb2	0.059248634
214	0xbd804abf	-0.06264257
215	0x3ca98694	0.020694055
216	0xbd62071e	-0.05518257
217	0x3c2e32bb	0.010632212
218	0xbd8bc922	-0.068254724
219	0xbdb231e2	-0.08700921
220	0x3d4a956a	0.0494589
221	0x3d810ffc	0.06301877
222	0x3d2a4672	0.041571088
223	0xbc3f230a	-0.011666069
224	0xbd131e12	-0.03591735
225	0x3bffff53	0.0078124194
226	0x3d058127	0.032593872
227	0x3d8c4396	0.068488285
228	0x3cd199a1	0.025585951
229	0x3c4b1fb8	0.012397699
230	0xbb58f3df	-0.0033104343
231	0x3d1d3c07	0.038387325
232	0x3cf3c1f1	0.029755564
233	0xbc3f9977	-0.011694304
234	0x3d2e5c99	0.042568777
235	0x3ca782be	0.020448085
236	0x3d1bc34f	0.038028058
237	0xbcf2f411	-0.029657396
238	0xbd4fdf8c	-0.0507503
239	0xbd118d81	-0.03553534
240	0x3d89d5b7	0.06730216
241	0x3d842e0d	0.06454096
242	0xbc09cd33	-0.00841074
243	0x3cfc785a	0.030819107
244	0x3c3f6971	0.011682854
245	0x3c6bafbc	0.01438516
246	0x3b881fde	0.0041541895
247	0x3c1b16aa	0.009465853
248	0xbad2496d	-0.0016043611
249	0x39598fb2	0.00020748263
250	0xbd5cdc60	-0.053921103
251	0xbcde2d8a	-0.027121324
252	0xbcb7eeac	-0.022452675
253	0x3d5d866e	0.05408328
254	0x3d142eba	0.036177374
255	0xbe00a525	-0.12562998

c3.bias f4 [120]
0	0xbc34cc7b	-0.01103508
1	0x3ce105ef	0.02746865
2	0x3d169a23	0.03676809
3	0xbd40efc3	-0.047103655
4	0x3d379ade	0.044825427
5	0x3c40d891	0.011770383
6	0x3c8a4862	0.016880218
7	0x3a95999c	0.0011413577
8	0x3c5b43ac	0.013382833
9	0xbc2445d9	-0.010026419
10	0x3cccaa81	0.024983646
11	0xbc94ad9f	-0.018149195
12	0xbd1e6b4d	-0.03867655
13	0xbc79a119	-0.015236163
14	0x3bc0cc22	0.0058837095
15	0x3d2684e1	0.040654067
16	0xbc6ab2a8	-0.0143248215
17	0xbd7bca0d	-0.061471988
18	0xbcf0a137	-0.029373748
19	0xbd1c46ce	-0.038153462
20	0xbd893545	-0.066996135
21	0xbcc5f20e	-0.024163272
22	0xbd196d83	-0.037457954
23	0xbd526501	-0.051365856
24	0xbc88a326	-0.016679358
25	0x3b7ac5d8	0.0038264897
26	0xbd33248a	-0.04373602
27	0x3cdd096e	0.026982035
28	0xbc0384f5	-0.008027305
29	0x3cfb29e6	0.030659627
30	0xbd4f326c	-0.050585195
31	0xbce6bfc1	-0.028167607
32	0x3cd167ee	0.025562253
33	0xbcc8a326	-0.024491858
34	0xbcf32ed7	-0.02968542
35	0xbc7eb9c6	-0.0155472215
36	0xbc5b279c	-0.013376143
37	0x3c0dc96d	0.008653981
38	0x3c4e78b8	0.012602024
39	0xbd381448	-0.044941217
40	0xbd283d5f	-0.041074153
41	0x3d14f57a	0.036366917
42	0x3cb691ca	0.022286315
43	0xbbaa51ea	-0.005197753
44	0xbb652073	-0.0034961968
45	0xbd3db993	-0.046319555
46	0x3d066033	0.032806586
47	0xbc79dc58	-0.015250288
48	0x3d3306ed	0.043707777
49	0x3c531141	0.012882532
50	0xbd03fcba	-0.03222344
51	0xbd3e6ede	-0.04649245
52	0xbd0e804f	-0.034790333
53	0x3c94dca1	0.01817161
54	0x3cbc6833	0.022998905
55	0xbbe1d8a4	-0.0068922807
56	0x3d25c843	0.040474188
57	0x3cb04818	0.021518752
58	0x3aaf34ee	0.0013367215
59	0xbbfb8407	-0.007675651
60	0x3cc76e48	0.024344578
61	0x3cba2fa4	0.022727795
62	0x3a7790f3	0.00094439014
63	0xbd28c535	-0.041203696
64	0xbcb7b2de	-0.022424158
65	0xbcdabaf6	-0.026700478
66	0xbc511e93	-0.012763637
67	0xbb958234	-0.0045626406
68	0x3cd03b47	0.02541889
69	0x3d019d4d	0.031644154
70	0xbd4477af	-0.0479657
71	0xbd06a9ba	-0.032876708
72	0xbb3cb09d	-0.0028791793
73	0x3b5a8d61	0.0033348429
74	0xbd069fb0	-0.032867134
75	0x3cdab66c	0.026698314
76	0xbcaf966a	-0.021434028
77	0xbca39237	-0.019967182
78	0xbd07fd2c	-0.033200428
79	0xbcb10487	-0.021608604
80	0xbcff44cb	-0.031160733
81	0xbd6607c5	-0.056159753
82	0xbca0e940	-0.019642472
83	0xbd21d44e	-0.03950911
84	0xbd50b9e8	-0.050958544
85	0x3d3b47e6	0.045722865
86	0x3ccf532e	0.025308218
87	0x3d19e8c7	0.03757551
88	0x3d65f1ce	0.056138806
89	0xbd00b1da	-0.031419612
90	0xbcb05610	-0.021525413
91	0x3cdebe60	0.027190387
92	0xbc696944	-0.014246289
93	0x3c1484ce	0.009064866
94	0x3cec826f	0.02887079
95	0xbcb9daf4	-0.022687413
96	0x3b53c1e9	0.0032311624
97	0xbd059f6d	-0.032622743
98	0x3d349578	0.044087857
99	0x3c4e6557	0.0125974035
100	0xbbe6057f	-0.007019698
101	0xbca915cf	-0.020640282
102	0xbd3b8a38	-0.045786113
103	0xbd2ee862	-0.042702086
104	0xbd4755e3	-0.048665892
105	0xbd217fc9	-0.039428506
106	0x3c289985	0.010290508
107	0xbd0abd2d	-0.03387182
108	0x3d0d84dd	0.034550536
109	0xbb3e6cb6	-0.0029056496
110	0x3bf9ec60	0.007627055
111	0xbac024a5	-0.0014659358
112	0x3b9ccbf6	0.004785056
113	0x3d338a6d	0.043833185
114	0xbd0c3ec7	-0.034239557
115	0xbd2daced	-0.042401243
116	0x3caa0b45	0.020757327
117	0x3d6ab773	0.057303857
118	0xbc214472	-0.009842979
119	0x3d48994f	0.04897433

fc1.weight f4 [84, 120]
0	0x3d82285e	0.06355356
1	0x3c0b9e26	0.008521592
2	0xbe02d8b5	-0.1277798
3	0x3c5c05c0	0.013429105
4	0x3e06ebe1	0.13175918
5	0x3dca7281	0.09885121
6	0xbc42aa53	-0.011881429
7	0x3e3017a8	0.17196524
8	0xbd75e06c	-0.06002848
9	0x3da42fb1	0.08016909
10	0xbda38fe9	-0.07986433
11	0x3bb9184b	0.005648648
12	0x3da5b46c	0.08091053
13	0x3daca47e	0.08429812
14	0xbc38df22	-0.011283668
15	0x3c508a6f	0.012728318
16	0xbdcb8412	-0.099373
17	0xbdd6a900	-0.10481453
18	0x3c1307d7	0.008974037
19	0x3d449cde	0.048001163
20	0xbd0069d8	-0.03135094
21	0x3d7ed3cc	0.062213704
22	0x3d98c7cc	0.07459983
23	0x3d0c4d3d	0.034253348
24	0x3cb7674d	0.022388125
25	0x3d2ea068	0.042633444
26	0xbe303588	-0.1720792
27	0xbd16e4a6	-0.03683915
28	0xbdb024d6	-0.08600776
29	0xbd937d12	-0.0720159
30	0xbdece6df	-0.11567473
31	0xbe37348a	-0.17891136
32	0x3d183150	0.037156403
33	0xbd881ff2	-0.06646718
34	0x3d839a72	0.064259425
35	0xbe482529	-0.19545425
36	0xbc78c206	-0.015182978
37	0xbc5e6d0c	-0.0135758035
38	0xbc7ee22c	-0.015556853
39	0x3db25558	0.08707684
40	0xbbfce5ae	-0.0077178096
41	0xbdcfbc62	-0.10143353
42	0x3dd692e9	0.1047724
43	0xbd0b2459	-0.03397021
44	0xbdbb64b7	-0.09150069
45	0xbc9276f2	-0.017878983
46	0x3c2746a2	0.010209711
47	0x3dbd7cd9	0.092523284
48	0x3d6ffd04	0.058590904
49	0xbe1459cd	-0.14487381
50	0xbcf3e777	-0.029773457
51	0x3da70dab	0.08156904
52	0x3d6795de	0.05653941
53	0x3e131058	0.14361703
54	0x3a469955	0.0007575949
55	0x3d5c0581	0.053716186
56	0xbc000f60	-0.007816166
57	0xbcd70382	-0.02624679
58	0x3d4d89b2	0.050180145
59	0x3db69c63	0.08916547
60	0xbe2682eb	-0.16260879
61	0xbcce7390	-0.025201589
62	0x3d3fa4bb	0.04678796
63	0x3dc80f16	0.097685024
64	0xbd4a865e	-0.04944455
65	0x3d83f445	0.06443075
66	0xbdc4f3ef	-0.09616839
67	0xbd36dc3f	-0.044643637
68	0x3e340605	0.17580421
69	0x3d8d1089	0.068879195
70	0xbcfb443a	-0.030672181
71	0xbdd8bdde	-0.10583089
72	0x3bfcb244	0.0077116806
73	0xbd94d60b	-0.07267388
74	0xbd5d4f34	-0.054030612
75	0xbdf2dbd0	-0.11858332
76	0xbd8faa0e	-0.07014857
77	0x3c9bf6f3	0.019038653
78	0x3d4026aa	0.046911873
79	0x3d5c7146	0.053818963
80	0xbe3ed151	-0.18634535
81	0x3d4dfbcf	0.05028897
82	0xbca1cdd4	-0.019751467
83	0xbd325cae	-0.043545417
84	0xbcd68943	-0.026188498
85	0x3af054c2	0.0018335807
86	0x3c31a33a	0.010842139
87	0x3c40b4fa	0.011761898
88	0x3d190db6	0.03736659
89	0xbcd03b52	-0.025418911
90	0x3b9eaf12	0.0048426474
91	0xbd20dbd3	-0.03927214
92	0x3e0a2c9f	0.13493584
93	0xbe35f4e5	-0.17769201
94	0x3dd93158	0.10605115
95	0x3d9f4405	0.077766456
96	0xbdf2576d	-0.118330814
97	0xbca7d530	-0.020487398
98	0xbddfd1b5	-0.1092867
99	0xbd9a869e	-0.075452074
100	0x3be24068	0.0069046505
101	0xbdee2d55	-0.1162974
102	0x3e0d34f3	0.1378973
103	0xbc4a6f4a	-0.012355635
104	0x3dc24982	0.09486677
105	0x3df6442b	0.12024721
106	0xbd98562c	-0.07438311
107	0x3e16bde9	0.14720882
108	0xbc654ceb	-0.013995389
109	0xbdd7cf89	-0.10537631
110	0xbe4e6521	-0.20155765
111	0xbd58944c	-0.052875802
112	0x3c81785a	0.015804458
113	0x3e11b23e	0.1422815
114	0x3e06fd19	0.13182487
115	0x3d62fe92	0.05541856
116	0xbe0374ba	-0.12837496
117	0xbcb5ffd9	-0.022216724
118	0xbe473e63	-0.19457392
119	0x3d367665	0.044546504
120	0x3dd90fde	0.105987296
121	0x3e4ad8e1	0.19809295
122	0x3c8a6fad	0.016898954
123	0xbe281636	-0.16414723
124	0x3b864b4e	0.0040983325
125	0xbd746a5b	-0.05967174
126	0x3de32b59	0.11092252
127	0x3bfe1fd2	0.007755258
128	0x3bf197ca	0.007372831
129	0x3e1f6aed	0.15568133
130	0x3d315ce4	0.043301478
131	0x3e077a0f	0.13230155
132	0x3e10ee7b	0.14153473
133	0xbd28752e	-0.041127376
134	0xbded6a46	-0.11592536
135	0xbde4fa3c	-0.11180541
136	0x3bc70aed	0.0060743005
137	0x3d8808ab	0.06642278
138	0xbc96e692	-0.018420491
139	0xbddb7a23	-0.10716655
140	0x3d025ac4	0.031824842
141	0xbd5150d8	-0.05110249
142	0x3dbdc4b6	0.09266035
143	0xbd41768f	-0.047232207
144	0x3df66be4	0.12032297
145	0x3e13490e	0.14383337
146	0xbe317e49	-0.1733333
147	0xbc809ebf	-0.015700696
148	0xbdcf668b	-0.101269804
149	0xbd2ddb0a	-0.04244522
150	0x3d98da72	0.0746354
151	0x3d760e68	0.060072333
152	0xbd40780f	-0.046989497
153	0x3e1bf584	0.15230376
154	0x3c7be213	0.0153737245
155	0xbdc58ae8	-0.09645635
156	0x3d90d683	0.07072165
157	0x3cfd4513	0.030916726
158	0x3dabe02f	0.08392369
159	0x3e04ddc9	0.1297523
160	0x3d25a46b	0.040440004
161	0xbda1e49d	-0.07904933
162	0xbcb9a134	-0.022659875
163	0xbd5c9573	-0.053853463
164	0xbd26d643	-0.04073168
165	0xbde1d46d	-0.11026845
166	0x3dadda58	0.084889114
167	0x3e3d42ec	0.1848256
168	0xbde57386	-0.11203675
169	0xbc56662e	-0.013085885
170	0x3d9b3173	0.07577791
171	0xbcf14bb3	-0.029455042
172	0x3ba63432	0.00507214
173	0xbc5fa8de	-0.013651101
174	0x3c76fb1c	0.015074518
175	0x3d685062	0.056717284
176	0x3cfae28d	0.030625606
177	0xbd73cc21	-0.059520844
178	0x3b846494	0.00404031
179	0x3cc8cb8a	0.024511117
180	0x3dcb3c42	0.09923603
181	0xbd9041d3	-0.07043805
182	0xbdb190c9	-0.08670194
183	0x3e022538	0.1270951
184	0xbd906284	-0.0705004
185	0x3d4b34ba	0.04961083
186	0xbd92c7ac	-0.07166991
187	0x3d4bb432	0.049732395
188	0xbddc527b	-0.107579194
189	0xbdb53f57	-0.08849972
190	0x3dde9401	0.10868073
191	0x3e2ab0fd	0.16669078
192	0x3e184269	0.14869083
193	0xbdec5571	-0.11539734
194	0x3d8c1212	0.06839384
195	0x3d46ac53	0.048504185
196	0xbd5719da	-0.05251489
197	0x3d8101ac	0.06299147
198	0xbe3b0cf8	-0.18266666
199	0x3e43ddd2	0.19127586
200	0x3ddd800b	0.10815438
201	0xbdeaa798	-0.11457747
202	0x3dd8f4d2	0.10593571
203	0xbdfe4a7d	-0.12416551
204	0xbd86df4a	-0.06585558
205	0x3d36920c	0.044572875
206	0xb81228d2	-3.484713e-05
207	0x3d9411b9	0.07229943
208	0xbdaa59b0	-0.08317888
209	0xbe1123dc	-0.14173836
210	0xbdbd733e	-0.09250496
211	0x3c935865	0.017986486
212	0xbd215452	-0.039387055
213	0x3c94d499	0.01816778
214	0x3d2d0185	0.042237777
215	0xbd0c0b6c	-0.03419058
216	0xbd521c70	-0.05129665
217	0x3dd1d8db	0.1024644
218	0x3dd44b85	0.10365967
219	0x3cf63adb	0.030057361
220	0xbcded0da	-0.027199198
221	0xbd9919ed	-0.07475648
222	0x3d0fce38	0.035108775
223	0x3dc04fa3	0.093901895
224	0x3d11ef52	0.035628624
225	0xbc52a96d	-0.012857777
226	0xbd4a48da	-0.049385883
227	0x3d320c83	0.043468963
228	0xbce2cadb	-0.02768462
229	0xbc9d2c5d	-0.019186193
230	0x3e260a9b	0.16214983
231	0xbd8e8517	-0.069589786
232	0xbe4a8f33	-0.19781189
233	0x3d8611e9	0.06546385
234	0x3e262fec	0.16229218
235	0xbb21ca13	-0.0024687096
236	0x3c58aeef	0.013225301
237	0xbd5cebc3	-0.053935777
238	0xbdf77a22	-0.12083842
239	0x3de38f34	0.11111298
240	0xbda82354	-0.08209863
241	0xbcb3c7ba	-0.021945823
242	0x3dd72233	0.1050457
243	0xbda9ed2a	-0.082971886
244	0xbd2a19b3	-0.041528415
245	0xbce6cd34	-0.02817402
246	0xbc0f57cc	-0.00874896
247	0xbd0430f9	-0.032273266
248	0xbbfd473c	-0.007729439
249	0xbdbccb11	-0.09218419
250	0xbd9fb662	-0.07798459
251	0xbd0b83fe	-0.034061424
252	0xbe51096c	-0.2041375
253	0xbd40d170	-0.047074735
254	0xbd34e63d	-0.044164885
255	0x3b53e853	0.003233452

fc1.bias f4 [84]
0	0xbd9cdb60	-0.0765903
1	0x3c51a92d	0.012796682
2	0x3ce7ff43	0.02831996
3	0x3d0cb434	0.034351543
4	0x3db302a6	0.087407395
5	0xbdd2d004	-0.10293582
6	0x3d67b1fd	0.056566227
7	0xbb9a5e8b	-0.0047109774
8	0x3d47dd1d	0.048794854
9	0xbd55fe10	-0.052244246
10	0x3d76dbe1	0.060268287
11	0xbd318f98	-0.043349832
12	0xbdb335a8	-0.087504685
13	0xbc36d258	-0.011158548
14	0x3c0b86d6	0.008516034
15	0xbc7d4a18	-0.01545956
16	0x3d66b74b	0.056327146
17	0x3c9b6dc6	0.018973242
18	0xbd3ff568	-0.046864897
19	0x3d8b8ec4	0.0681434
20	0x3d8fba59	0.07017965
21	0xbd44f51e	-0.048085324
22	0xbdd21716	-0.102583095
23	0x3daee3a2	0.08539511
24	0x3d288f69	0.04115239
25	0x3db765a1	0.08954931
26	0xbd76ae2b	-0.060224693
27	0xbd0f2326	-0.03494563
28	0xbd2541af	-0.040345844
29	0xbd37088e	-0.044685893
30	0x3b80732b	0.003919979
31	0xb9812e8f	-0.00024639486
32	0xbd925a8b	-0.07146176
33	0xbac8be9e	-0.0015315597
34	0xbc93d3da	-0.018045355
35	0xbddb2fdb	-0.10702487
36	0xbda115ae	-0.07865463
37	0xbd6d813f	-0.057984587
38	0xbb11546d	-0.0022175566
39	0xbc0dd6ef	-0.008657201
40	0xbc4d4216	-0.012527963
41	0xbd6a72e7	-0.057238486
42	0xbcc1e48c	-0.02366855
43	0xbd77ce2e	-0.060499363
44	0xbddae90f	-0.10688984
45	0xbd1079e1	-0.035272483
46	0xbda39c00	-0.07988739
47	0x3d932563	0.07184865
48	0xbc6186ac	-0.013765018
49	0xbdb48941	-0.088152416
50	0x3c2dc0f7	0.010605088
51	0xbb90bbff	-0.004416942
52	0xbcc63bb1	-0.024198385
53	0xbd9f782d	-0.077865936
54	0x3b4cd123	0.0031252585
55	0x3c13d069	0.009021857
56	0xbd344484	-0.044010654
57	0x3db054d2	0.08609928
58	0xbd761cec	-0.060086176
59	0x3b022d0d	0.0019863278
60	0xbd76873c	-0.060187563
61	0x3d05f37d	0.03270291
62	0xbd7e44f3	-0.062077474
63	0x3cd92780	0.026508093
64	0x3cd395ea	0.02582832
65	0x3d9117d6	0.070846245
66	0xbdafc8eb	-0.08583244
67	0x3cdf87fd	0.027286524
68	0xbd715ad9	-0.05892453
69	0xbc7f58eb	-0.015585165
70	0x3d6ac60b	0.057317775
71	0x3cb3beb2	0.021941517
72	0xbca17e07	-0.019713415
73	0x3d7fa4df	0.062413093
74	0x3d6e8b48	0.058238298
75	0xbcf2cfd5	-0.029640118
76	0x3d571d25	0.05251803
77	0xbd02b3fc	-0.031909928
78	0x3d376098	0.044769853
79	0x3ce507dd	0.027957851
80	0x3d6688a3	0.05628265
81	0xbd224475	-0.039616067
82	0x3c6617e4	0.014043782
83	0xbb1989a2	-0.0023427983

fc2.weight f4 [10, 84]
0	0xbe81419d	-0.2524537
1	0x3e9e7934	0.30951846
2	0x3dc9af89	0.09847934
3	0xbe633748	-0.22189057
4	0xbdf4a169	-0.11944849
5	0xbd3f7bd8	-0.046748966
6	0xbe3085b1	-0.17238499
7	0xbdff9da3	-0.12481239
8	0x3dfbeaad	0.1230062
9	0xbe5e2bcb	-0.21696393
10	0xbec4fa55	-0.38472238
11	0x3e2a443e	0.16627595
12	0x3e56b113	0.20965986
13	0xbd32f70b	-0.04369263
14	0xbe10fde4	-0.14159352
15	0xbd231429	-0.039814148
16	0xbe9726a9	-0.29521683
17	0xbe895f95	-0.26830736
18	0xbe893cf0	-0.26804304
19	0xbd9d68bb	-0.076859914
20	0xbdbcce18	-0.09218997
21	0x3e4b567f	0.19857214
22	0xbe0be75b	-0.13662474
23	0x3e0b825c	0.13623947
24	0x3dadc8e2	0.08485581
25	0xbd81c6bf	-0.06336736
26	0x3d1dc1bb	0.038514834
27	0xbe9743ae	-0.29543823
28	0x3e3e7949	0.18600954
29	0xbe193e90	-0.14965272
30	0xbdeea3b9	-0.11652321
31	0x3e8233e9	0.2543023
32	0x3e87b425	0.26504627
33	0xbe2eefe5	-0.170837
34	0x3e41beb9	0.18920411
35	0x3e856a87	0.26057836
36	0x3c9be648	0.019030705
37	0xbd853bf2	-0.06505574
38	0xbd587d5d	-0.05285393
39	0xbde2a3b0	-0.11066377
40	0x3e2eaa60	0.1705718
41	0xbe681d70	-0.2266748
42	0xbe75764f	-0.23970912
43	0x3c458fb4	0.012058187
44	0xbe805209	-0.25062588
45	0x3d5ed37f	0.054400917
46	0xbdcb8023	-0.099365495
47	0x3dd0a1a5	0.10187081
48	0xbe016b76	-0.1263865
49	0xbe9b9791	-0.30389073
50	0x3e32f405	0.17475899
51	0x3c86fd35	0.01647816
52	0x3d420aa9	0.047373448
53	0xbda1dd64	-0.07903555
54	0x3e11322c	0.14179295
55	0xbe1f4e72	-0.15557268
56	0x3e549141	0.20758535
57	0x3dfd8e92	0.12380709
58	0xbe4c34e4	-0.19942051
59	0xbddfb768	-0.10923654
60	0xbd92d188	-0.07168871
61	0xbec2a33d	-0.38015166
62	0xbe067c89	-0.13133444
63	0xbe21c28d	-0.15796871
64	0xbe360acd	-0.17777558
65	0x3e17a48b	0.14808862
66	0x3e3610cf	0.1777985
67	0xbe221664	-0.15828854
68	0xbd21d002	-0.039505012
69	0x3e1660f5	0.14685424
70	0x3e1b820f	0.15186332
71	0xbc94285a	-0.018085647
72	0xbe27fdf1	-0.16405465
73	0xbe845a36	-0.25850075
74	0xbe48a467	-0.19593965
75	0xbe35746d	-0.17720194
76	0x3e7064d8	0.23475969
77	0xbe1abbc5	-0.15110691
78	0x3e5f1f0c	0.21789187
79	0x3c4b858f	0.01242198
80	0x3e0a3f25	0.1350065
81	0xbe7401dd	-0.23828836
82	0x3e8f087f	0.2793617
83	0xbc9a8731	-0.018863292
84	0x3d6064d1	0.054783646
85	0x3cd8f55f	0.02648419
86	0xbe6587ce	-0.22415087
87	0x3e2d5ec2	0.16930678
88	0xbd8f03a9	-0.0698312
89	0xbdb87dfe	-0.09008406
90	0x3e4b029c	0.19825214
91	0x3e5eb56c	0.21748894
92	0x3e36e0ce	0.17859194
93	0x3dd79f2e	0.10528408
94	0xbe6b4a2f	-0.22977518
95	0xbe4dd367	-0.20100175
96	0xbe6dacc4	-0.23210436
97	0xbdfa191e	-0.12211822
98	0x3e96e7dd	0.29473773
99	0x3cbb8611	0.022891076
100	0x3e8585a6	0.26078528
101	0x3e1be050	0.15222287
102	0x3e3cfe86	0.18456468
103	0x3df0ca2f	0.117573135
104	0x3e5444e2	0.20729402
105	0xbdf37641	-0.118877895
106	0xbe03939d	-0.12849279
107	0xbe104c2e	-0.1409156
108	0xbe997ab0	-0.29976416
109	0x3e449f05	0.19201286
110	0xbe76c9e1	-0.24100448
111	0xbe464662	-0.19362786
112	0x3e3639bd	0.17795463
113	0x3e4d7e26	0.20067653
114	0xbe84ea82	-0.25960165
115	0x3e7c7de0	0.24657393
116	0xbdd08cc9	-0.10183103
117	0x3e6281e6	0.22119865
118	0xbdb5bfa5	-0.08874444
119	0xbe466a44	-0.19376475
120	0xbe5cd0d1	-0.21564032
121	0x3e9c6d02	0.30551916
122	0x3de5a99b	0.1121399
123	0x3d64b40c	0.05583577
124	0xbd99b23e	-0.075047
125	0xbd62d90b	-0.05538277
126	0xbe4c03ac	-0.19923276
127	0x3e85275a	0.26006585
128	0x3decec87	0.115685515
129	0xbb9c6b8a	-0.004773562
130	0xbdc80f8f	-0.097685926
131	0xbe6bcd43	-0.2302752
132	0x3e875d80	0.26438522
133	0xbe89316e	-0.26795524
134	0x3c3d714c	0.011562657
135	0xbe90d953	-0.28290805
136	0xbe73a818	-0.23794591
137	0xbe77ffbc	-0.24218649
138	0x3e617073	0.22015552
139	0x3e86805c	0.26269805
140	0xbe0d40d5	-0.13794263
141	0xbe065f69	-0.13122334
142	0x3e658b1e	0.2241635
143	0x3d97272c	0.07380518
144	0xbe907ca3	-0.2822009
145	0xbe6dcfc9	-0.23223795
146	0x3e334a1b	0.17508738
147	0x3e4c42a6	0.199473
148	0xbd4516f0	-0.048117578
149	0xbe1ac23f	-0.15113162
150	0xbe2eda6b	-0.17075507
151	0x3df7adfd	0.120937325
152	0xbea1af39	-0.31578997
153	0xbe82360d	-0.25431862
154	0xbe6b9cf6	-0.23009095
155	0xbe1c016a	-0.15234914
156	0x3e3f63c0	0.18690395
157	0x3e171d5c	0.14757293
158	0x3e76fc57	0.24119698
159	0x3e18f961	0.1493888
160	0xbe9a6780	-0.3015709
161	0xbcd4fc95	-0.025999347
162	0x3e5ca19c	0.21546024
163	0xbe01bbf3	-0.12669353
164	0xbe30f4bd	-0.1728086
165	0x3e4a8c7f	0.19780158
166	0xbe382f27	-0.17986737
167	0x3e83e431	0.25760034
168	0x3e1f699d	0.15567632
169	0x3e84cf3d	0.2593936
170	0x3d023976	0.03179308
171	0x3e287ae4	0.16453129
172	0xbd2c38cd	-0.042046357
173	0x3e51fb27	0.20505963
174	0x3e10d124	0.14142281
175	0x3d97854b	0.073984705
176	0xbe5892e3	-0.21149783
177	0xbe993c2d	-0.29928723
178	0x3e24e48d	0.1610281
179	0xbdacf39b	-0.084449016
180	0xbe417e5d	-0.1889586
181	0x3eacfd20	0.3378687
182	0xbd5b27bb	-0.053504687
183	0xbe94344f	-0.28946158
184	0x3dfdb229	0.12387497
185	0x3e50819d	0.20361944
186	0x3e206e10	0.15666986
187	0xbe0c9254	-0.13727695
188	0x3e535c5c	0.20640701
189	0xbe87a883	-0.26495752
190	0x3da3c5ee	0.079967365
191	0xbe5c2137	-0.21497045
192	0xbdf8b70b	-0.12144288
193	0x3e2d8511	0.16945292
194	0x3d666ef5	0.05625816
195	0xbe92b46f	-0.28653285
196	0xbe2bae8d	-0.16765805
197	0xbc6958da	-0.014242375
198	0xbe8f1c18	-0.2795112
199	0x3e76101f	0.24029587
200	0x3ec432af	0.3831992
201	0x3e14139a	0.14460602
202	0xbe48b417	-0.19599949
203	0xbe3211d8	-0.1738962
204	0xbe0da817	-0.13833652
205	0xbe44e4fd	-0.19227977
206	0x3d82d270	0.06387794
207	0x3daf883f	0.08570909
208	0x3d9244d4	0.07142034
209	0x3d99f181	0.07516766
210	0xbe8021d3	-0.25025806
211	0x3e14081e	0.14456221
212	0xbe84580e	-0.2584843
213	0x3dcfa2d8	0.10138482
214	0x3e89f6ff	0.26946256
215	0xbe3b53e8	-0.18293726
216	0x3dc18d05	0.094507255
217	0xbe9216df	-0.28533074
218	0xbe59c0cc	-0.21264952
219	0xbe85a81c	-0.2610482
220	0xbb6616d7	-0.0035108828
221	0x3e69f81d	0.22848554
222	0xbe4f543f	-0.20246981
223	0xbeb1a3ba	-0.34695226
224	0x3e8ca149	0.274668
225	0x3e814ceb	0.25253996
226	0x3e1b0540	0.15138721
227	0xbe8b1b47	-0.27169248
228	0x3e274d0a	0.16337982
229	0x3d1206b5	0.035650928
230	0xbe5defd6	-0.21673521
231	0xbe2079ef	-0.15671514
232	0x3e33683b	0.1752023
233	0x3e1913b7	0.14948927
234	0x3d92e6e5	0.07172946
235	0xbda0a2f3	-0.0784358
236	0x3e632c5b	0.22184889
237	0x3d994f8f	0.07485878
238	0xbd9e5dda	-0.077327445
239	0x3e15e3e5	0.14637716
240	0x3e1ab348	0.15107453
241	0xbe2ee4aa	-0.17079416
242	0xbe2f2391	-0.17103411
243	0xbe9740c9	-0.29541615
244	0x3e026158	0.12732446
245	0xbd71480f	-0.05890661
246	0xbba892b6	-0.0051444424
247	0xbddcc9fb	-0.10780712
248	0xbe6669b4	-0.2250126
249	0x3e3f1bd6	0.18662962
250	0xbe3ab0df	-0.18231533
251	0xbd831c99	-0.06401939
252	0xbe4aa272	-0.1978853
253	0xbe694081	-0.22778513
254	0x3e20c0d2	0.15698555
255	0xbd00b70a	-0.03142456

fc2.bias f4 [10]
0	0x3d6531c5	0.055955667
1	0xbc4f742a	-0.012661973
2	0x3d40267d	0.046911705
3	0xbe0f730f	-0.14008735
4	0x3d7bce5e	0.061476104
5	0x3d908316	0.07056253
6	0x3c61ecb0	0.013789341
7	0x3b85dccb	0.0040851585
8	0xbd5ca573	-0.053868722
9	0xbd4ad57b	-0.049519997
